src/GraspNode/models/model_button_0116_1.pt (torch, 456482 bytes, 15 tensors)

weight f4 [64, 13]
000000 37 96 1e 3d f0 7a b6 3e eb 39 0f 3d d9 47 c5 bd
       0.038717475 0.3564067 0.034967344 -0.096328445
000010 7a 4a cc be 34 ae be 3e 0f 81 7f be 0e b7 14 3c
       -0.3990057 0.3724228 -0.24951576 0.009076847
000020 8d c7 b5 3e 4c d9 66 be 2a 5a 7b 3e 94 ec 54 be
       0.35503808 -0.2254383 0.24546114 -0.20793372
000030 69 59 f0 be 9c 70 eb be 98 07 00 bd 25 2d 90 be
       -0.46943215 -0.45984352 -0.031257242 -0.28159443
000040 90 7b 95 3e ca 91 f0 3d ba 45 b9 3e 3f 80 21 3d
       0.29195833 0.11746557 0.3618601 0.039428946
000050 15 19 13 be 77 5f ca 3e 35 9b 6f 3e 7a 33 fe bd
       -0.14365037 0.3952596 0.2339905 -0.12412162
000060 ea c4 dd 3d 97 27 9e be 61 1a e4 bc d8 55 e7 b9
       0.10828574 -0.3088958 -0.02784461 -0.00044123712
000070 eb e8 cb 3d fe f1 5f 3e aa 44 eb be 3f 54 9e be
       0.09956535 0.21869656 -0.45950824 -0.3092365
000080 be 71 30 3d 78 22 e5 bd 8d 19 63 3e 7a 3e 2b be
       0.043077223 -0.11188215 0.22177716 -0.16723052
000090 ae 6e 11 3e a2 fb c2 3e d1 63 1d 3f fd 45 1e 3e
       0.14202377 0.38082606 0.6148043 0.15456386
0000a0 7e e8 01 bf 5b 0e a9 3e a5 2e dc 3e 2d 53 18 3e
       -0.5074538 0.33018765 0.43004337 0.14875479
0000b0 78 b8 af bb b1 fa 08 be 96 ca 98 be 11 38 a0 bc
       -0.0053625666 -0.13376881 -0.2984206 -0.019557985
0000c0 a8 d4 8c 3e 06 88 94 3e 45 14 b6 be 03 da c0 3d
       0.27505994 0.29010028 -0.3556234 0.094165824
0000d0 3e 5e fd 3e ff ba 5d bb c7 f1 44 3e ac 60 96 be
       0.49485964 -0.0033833382 0.19232856 -0.2937063
0000e0 8b 9b 03 bd 21 eb 98 be 27 03 8c bd 67 91 a2 3e
       -0.03213076 -0.2986689 -0.06836539 0.31751558
0000f0 23 30 16 3d 96 45 80 be 96 9f b1 3b 20 4a 92 3e
       0.036667 -0.2505309 0.0054206355 0.28572178
000100 23 4c f4 3e 40 ad 81 3e cd ed d4 3e 5d 38 86 be
       0.47714338 0.25327492 0.41587678 -0.26214877
000110 fd f9 e0 bd 66 c9 44 be b2 7d 1c bf 9b 86 91 3d
       -0.109851815 -0.19217452 -0.61129296 0.07105752
000120 bd a4 2a bd b8 16 1f be 83 37 6c be c4 38 5a be
       -0.041661013 -0.1553601 -0.23068051 -0.21310717
000130 3d 82 2c 3e 24 8b ac 3e 70 71 93 3e 37 f3 0d 3e
       0.16846557 0.33699906 0.28797483 0.1386231
000140 d9 f7 ae 3e 7f 8e 58 3e ce 25 88 3e 60 c8 58 3e
       0.34173468 0.21148108 0.26591343 0.21170187
000150 71 39 c6 be 24 b1 c6 3e 08 ba b2 be 1a 43 82 3d
       -0.387157 0.38807023 -0.34907556 0.06360455
000160 28 df 5f 3e 18 71 c3 3e ae da f8 bc b3 25 e4 3e
       0.21862471 0.3817222 -0.030377712 0.44560012
000170 8c 1f cc bd bc d9 12 bf 48 32 d9 3e 12 a2 53 be
       -0.099669546 -0.57363486 0.42421174 -0.20667294
000180 f0 8a f0 3d 85 49 de 3c b2 8f 98 bb 25 e5 bd bc
       0.1174525 0.027134666 -0.0046558017 -0.023180554
000190 9d 58 2c be f2 4f fc bc 05 ce 76 3e 66 70 d0 be
       -0.16830678 -0.03079984 0.24102028 -0.40710753
0001a0 82 d2 86 bd 50 6d d5 be 89 31 fe 3e 38 e9 92 3d
       -0.0658312 -0.4168496 0.49647167 0.07173389
0001b0 c6 2e a0 bd fc 5b d0 bc cb 1b 1f 3e 0a 86 17 3f
       -0.07821421 -0.025434487 0.15537946 0.591889
0001c0 6e 73 ec 3d 4f b7 96 3c d4 ae a8 3e 77 89 7c 3e
       0.11545454 0.018397955 0.32945883 0.24661814
0001d0 2a a7 9e 3d b3 85 89 3e 13 fd 82 3d aa e6 f0 3e
       0.07746728 0.26859817 0.06395926 0.47050983
0001e0 76 2d 31 3d 50 c3 1b 3f 1e 37 2b bb 7e b6 0c 3d
       0.043256246 0.608449 -0.0026125382 0.034353726
0001f0 2e f5 7f 3d a0 95 77 3e 4b e3 09 3e 01 20 b9 be
       0.06248968 0.24178171 0.13465612 -0.3615723
000200 ec 47 ae 3e 17 10 38 3d f9 e5 a4 3e 31 fe da 3e
       0.34039247 0.04493722 0.32206705 0.42772058
000210 53 12 22 3e da af 77 bd 08 89 9a 3e 99 e1 bc 3e
       0.15827303 -0.06047044 0.30182672 0.36890867
000220 61 2d 9f bd ee ee ea bd 2a 12 89 3e d9 88 ba 3e
       -0.07772327 -0.114713535 0.2677167 0.3643253
000230 4e 4c bb 3e 33 71 97 3e e4 14 e5 bd bf c0 b4 3b
       0.36581653 0.29578552 -0.11185625 0.005516141
000240 00 2e 75 3e c6 26 33 3f d5 10 ed be 43 71 24 3d
       0.23943329 0.6998104 -0.46301904 0.040147077
000250 ed c3 63 bc 5c dd fb 3d 25 ba df 3c a0 8d 0a be
       -0.013901693 0.1229808 0.02731044 -0.13530588
000260 7e 7d 8a 3e 5b a9 8e bd 53 3a 7b 3e 0f dc 81 3e
       0.27048868 -0.06965896 0.24533968 0.25363204
000270 96 05 e3 3e 39 65 c8 3d e1 a8 74 3e 50 97 48 bd
       0.443402 0.09784932 0.23892547 -0.048972428
000280 16 fe 70 3e c0 75 83 be 3d c0 9c be 82 e7 21 bf
       0.23534426 -0.25675774 -0.30615416 -0.6324388
000290 ea 90 f2 bd 34 36 9a 3e a1 c4 25 bd 72 3d 9f bd
       -0.118440464 0.3011948 -0.040470723 -0.07775392
0002a0 fe f1 a9 3d 3a 3d 6d 3e dd fc 86 be 51 e0 5c 3e
       0.082981095 0.23167887 -0.26364794 0.21569945
0002b0 a8 c6 03 be d5 d7 02 3e 4c b6 28 bf b3 cd 60 3e
       -0.1286875 0.12777646 -0.6590316 0.21953468
0002c0 7f 7e c4 3d c0 29 e1 bd 90 6b 98 3a 7e 5f 89 3e
       0.0959444 -0.10994291 0.0011628736 0.26830667
0002d0 ea f3 ef be 62 58 35 bd 50 6d a7 3e 90 f1 74 3c
       -0.4686578 -0.04427374 0.32700586 0.014950171
0002e0 76 84 1d be 55 6c 55 3e d7 c4 1d 3f b1 63 ae 3e
       -0.15382561 0.20842107 0.6162848 0.34060434
0002f0 5e a5 97 3d a1 87 5f 3e ac d2 80 be 37 97 7b 3e
       0.07404588 0.21829082 -0.2516073 0.24569403
000300 78 7a d4 3d f8 b5 19 3e f3 3a b1 3e 16 6a 04 3e
       0.103749216 0.15010822 0.34615287 0.12931094
000310 3f c3 34 be 27 c3 fb 3d 55 21 a4 3d 8c ff ff 3c
       -0.17652605 0.12293082 0.0801417 0.031249784
000320 a3 8b 16 3f 80 4a a3 3d 83 68 42 be 01 89 d5 be
       0.5880682 0.07973194 -0.1898518 -0.41706088
000330 f1 64 2a be c3 f0 d8 be 81 71 6a 3d b7 d5 ca 3e
       -0.16640069 -0.42371187 0.057237152 0.39616176
000340 9d bf 9f bd 48 7b 1a be 00 56 85 bd 59 6e 32 3f
       -0.07800219 -0.1508609 -0.06510544 0.6969963
000350 b0 78 1e be 1d 09 5a 3e d2 14 78 3e b6 e9 57 3e
       -0.15475726 0.21292539 0.24226692 0.21085247
000360 a6 a4 8a be d6 35 36 3e 92 b5 b6 be ca 08 5f be
       -0.27078742 0.17793974 -0.35685402 -0.21780697
000370 00 16 2e be 44 ad 80 3e 29 11 9a 3e 8a 30 ce bd
       -0.1700058 0.2513219 0.30091217 -0.10067852
000380 87 60 43 be 79 ba 0a 3f 18 fd 73 bd c0 8f 88 3c
       -0.19079791 0.54190785 -0.05956754 0.016670108
000390 16 70 22 bf 2a c9 5c 3e 37 b9 c0 bd 56 f8 d7 bd
       -0.6345228 0.21561113 -0.09410327 -0.10545413
0003a0 8c c7 3a 3d 75 25 35 3e 31 36 26 be 4b 29 8c be
       0.04560046 0.1769007 -0.1623161 -0.27375254
0003b0 78 31 52 bd 00 c1 79 3e 40 16 71 3e 31 2b df be
       -0.05131671 0.2439003 0.23543644 -0.4358764
0003c0 22 4b 6c 3e e0 95 e6 be b2 b7 b3 be 27 86 1d 3a
       0.23075536 -0.4503622 -0.35101086 0.0006009065
0003d0 f8 2a c4 be 8c 08 43 be 5e d5 2d 3e 85 95 28 be
       -0.38314033 -0.19046229 0.16975924 -0.16463287
0003e0 35 3b 43 be 2e 98 f3 3e 28 76 91 bc af 7b 46 be
       -0.19065554 0.4757704 -0.017756537 -0.19383119
0003f0 bf 69 d1 be 16 b1 b7 3e f0 e6 d7 be d4 5a e9 3d
       -0.4090099 0.35877293 -0.4216838 0.11394277

bias f4 [64]
000000 00 00 00 00 a1 6a 02 3d 00 00 00 00 00 00 00 00
       0.0 0.03183997 0.0 0.0
000010 b4 18 8a bc 00 00 00 00 00 00 00 00 be a5 36 3c
       -0.016857482 0.0 0.0 0.011147914
000020 00 00 00 00 00 00 00 00 00 00 00 00 00 00 00 00
       0.0 0.0 0.0 0.0
000030 00 00 00 00 00 00 00 00 00 00 00 00 00 00 00 00
       0.0 0.0 0.0 0.0
000040 00 00 00 00 87 ce a7 b7 00 00 00 00 87 b5 ba bc
       0.0 -2.0004123e-05 0.0 -0.022791637
000050 00 00 00 00 a7 ac 94 3c 00 00 00 00 00 00 00 00
       0.0 0.018148733 0.0 0.0
000060 17 21 13 3b 00 00 00 00 dc e1 61 b5 ec 19 d8 bb
       0.0022450143 0.0 -8.41477e-07 -0.006594887
000070 00 00 00 00 2b 9b 04 3d 98 b4 c5 3b 6c d7 84 ba
       0.0 0.032374542 0.0060334913 -0.0010135002
000080 29 27 97 35 00 00 00 00 00 00 00 00 00 00 00 00
       1.1261774e-06 0.0 0.0 0.0
000090 00 00 00 00 e8 1d 22 bb 00 00 00 00 2d f3 aa bc
       0.0 -0.0024737064 0.0 -0.020867908
0000a0 2c b9 8c 3b 00 00 00 00 00 00 00 00 00 00 00 00
       0.004294535 0.0 0.0 0.0
0000b0 00 00 00 00 00 00 00 00 00 00 00 00 00 00 00 00
       0.0 0.0 0.0 0.0
0000c0 00 00 00 00 6d f4 32 b6 00 00 00 00 00 00 00 00
       0.0 -2.6666341e-06 0.0 0.0
0000d0 00 00 00 00 00 00 00 00 8c e6 5a bc 33 e6 e2 3b
       0.0 0.0 -0.013360631 0.0069244145
0000e0 a8 d6 8e 3b 00 00 00 00 00 00 00 00 d5 5f 1b b9
       0.004359085 0.0 0.0 -0.00014817652
0000f0 75 d8 56 bb 00 00 00 00 1c 32 43 bc 00 00 00 00
       -0.0032782827 0.0 -0.0119138025 0.0

weight f4 [256, 64]
000000 2b 44 ec 3d 72 3f 12 be 59 3f 8e 3b 99 85 e3 3d
       0.115364395 -0.14282015 0.0043410477 0.11109466
000010 0b fa 77 3d c1 63 b6 3d ab c0 39 3d ff 48 2c 3d
       0.060541194 0.08905745 0.045349758 0.042061802
000020 43 e3 21 3e 92 ba 4c 3d d3 1c e7 3c f8 98 7f 3e
       0.1580935 0.049982615 0.028211987 0.24960697
000030 77 6e c1 bc 1f 97 72 3d 15 cf 11 3e d8 7b 8f bd
       -0.023612244 0.05922615 0.14239152 -0.07006043
000040 93 06 11 3e ad 9f 1a be 38 31 7c bd ac 4a 1e 3d
       0.14162664 -0.15099974 -0.061570376 0.03864543
000050 b4 e5 06 bd 24 99 01 3e 5c 06 a8 3d e0 4a 72 bc
       -0.032933906 0.12656075 0.08204338 -0.014788359
000060 7c 48 96 bc 2f b8 b3 3e d2 ef 09 be b1 8b 2e 3e
       -0.01834511 0.35101458 -0.1347039 0.17045476
000070 ae 61 8c 3d 3e 61 21 be 75 fd f8 bc 7b 9c be bd
       0.068545684 -0.15759751 -0.030394295 -0.0930719
000080 be 31 83 3e 9e 11 4e bd 5e 0d 10 3d 7d ff 98 3d
       0.25623888 -0.05030977 0.035168998 0.074706055
000090 a9 58 6b bc ce c4 db bd b9 45 6d 3d 7a a9 52 3e
       -0.0143644 -0.10730897 0.05792782 0.20572463
0000a0 8d ce ba 3d f8 aa 15 3e 81 ec 2d be 04 a1 95 3e
       0.09121428 0.14616 -0.1698475 0.29224408
0000b0 18 d9 75 bd e0 aa d3 bd d0 86 71 bc f7 18 9a 3d
       -0.06002149 -0.10335326 -0.014741614 0.07524293
0000c0 ae 65 1c 3e 31 71 38 be 8f 57 8d bd 2f 17 4b be
       0.15273163 -0.18011929 -0.06901466 -0.19833063
0000d0 f3 02 f3 3b 76 12 aa bd 37 e1 d4 bd 68 21 22 3e
       0.007416123 -0.083043024 -0.10394519 0.15833056
0000e0 c1 fc 09 3e 43 95 1e be 9d 53 66 3e 3c f0 0a be
       0.13475324 -0.15486626 0.22492833 -0.13568205
0000f0 75 35 08 bd e5 dc 23 be 9d ae 1c 3e 76 f2 d0 bd
       -0.033254106 -0.16002233 0.15300985 -0.10202496
000100 e2 30 f0 3c d9 03 d4 bd aa 10 60 bd 56 3f ee 3d
       0.029320184 -0.103522964 -0.054703392 0.11633174
000110 e2 79 c1 3d 2f 2a c5 bd d4 b8 0d 3e 0a 13 11 3e
       0.094470754 -0.096271865 0.13840038 0.14167419
000120 e7 d8 d7 bd 35 77 c2 3c 1d d1 a7 3c 4e ec e8 bd
       -0.10539418 0.023738483 0.020485455 -0.113731965
000130 1f cc c7 3c 71 21 20 be 03 30 66 be ed 36 5d 3e
       0.024389325 -0.15637757 -0.22479253 0.21602984
000140 1e 7a 1d be 85 e3 ca bc e7 bb 1a be 45 02 de 3d
       -0.15378615 -0.024766693 -0.15110742 0.10840277
000150 e9 fd 10 bd 96 d5 03 3e 13 02 29 3e 3b 4d 28 3e
       -0.035398398 0.12874445 0.16504698 0.16435711
000160 23 b3 24 3e 44 5f 03 bd 81 49 6b bd a3 80 32 be
       0.1608396 -0.032073274 -0.057443146 -0.17431884
000170 ee 86 8d 3d 95 68 24 3d 2f 8f bf 3c 02 27 09 3e
       0.069105014 0.0401388 0.023383705 0.13393787
000180 8a 56 34 3e 64 5d bf 3d 96 b2 e2 bd eb 17 d1 3e
       0.17611137 0.09343985 -0.11069219 0.4083856
000190 a4 84 5d bd 88 35 51 bd 0b d4 0c be 64 6d a9 bc
       -0.054081574 -0.051076442 -0.13752763 -0.020682044
0001a0 a2 5b cc 3b 50 b8 4b 3d 15 29 77 3d e2 03 04 bd
       0.0062365094 0.04973632 0.060341913 -0.032230265
0001b0 ca 93 97 3d 56 5b 08 be 84 50 20 be 1b f3 06 3d
       0.074012354 -0.13316092 -0.15655714 0.032946687
0001c0 5b 86 4a be 6a bd d3 bd f0 32 23 3d 2f 2c b9 3c
       -0.19777815 -0.10338862 0.0398435 0.022604076
0001d0 c5 de ae 3d fc 9c b7 bb 64 e6 37 bd fc 35 85 3e
       0.08538584 -0.005603431 -0.044897452 0.2601775
0001e0 c0 47 88 be 2f 99 45 3e 38 c6 4f 3e c9 d4 68 bd
       -0.2661724 0.19296716 0.20290458 -0.056843553
0001f0 af 19 cc bc 9b be 2b be 95 ea ad bd 9c 1b 39 be
       -0.02491459 -0.16771929 -0.084920086 -0.18076938
000200 55 da b8 3d b5 8d 82 bc 11 ee 19 be b7 69 8f 3d
       0.090260185 -0.015936712 -0.15032221 0.070025854
000210 0f 40 4a be c6 8c c0 3d fe 59 80 3d c1 c3 a5 be
       -0.19750999 0.094018504 0.06267165 -0.3237591
000220 6e 91 3b bd ba 01 5f be 04 28 62 be 86 80 44 3d
       -0.04579299 -0.21778002 -0.22085577 0.047974132
000230 35 e0 10 bd 69 09 82 bd 98 77 86 3d ed df 24 3e
       -0.03537007 -0.06349451 0.065657794 0.16101046
000240 13 f2 b6 bc 12 e6 5c 3e 14 9f 21 be f0 2e 1c 3e
       -0.022332227 0.2157214 -0.1578334 0.1525228
000250 54 d9 13 3e e4 03 54 3d a5 71 c4 bc 76 8d 77 3e
       0.14438373 0.051761523 -0.023979971 0.24175057
000260 c7 92 eb 3c fc a7 b1 3d d8 f4 3d be fa 3f 55 be
       0.028756512 0.086746186 -0.18550432 -0.20825186
000270 2b ad cf 3b 90 27 66 bd 97 12 df 3d cd bf d7 3c
       0.006337782 -0.056190073 0.108922176 0.026336575
000280 f3 a2 d2 3d 7b 4d 36 be 44 44 44 3c df ea 3d be
       0.10284986 -0.17802994 0.011979166 -0.18546627
000290 71 a5 56 ba ea 6a 38 be f2 80 6b 3e 09 0a 1c be
       -0.0008188105 -0.18009534 0.22998407 -0.15238203
0002a0 b2 0e 00 3e 11 22 a4 bd e5 9f e8 3d b9 63 1d be
       0.12505606 -0.0801431 0.113586225 -0.15370072
0002b0 e0 a1 00 be 03 a1 10 be bd bf 4d 3d a4 33 14 3d
       -0.1256175 -0.14123921 0.050231684 0.03618206
0002c0 7c ad 8c 3d 32 5c 1d be ef 6f d7 3c 6e 4b 93 3d
       0.06869027 -0.15367201 0.026298491 0.071921214
0002d0 e0 5f 98 3c ba 3d 90 bd c6 dc 6c be eb e0 15 be
       0.018600404 -0.070430234 -0.23131093 -0.1463658
0002e0 40 52 74 3d 18 31 0a bd 68 fd fc 3d 0c 0d f3 3c
       0.059648752 -0.033738226 0.12353021 0.029669307
0002f0 9f 6e 82 bc c1 28 52 3d 96 15 c3 3c 91 58 1e be
       -0.015921889 0.051308397 0.023814004 -0.15463473
000300 62 2b 02 be 9e 1d 7b bd 81 04 42 bd b2 88 b3 3c
       -0.12711862 -0.061307542 -0.047367577 0.021915767
000310 15 2a 2d bd 6d 7d 53 3e cd 81 38 3e b0 0f a8 3d
       -0.04227646 0.20653315 0.18018265 0.08206117
000320 06 42 fb 3d 45 96 df bd 52 a6 9d bc 09 91 be 3c
       0.12268452 -0.109173335 -0.019244347 0.023262518
000330 2e 05 50 3d 46 7a be bd 97 50 04 3e 08 a0 aa 3c
       0.05078619 -0.093006656 0.12921368 0.020828262
000340 9e 55 53 bd 3d ad 2c 3d 2f 96 18 bc 7f df f8 bd
       -0.051595323 0.0421574 -0.00931315 -0.121520035
000350 a2 53 05 bd 25 77 28 3e 76 fc f8 bc 8a eb 52 3e
       -0.03255046 0.164517 -0.03039382 0.20597664
000360 28 4f 7d 3a ca 3d c4 bb f1 79 4e 3d 17 4c 37 3d
       0.0009662979 -0.005988811 0.05040926 0.0447503
000370 f2 ea d0 be 4f 40 c0 bd 0e 05 22 3b 36 08 38 bd
       -0.4080425 -0.09387266 0.002472225 -0.044929706
000380 c1 a8 f8 bc 5a 4d 33 3d a1 02 a5 bc 26 ca 3c bc
       -0.030353906 0.04377494 -0.020142855 -0.011522805
000390 4d dd 15 be 81 d8 18 3d 0f 7b 07 bd ea 33 60 be
       -0.14635201 0.03731585 -0.033076342 -0.21894804
0003a0 18 80 1a 3e 42 2b 93 bd cb b2 d6 bd 4c d2 1e be
       0.15087926 -0.07185985 -0.10483321 -0.1550991
0003b0 b8 49 17 be bf 49 f9 bd d5 b7 c5 3d 99 e5 24 3e
       -0.14774215 -0.12172269 0.09654204 0.1610321
0003c0 bb a4 a0 3d 2f 92 12 3e 4d 1e b9 3c 7c 37 cd 3c
       0.0784392 0.14313577 0.022597456 0.025050871
0003d0 48 25 76 3e 62 83 3c bc c9 8d 8a bd f2 83 f4 be
       0.24037659 -0.0115059335 -0.067653246 -0.47756916
0003e0 f5 2b 97 3e 24 0a 56 3d bf 86 90 bc e5 3e b5 3c
       0.29525724 0.052255765 -0.017642377 0.022124717
0003f0 6f 56 7d 3e de 85 3d 3e 2d 74 98 3d a7 1c dd 3d
       0.24740003 0.18508098 0.07444034 0.107964806

bias f4 [256]
000000 28 24 78 3b c9 da 92 38 11 08 97 bc ac 1d 0d 3b
       0.0037863348 7.0025744e-05 -0.018436464 0.0021532578
000010 6e 8c 99 3a 41 00 08 bc 81 95 2e b9 d7 fc ca 3c
       0.0011714825 -0.008300842 -0.00016649628 0.024778767
000020 1c e4 60 3c b0 a8 fb 3a 6d f4 b7 bc 4d 9e 2a bc
       0.0137262605 0.0019200053 -0.022455418 -0.010413718
000030 6c 7e 59 3c 20 09 2b bb 15 11 1a 3d d9 59 9e ba
       0.01327477 -0.0026097968 0.037613947 -0.001208122
000040 fa a5 e8 bb 7f 6f 9f 3c f8 ce c4 3b bc 9b 1c bc
       -0.007099864 0.019462345 0.006006118 -0.009558614
000050 03 60 cb 3b fb df 1b bc 94 53 1d bc 74 55 38 bc
       0.006206514 -0.00951385 -0.009602446 -0.011250842
000060 16 18 c9 bc bf 1d 88 bc 22 bf ed 3b 05 35 33 bc
       -0.024547618 -0.016615747 0.007255451 -0.010937934
000070 52 11 9f 3a f4 47 a2 bb a3 7b d9 ba bc 81 34 3c
       0.0012135899 -0.004952425 -0.0016592633 0.011017259
000080 76 f0 9d bc 64 46 f1 bb 27 fd 15 bc 30 67 d3 bb
       -0.0192797 -0.0073631275 -0.0091545945 -0.00645151
000090 5d e2 8f 3b 29 d1 2a bc 33 c0 8a 3b bf c1 1c bd
       0.0043909983 -0.010425844 0.0042343377 -0.03827071
0000a0 92 c1 3f 3c 30 06 39 bc b6 93 48 3a 15 4f f5 3b
       0.011703866 -0.011292979 0.0007651405 0.007486234
0000b0 fb 0c 45 3a 1d 4e 1f 3d c6 dc 41 bc 98 39 b0 bc
       0.0007516888 0.038892854 -0.011832422 -0.021511838
0000c0 ac 12 0e 3c e5 9c a1 3b 46 71 0b 3b cf c0 85 bc
       0.008671444 0.0049320334 0.0021277233 -0.01632729
0000d0 41 8e 93 bc d9 55 21 3c f3 26 0a 3b eb f3 c9 bc
       -0.018012168 0.009847128 0.0021080344 -0.024652442
0000e0 09 3e 20 bd 20 85 b0 3c 4d 5b e1 bb ab 3b f5 bb
       -0.03912166 0.021547854 -0.006877339 -0.0074839196
0000f0 6d b0 a9 bb d4 c0 e6 bb 1b 3d 69 3b a2 90 28 3c
       -0.0051785023 -0.00704203 0.00355894 0.010288389
000100 bb 67 a7 bb df 55 38 3a ff a3 01 bc c5 70 49 bc
       -0.005108801 0.0007031839 -0.007912635 -0.012294953
000110 7d 39 2c 3c 7e 71 ce 3b 91 59 5b bc 5a 19 94 bb
       0.010511753 0.0063001504 -0.0133880535 -0.0045196237
000120 20 6a 99 bc f0 3a c2 3b 7f ee a4 3c c2 22 a6 bb
       -0.018727362 0.005927436 0.020133255 -0.0050700614
000130 06 b3 09 3c 61 05 a4 bc 0b 11 11 3b 8a 06 ed 3a
       0.008404499 -0.020022096 0.0022135403 0.0018083614
000140 4b 1f 9e 3b 24 66 6d bc cf bf 6e 3a 83 61 26 bb
       0.0048255078 -0.014489684 0.0009107561 -0.0025387711
000150 2b a3 c0 3c 7e 15 d3 3c 04 77 35 3c 05 f7 31 bb
       0.023515305 0.025767084 0.011075739 -0.0027155292
000160 07 15 93 bc 27 99 11 3c aa a0 8a bc 0a 7f e0 3c
       -0.017954363 0.008886612 -0.016922314 0.027404327
000170 53 26 cf 3a 16 8a 36 bb 10 b4 8f bb 35 ee 20 3c
       0.0015804268 -0.0027853302 -0.004385479 0.009822418
000180 65 1e 22 3a 07 4d f3 bb 39 76 55 3c bf f7 15 bb
       0.00061843387 -0.007424954 0.013028675 -0.0022883264
000190 d3 ac f6 3b 08 98 e8 3b 27 b3 a3 3b bb c2 ee ba
       0.0075279265 0.0070982017 0.004995722 -0.0018215993
0001a0 f4 54 bc bb 6d 51 e2 3c f5 af e4 3b 02 28 ee bc
       -0.005747432 0.027626717 0.0069789835 -0.029071812
0001b0 d2 62 e7 bb f4 85 39 3c b2 7b bb bc cc 69 1b bb
       -0.007061341 0.011323441 -0.022886131 -0.0023714183
0001c0 bc 85 34 3c ee 29 bd bc f3 47 f1 3c 38 ba 4d bc
       0.011018213 -0.023091283 0.029453253 -0.012556605
0001d0 44 08 e5 ba 83 0f c3 bc bc c8 1d bc 3e 90 11 3b
       -0.0017473777 -0.023811108 -0.009630378 0.002221122
0001e0 e5 34 d7 3c 25 27 25 3c 69 1b 23 3c e1 ea c0 3b
       0.02627034 0.010080134 0.009955266 0.0058873747
0001f0 90 de bd 3b eb 09 47 bc 54 9b e3 bc 88 eb c8 3c
       0.005794354 -0.012148361 -0.027784027 0.024526373
000200 e7 87 4d 3c a8 a0 4d bc 13 19 16 bc 1d 1e 41 3d
       0.012544609 -0.0125505105 -0.009161252 0.04714786
000210 88 29 cb 39 69 e2 aa 3b d1 d4 ac bc b2 98 3a 3b
       0.0003875012 0.0052149785 -0.021097573 0.002847236
000220 23 2c 83 3c eb 6e 07 bb 4c 0c 8b bc ba a5 72 bb
       0.016012257 -0.0020665477 -0.016973637 -0.003702505
000230 df 50 19 3c 21 bf 39 3c 05 04 46 ba 79 5b 2e 3b
       0.00935766 0.011337073 -0.00075536995 0.0026604815
000240 28 22 6e bc 0f 1e 25 3c 8c 58 71 bb 03 b0 91 bc
       -0.014534511 0.010077967 -0.003682646 -0.017784124
000250 9f 8a 21 39 f8 4b 58 3b e1 48 23 3c a6 b6 9e ba
       0.00015405797 0.0033004265 0.009966106 -0.0012108877
000260 8f bb 99 bc 91 65 ca 3a 2f 24 82 bb 7f 68 a9 bb
       -0.018766193 0.0015441646 -0.0039715986 -0.0051699276
000270 f2 a3 07 3d b6 27 57 bc 6b d7 3a 3c 70 15 bf 3b
       0.033115335 -0.013132026 0.011403899 0.005831413
000280 3c ca ab 3c e8 c3 2b bc 49 cd 81 bc ef 17 ab ba
       0.020970456 -0.010483719 -0.015844958 -0.0013053397
000290 4f 21 1d bc d5 70 f1 3c f6 d8 c4 3b 0f 09 1a bc
       -0.009590461 0.029472748 0.006007309 -0.009401574
0002a0 51 14 15 ba a0 f6 84 3b e1 64 a7 3b 3d 17 b1 3b
       -0.00056869263 0.0040577203 0.0051084612 0.0054043815
0002b0 84 d7 94 3a c0 7a 10 bb 9d b2 12 3a ce 08 4c bc
       0.0011355733 -0.002204582 0.00055960735 -0.012453271
0002c0 6d 73 2e bc 50 98 92 bc f9 ce 58 b9 3a 66 2f 3c
       -0.010647637 -0.017894894 -0.00020676469 0.010705525
0002d0 4b 13 8d bb 94 ae 56 bb 89 13 98 3b e1 6f a8 3c
       -0.0043052784 -0.0032757865 0.0046410006 0.02056116
0002e0 d7 ea 85 bc b5 6f b8 ba 77 1f 04 bc 70 c8 a5 bc
       -0.016347332 -0.0014071377 -0.008064142 -0.020237178
0002f0 cb 08 63 bc 7a be 9b 3b 44 69 90 3c fc 26 6a bb
       -0.013857077 0.004752931 0.01762832 -0.0035728803
000300 2c be 89 3c ac a8 da bb 09 5b 54 bc d4 4c 0d 3b
       0.016814314 -0.0066729393 -0.012961158 0.0021560686
000310 0d bf 49 bb 06 6f 09 3c aa 9b 82 bb d8 40 8d 3b
       -0.003078404 0.008388286 -0.0039858418 0.0043107085
000320 58 a5 cf bb f2 7e d0 3c da fa 46 3b f8 5b 95 bc
       -0.006336849 0.025451157 0.0030361922 -0.01823233
000330 b7 ae bc bb 8f 07 0b bd 50 e2 24 bc 96 db 5c bc
       -0.0057581323 -0.033942755 -0.010063723 -0.013480088
000340 37 0d d7 ba c4 03 46 bc 9c 93 00 bc ac 63 60 3c
       -0.0016407137 -0.012085859 -0.007847693 0.013695639
000350 a3 0b a0 bc fe 52 df ba 61 14 f3 ba 73 5e c8 3c
       -0.019536799 -0.0017038283 -0.0018545502 0.0244591
000360 c6 84 d9 bc 64 7a e2 bc c0 e9 64 3a 5a 54 ef b9
       -0.02655257 -0.027646251 0.0008732341 -0.0004564848
000370 b1 8b f6 3b 29 f9 15 3c f3 09 b5 bb 3f 58 48 3b
       0.0075239767 0.009153643 -0.0055248677 0.0030570177
000380 55 c9 c8 3c 3d 19 55 3b b2 0d 6b ba d6 26 3e bc
       0.024510065 0.0032516264 -0.00089665793 -0.011605939
000390 41 18 11 bc 43 d6 56 bc d7 41 1c 3c 3e e8 ce 3b
       -0.00885588 -0.013112607 0.009537182 0.0063143065
0003a0 c6 e9 df b9 be 56 73 bc 86 cf 9f bc cb 80 af 3c
       -0.0004270805 -0.014852224 -0.019508135 0.021423718
0003b0 c7 cc 77 bb f5 aa f2 3b 8e b2 97 3c be 4c 04 3d
       -0.0037811266 0.0074056336 0.018517759 0.03229975
0003c0 a9 ca 8e 3a 8c 2e 4b bc 1e 88 b7 3c 5a 85 0b 3c
       0.0010894138 -0.012401234 0.022403773 0.00851568
0003d0 28 61 c7 bc e4 68 2d bc 0a b9 51 bc cb 7e df 3b
       -0.02433832 -0.01058409 -0.012800464 0.006820535
0003e0 39 16 ba 39 5c 4f 1a 3c 7f 6e 50 3c d3 5b 70 bc
       0.00035493242 0.009418335 0.012721657 -0.01467033
0003f0 05 62 ff 3b d7 a8 0d 3c 08 6c c0 3b ff 88 98 bc
       0.0077936673 0.008646212 0.0058722533 -0.018620012

weight f4 [128, 256]
000000 df 15 fb 3c 06 9a 00 bd 52 83 f3 3c 9b f7 09 3a
       0.030650077 -0.03139689 0.029725704 0.00052630313
000010 a2 73 22 bd e1 b0 1e be 14 ec 4b bd 4b b7 35 bd
       -0.039661057 -0.15497161 -0.04978569 -0.044364255
000020 d4 69 88 3d aa 3d 6d bd a3 1a c1 3c 35 ba 42 3d
       0.0666081 -0.057920136 0.023572272 0.047540862
000030 be f1 4e bd d4 38 a4 3d 5c d0 48 bc f7 e2 f9 3d
       -0.050523512 0.080186516 -0.012256708 0.12201493
000040 95 87 9e bc 36 f8 ec 3d b0 0a 0a be 4b 64 f2 3c
       -0.01935176 0.1157078 -0.1348064 0.029588839
000050 5e 54 3b be 66 ec 6b 3d 72 ab 61 3e a7 a2 3f 3c
       -0.18293902 0.057598494 0.22038057 0.011696494
000060 64 02 3a bd 36 4f e3 bd f1 bf 85 3c a1 be 0a 3e
       -0.045412436 -0.11099093 0.016326876 0.13549282
000070 41 67 13 bd f5 89 63 3d 13 c9 18 3e 56 e1 d2 3d
       -0.035987142 0.055551488 0.14920454 0.10296886
000080 07 be 91 bc 24 55 a7 bd 72 89 b3 bc 4f b9 35 bc
       -0.017790807 -0.08170536 -0.021916125 -0.011091544
000090 57 70 4c 3d 3f 29 0e bd 49 fa b3 bc 91 8d 50 bd
       0.049911823 -0.034707304 -0.021969931 -0.05091626
0000a0 ea 00 8c 3d 16 6a 98 bd 8d e7 8c bd 6d af cb 3d
       0.06836112 -0.07442109 -0.06880102 0.09945569
0000b0 3e b5 b2 3d 05 8f f1 3d 74 0f 03 3e aa 53 16 3d
       0.087259755 0.11794857 0.12798864 0.036700882
0000c0 e7 b8 b0 3d 9e 3e a7 bd 41 54 3e bd 16 b4 2e 3c
       0.08629017 -0.0816624 -0.04646707 0.010663053
0000d0 03 d4 86 bc 62 d2 a9 bc 63 07 95 3d 33 aa de bc
       -0.016458517 -0.020730201 0.072767995 -0.027180767
0000e0 2f 0a d8 3c 5d 2e 1a 3e a3 57 21 3d e1 19 a8 3d
       0.026372043 0.15056749 0.039390218 0.08208061
0000f0 0c d4 96 3b 4b 53 b5 bc 38 b0 21 3e 50 2a 0a 3d
       0.0046029147 -0.022134444 0.15789878 0.03373176
000100 35 4b 8d bc 50 3a 95 3d cb 7f 9d 3d 23 c0 95 bd
       -0.017247776 0.07286513 0.0769039 -0.07312038
000110 21 ad 9e bd 4e b4 97 bd 39 9c e1 bc 2a 4d 8a 3d
       -0.077478655 -0.07407437 -0.027540313 0.06752999
000120 9e f0 c9 3b e4 3c 44 bd b2 39 08 3c 65 9d b5 3d
       0.006162717 -0.047909632 0.008314537 0.08867911
000130 80 a8 ee bb a8 7c 9d 3c 64 06 d4 3c a8 4b 82 3d
       -0.0072832704 0.01922448 0.025881954 0.063620865
000140 a3 f0 96 bd 1b 9b db bd d2 74 ab bd 2e 66 dd bd
       -0.073701166 -0.107229434 -0.08371891 -0.10810505
000150 02 87 61 3d ac d7 00 bd bd be 67 bd 0e bd 33 bd
       0.055060394 -0.03145568 -0.056578387 -0.04388147
000160 48 7a 95 3b d0 b6 1a 3e f6 13 c6 bd 40 c4 81 3d
       0.004561696 0.151088 -0.09671776 0.0633626
000170 20 5d c1 bd c8 36 1a bd 90 ff 27 bd 5d 1b 34 3e
       -0.0944159 -0.0376499 -0.041015208 0.17588563
000180 c2 44 81 bd ff ec 0d bd 65 c0 89 bd 0f 89 af bd
       -0.06311943 -0.034649845 -0.067261495 -0.08571064
000190 d1 4f 90 3c ef 07 b4 b8 b4 18 5e 3d 87 5f b1 bd
       0.017616184 -8.5845466e-05 0.054222777 -0.086607985
0001a0 55 9a 03 3d e3 cd 52 3d b2 38 a2 3d 3d 86 66 3d
       0.032129604 0.05146588 0.0792097 0.056280363
0001b0 fc 86 cc b9 71 67 8f bd ea ff e1 3c 8a 8e af bd
       -0.00039010483 -0.07002152 0.02758785 -0.08572109
0001c0 df 92 d7 bd c2 de 3a 3e ad fa aa bc 8c 20 13 be
       -0.1052606 0.18249038 -0.020871485 -0.14367884
0001d0 c5 2c 1d bd f5 a7 b0 3c 15 b8 2e 3c 72 b5 a5 3d
       -0.038372774 0.021564463 0.010664006 0.080912486
0001e0 20 76 ab bd 90 da bb 3d f0 9b 8b 3d 3e 01 ac bc
       -0.0837214 0.09172547 0.06816852 -0.020996686
0001f0 c3 85 9a bc 4b e9 d3 3b 9b bf 58 bd 37 56 aa 3c
       -0.01886261 0.0064670197 -0.052917104 0.020793064
000200 fc 32 ed 3b 78 73 70 bc c0 92 fb 3c fb 18 67 3d
       0.007238744 -0.014675967 0.030709624 0.056420308
000210 d5 64 6a bd f9 11 13 3d 90 f8 95 bd c2 23 ad 3d
       -0.057225067 0.035905812 -0.073228 0.08454086
000220 1f 95 1d 3d 9f 57 d9 3d 13 e9 c2 3c c5 1c 6e 3c
       0.03847229 0.106124155 0.02379278 0.014533226
000230 54 15 c2 bc 1c e8 dd bb 15 fc 31 3d 80 20 98 bd
       -0.02369181 -0.0067720544 0.043453295 -0.07428074
000240 b5 8f 7e bd 66 48 0e 3e 0c fb 04 3d 91 8b e3 bb
       -0.06214877 0.13894805 0.03246598 -0.006944128
000250 f3 ab 48 bd f3 bc 41 3c eb ed d8 bd 50 20 4c 3d
       -0.04899211 0.011824834 -0.10592254 0.049835503
000260 cb 8a 56 3d 32 05 a5 bc 81 ee dc 3a 79 98 08 3e
       0.052378457 -0.020144079 0.0016855748 0.13339414
000270 af 3b 41 3d 42 5d b5 bc 15 45 ba bd 70 29 fb bc
       0.04717606 -0.022139195 -0.090952076 -0.030659407
000280 f1 81 f4 3c cb fb 57 3b 83 3c 2a 3d 32 19 63 3c
       0.029847117 0.0032956477 0.041561615 0.0138609875
000290 11 c6 35 bb e9 8f e1 3d c5 88 37 3e db 71 37 bd
       -0.0027736465 0.11013777 0.17923267 -0.044786315
0002a0 0d 87 69 3c 1d 15 90 3d f9 d1 35 3d 2e 9d 29 be
       0.01425339 0.07035277 0.0443897 -0.16563866
0002b0 86 d0 8e 3d c9 b2 3a 3d dd 3a 01 3d 57 a1 54 3d
       0.069733664 0.04558066 0.031550277 0.05191168
0002c0 de 35 9e 3c ad c3 7d 3d 3e 50 29 3d 6f 14 99 bd
       0.019312795 0.06195419 0.04133629 -0.074746005
0002d0 64 69 df bd 8e 79 20 3e 5e a6 e1 bd 4d 90 cd bc
       -0.109087735 0.1567137 -0.1101806 -0.025093222
0002e0 18 96 be 3d b9 6d 0e bc 45 54 67 3e 28 8d 57 bc
       0.09305972 -0.008693152 0.2259074 -0.013156213
0002f0 97 c3 40 bd f5 1c 33 bd 2f b4 a6 3d c8 08 8e 3c
       -0.04706153 -0.043728787 0.08139836 0.017338172
000300 df 80 5b 3d 92 ce f2 3d 84 ba 27 bd b3 79 ab 3d
       0.053589698 0.118558064 -0.04094936 0.08372822
000310 04 37 11 bd ab f0 47 3e 98 54 2c bd bb 54 ad 3d
       -0.035452858 0.19525401 -0.042072862 0.08463427
000320 2c 41 85 bd 98 96 95 3b 45 b2 f7 bc 9b fb e4 bd
       -0.06506571 0.0045650713 -0.030236373 -0.111808024
000330 c9 2d 51 3d 30 0c 85 bd f1 cf 80 3c 1f 99 a6 3d
       0.051069055 -0.06496465 0.015724154 0.08134674
000340 58 1f c5 bc ca 93 b9 bd c6 a8 d1 bd 98 85 89 3b
       -0.024062797 -0.09061392 -0.10237269 0.004196834
000350 9e cf ee bc b9 63 6e 3d ad ba d9 bc dd b1 5a bc
       -0.029151734 0.05820057 -0.026578272 -0.01334807
000360 9a c0 6d 3d d4 c0 0d 3e db 60 96 bd e2 aa cd bb
       0.058045007 0.1384309 -0.073426925 -0.0062764743
000370 45 95 00 be 28 bb 16 bd 3d 8b 64 bd 9c ac e2 bc
       -0.12556942 -0.03679958 -0.05579685 -0.027670197
000380 b7 bb 30 3d 81 a8 2a bc 54 a9 b3 3d 63 0c a0 3d
       0.04314777 -0.010416151 0.08772531 0.078148626
000390 93 23 39 bd 58 29 85 bd a5 ec 24 3d bb fe e0 3d
       -0.04519994 -0.06502026 0.040264744 0.10986086
0003a0 4d f3 65 bd 18 b9 36 be 96 95 19 3c 01 38 ab bc
       -0.056140233 -0.17844045 0.009374043 -0.020900728
0003b0 ed 68 18 bd 9c 6b fc bc f5 b1 86 3d df 08 5c 3d
       -0.03720944 -0.03081303 0.06576911 0.053719398
0003c0 d2 ac 7c 3d 86 0d a5 3c b0 fb d0 bb cb 0d b9 bd
       0.06168825 0.02014805 -0.0063776597 -0.09035834
0003d0 1b 92 cf bd 89 16 ba 3c 5f 62 e2 bc 41 26 71 bc
       -0.10135289 0.022715824 -0.027634798 -0.014718593
0003e0 1d 2d 78 bc 47 bb ce 3b 26 48 e6 bd 4e e7 88 3d
       -0.015147475 0.0063089463 -0.1124423 0.06684743
0003f0 60 a9 03 3c 3d 89 6e bd f4 95 9d 3d 83 37 a8 3c
       0.008035988 -0.05823635 0.07694617 0.020534283

bias f4 [128]
000000 5a 52 2b bc b1 84 d6 bc 91 e1 90 3c 49 41 2d bb
       -0.010456646 -0.026186319 0.017685683 -0.0026436618
000010 84 40 41 3c b0 e6 30 bd dc 7a a9 3c 58 c9 74 bc
       0.011795167 -0.04318875 0.020688467 -0.014940582
000020 71 b1 f6 3b ca df 88 37 87 9c 07 bd 8d 1e a5 3c
       0.007528477 1.6316673e-05 -0.03310826 0.02015617
000030 df de 90 bc f7 9a 92 3c ae 45 a3 3c c4 9d 97 bc
       -0.017684398 0.017896159 0.019930687 -0.018507846
000040 6b f7 7f bc 6a f6 2b 3d fb 95 12 bc 50 c2 6e 3c
       -0.015622954 0.041983046 -0.008946891 0.014572695
000050 4d 7b 39 bd 5c 5d 22 3c 7b 33 e0 bc 64 75 95 3c
       -0.045283604 0.009909954 -0.027368298 0.018244453
000060 d5 69 40 bc 67 0a 48 bb 55 47 3f 3c 74 b9 89 3c
       -0.011743982 -0.0030523778 0.011674722 0.016812064
000070 b2 11 56 3c ca 9a 93 3d b8 95 93 3c ec 71 e0 3b
       0.013065742 0.07207258 0.018015727 0.006849518
000080 c1 b3 cf 36 7a 43 46 3d 87 ac 5b bc 40 ce c9 bb
       6.190007e-06 0.048404194 -0.013407833 -0.00615862
000090 8d 47 95 3d 12 47 5b 3c 44 7d cd bb 3d b5 b9 bc
       0.07289038 0.013383644 -0.0062710363 -0.022669429
0000a0 6f b7 61 bc 00 ad 79 bc f7 4f 1c bc 2a 2f 5a 3d
       -0.013776644 -0.015239 -0.0095405495 0.053267635
0000b0 11 f1 a8 bb 95 92 50 bc 09 fe 21 3d a0 2e 97 3b
       -0.0051556905 -0.01273026 0.039548907 0.0046137124
0000c0 e1 d7 df 3b a4 5e a6 bb 0d cf 4c 3c c7 40 0b 3d
       0.0068311547 -0.0050772 0.012500537 0.033997323
0000d0 cd 2c cb 3c f4 92 0d bd 66 1f 09 bc b3 3a 01 ba
       0.024801636 -0.034563974 -0.008369302 -0.00049297063
0000e0 0a 5a c6 bc 52 c6 78 39 31 ac f0 38 d1 1d 9c bc
       -0.024212856 0.00023725003 0.00011476165 -0.019057186
0000f0 49 05 d2 bb 49 15 72 bc 57 80 9c bc 44 69 f7 bc
       -0.0064093214 -0.014775583 -0.019104166 -0.030201562
000100 d0 ae e2 3c 19 2f 2a 3d 00 92 af ba 97 6e 8b 3b
       0.027671248 0.041548822 -0.0013394952 0.0042551267
000110 04 30 cd 3c b4 55 90 3d 5d 3c 0f 3d 7b 4b a2 ba
       0.02504731 0.070475966 0.034969676 -0.0012382114
000120 8e 82 12 3c 76 e4 72 3b 2b 04 78 3a 04 c3 36 bd
       0.0089422595 0.0037062443 0.00094610703 -0.044619575
000130 4b a5 09 ba fd 7a 54 bd de a0 6e 3c 59 71 8f bc
       -0.0005250766 -0.051875103 0.014564721 -0.017510103
000140 a6 98 4d 3c 87 b6 14 bd fc f4 14 3c de fa 63 3b
       0.012548601 -0.036306884 0.009091612 0.003478698
000150 22 a7 0b bc da 33 1f bd aa e4 ec 3a ca bf ec 3c
       -0.008523734 -0.03886781 0.0018073518 0.028900046
000160 b9 b1 b3 3a f8 72 9e 3c 37 4c 14 bd d2 84 13 ba
       0.0013709582 0.01934193 -0.036205497 -0.0005627397
000170 72 0d e1 3c 40 9f a1 3c f2 2b b1 3c 93 db 34 3d
       0.027472232 0.019729257 0.0216274 0.044154715
000180 d6 de 95 ba b0 94 2a bc ce 16 db bb f8 1a 72 3c
       -0.0011434208 -0.010411426 -0.006686068 0.014776938
000190 57 0d 30 bb 8f 56 41 3d d1 54 1d bb 9e 1a 7e b9
       -0.002686342 0.04720169 -0.0024006853 -0.00024233243
0001a0 80 92 8a bb e0 4b 7f bd 09 74 84 3c 2e 73 cb 3c
       -0.00422889 -0.06232822 0.016168611 0.024835195
0001b0 a5 3a b4 bc b6 fa a6 3c 27 cd 17 bc db e2 05 bd
       -0.02200062 0.02038322 -0.009265221 -0.03268705
0001c0 7f f4 33 bd 06 6d 7c bc bf b1 98 bc 0b 93 95 3c
       -0.04393434 -0.015406853 -0.018639443 0.018258592
0001d0 ae 75 4d 3d 1f e9 8d bc f0 ea f7 bb 6a 52 a2 bd
       0.050161056 -0.017323075 -0.0075658485 -0.079258755
0001e0 d3 d0 2f 3c ad 4b 89 ba b2 9c ac bc c2 05 64 bb
       0.01073094 -0.0010474824 -0.021070812 -0.003479347
0001f0 7f 8e 09 bb d4 9e 0b 3d 8d 7d 4b bd 83 05 ed bc
       -0.0020989475 0.034087017 -0.04968028 -0.028933292

weight f4 [14, 128]
000000 4c 5f 1c 3d af c3 0e bc 06 90 17 3c 3b d5 1c 3d
       0.03817682 -0.008713647 0.009250646 0.03828929
000010 bc 0c a7 bb 59 27 74 3d 63 e9 99 bc bf 43 0b bd
       -0.0050979536 0.059607837 -0.018788045 -0.034000155
000020 94 69 85 bb 2b 6f 21 3d 13 e6 ae 3c 69 2d 88 bd
       -0.004071424 0.03941266 0.021349942 -0.06649286
000030 0f 71 86 bc a6 ca f4 3c 60 f5 51 bc 40 cc 2a bc
       -0.016411332 0.029881787 -0.01281485 -0.010424674
000040 d2 b7 74 3c 59 77 c3 bd 3f d4 61 3d c3 d8 02 3c
       0.014936404 -0.09544248 0.055134054 0.00798625
000050 ad a5 b8 3d 06 eb c7 39 8e 6d 1d 3d a0 7a 16 3c
       0.09015975 0.00038131344 0.038434558 0.0091845095
000060 c4 f6 18 bb 8c bd 8f 3c 5a a2 e9 bc b8 a4 bf ba
       -0.0023340443 0.017546438 -0.028519798 -0.0014621234
000070 71 21 e8 bb 72 e0 9e bd 59 1d 6f 3c 01 81 53 bc
       -0.0070840647 -0.07757653 0.014594399 -0.012909175
000080 59 db 3b ba 69 0d ae bc c1 56 ad 3b 35 74 08 3c
       -0.0007166169 -0.021246629 0.005289883 0.008328487
000090 5d 2b b5 bc 35 01 6d bc ae 02 a4 ba e9 fe f9 bc
       -0.022115404 -0.01446562 -0.0012513006 -0.030517058
0000a0 ea a6 31 bd 20 68 c1 3c 26 d8 cd 3c 15 91 e3 bc
       -0.043372072 0.023609221 0.025127482 -0.027779141
0000b0 28 66 2f 3c 07 c0 8d bc 4e 31 b0 bb 46 21 b6 bb
       0.010705508 -0.01730348 -0.0053769713 -0.0055581657
0000c0 59 93 47 3c 9b df 55 3b 17 ce 9d 3c a9 25 83 bc
       0.0121811265 0.00326345 0.01926331 -0.016009169
0000d0 98 7a 8d bc 6a 04 96 bc f4 8e cd bc d7 30 84 bb
       -0.017270371 -0.018312652 -0.02509258 -0.0040341425
0000e0 58 5d 9f bc 71 8e 9b ba 11 c2 4c 3c 6a ba d4 bc
       -0.01945369 -0.0011868012 0.012497441 -0.025967795
0000f0 ca 1f 33 bc 86 79 c5 3c 66 c1 46 bc 21 9b 81 3d
       -0.010932872 0.024105798 -0.012131071 0.063284166
000100 8d 7e a1 3c 2d a3 ce bc 76 36 16 bb 3e 1e e6 3c
       0.019713664 -0.025224293 -0.0022920645 0.028090592
000110 fc 29 8e 3c e0 d9 0d bd 8d da 00 bd 7b 7d 40 3c
       0.017354004 -0.03463161 -0.031458426 0.011748667
000120 d5 ee 2c bc c9 d5 27 bb e6 3a 24 3d 24 85 4c 3d
       -0.010554989 -0.0025609604 0.040095232 0.04993166
000130 ac 54 b5 3a ec a6 19 3d 22 3a 5d 3c 96 6d 8a bd
       0.0013834438 0.037512705 0.0135026295 -0.06759183
000140 18 9d f3 bc 65 aa 84 3c b3 cc e8 3c 05 15 44 bc
       -0.029737994 0.016194532 0.02841792 -0.011967902
000150 f2 42 f5 3b 53 c8 ac 3d 69 34 1d 3d d1 26 09 bd
       0.007484787 0.08436646 0.03838006 -0.033484284
000160 57 f6 7a bc 91 68 29 3d ab ee da 3c 1b 8b 94 39
       -0.015317521 0.041359488 0.026725134 0.000283324
000170 21 c5 26 bc 27 f2 ba 3a f2 fa 82 3d 81 bc 10 bc
       -0.010178835 0.0014262841 0.0639552 -0.008834005
000180 28 50 41 3c 1c c4 37 3d c5 d7 ba 3c 6d fd 6d 3d
       0.011798896 0.04486476 0.022807965 0.058103014
000190 99 66 d3 3a 2a f5 dd bc f2 2d 3f 3a 1f 65 f9 39
       0.0016128599 -0.027094442 0.0007292918 0.00047568322
0001a0 d8 6b a0 bc cd b5 f0 3c 99 a5 2a bd c0 5b c9 b8
       -0.019582674 0.029383564 -0.041661832 -9.601517e-05
0001b0 5e d0 38 bc 7f 69 8c 3b 56 99 8d bc d5 d0 ab 3c
       -0.011280147 0.004285037 -0.01728503 0.020973602
0001c0 b2 8b 68 3d ac 21 48 bc ab 8c 48 bc 0a 46 f7 3c
       0.05677385 -0.012215059 -0.012240569 0.030184764
0001d0 84 ff 38 3c e0 ae 23 3d bf a1 e3 3c 20 55 07 3d
       0.011291388 0.039961696 0.027787087 0.033040166
0001e0 a3 bc 90 bc 4c 37 66 3b 6e e0 7b bc c3 44 2f bb
       -0.017668074 0.0035128174 -0.015373332 -0.0026743866
0001f0 be b7 3b 3b d6 66 21 bd ff 4b 82 3d 08 8c 58 3c
       0.0028643454 -0.039404713 0.06362151 0.01321698
000200 48 ad b8 bc 65 5e 21 bd e3 a4 39 ba bf c9 4d bc
       -0.022543564 -0.039396662 -0.000708176 -0.012560307
000210 33 95 24 3a 1f 4f 1b 3a 62 dd a9 bd 12 ce bc bb
       0.0006278336 0.0005924571 -0.082941785 -0.00576187
000220 ac 48 6c 3b 62 73 49 3d 58 55 84 bb 91 c6 6b 3c
       0.0036054058 0.049182303 -0.004038494 0.014390604
000230 ea 40 10 bd 3e 71 88 3b 98 44 d8 bb af ca 95 3d
       -0.035218157 0.00416389 -0.006599974 0.073140495
000240 d6 36 b4 3c bd 62 40 bc 8c ee a6 bc 38 b6 fd 3b
       0.021998804 -0.011742291 -0.02037742 0.0077426694
000250 e4 68 28 bc 19 84 de bc 75 12 3c 3d fc cf c8 3c
       -0.010278914 -0.027162598 0.04591604 0.024513237
000260 7e 14 92 bb 35 a0 e7 3c 54 71 b3 bb 4b d5 dc bc
       -0.0044580093 0.028274635 -0.0054761562 -0.026957175
000270 a7 47 03 bd be 0e b4 3b da 40 87 3c 1b cb 71 bd
       -0.032050755 0.0054949215 0.016510416 -0.059031587
000280 0c 63 72 3c 44 14 9d 3b 50 18 82 3d 75 c5 08 bc
       0.014794122 0.0047936756 0.063522935 -0.008347859
000290 af e2 33 bc 4b eb 0c bb 17 48 7e bc fe 8f cf bc
       -0.010979339 -0.002150255 -0.015520117 -0.025337216
0002a0 f6 4b cc bc 1a 55 83 bd a7 50 37 bc aa 6a cc bc
       -0.024938565 -0.06412716 -0.011188663 -0.024953205
0002b0 31 68 6b bd 28 28 4e 3d 70 49 c9 bc 23 83 c6 bb
       -0.05747241 0.050331265 -0.02457115 -0.006058113
0002c0 1e 30 71 bc 53 b0 e8 3b 5b f4 41 3d 0d 78 69 bd
       -0.014720945 0.0071010976 0.047352176 -0.056999255
0002d0 e5 9e 30 bb 94 db 61 bd 9c b5 1e 39 18 b0 13 bd
       -0.0026950177 -0.055141047 0.00015135709 -0.036056608
0002e0 61 75 cd bc fd 32 b5 3c a0 78 92 bc a1 e0 29 3c
       -0.025080385 0.02211904 -0.017879784 0.010368497
0002f0 0d bb 73 3c 2e b6 e3 3c e0 f7 84 bb f5 7d df bc
       0.014876139 0.027796831 -0.0040578693 -0.02728174
000300 87 34 63 3d fc 9c a6 3c e8 7b 4e bd f9 90 fb 3c
       0.055470016 0.020338528 -0.050411135 0.030708777
000310 d0 8f bc 3c e1 d3 45 bc f5 e0 25 bd 2b e7 6d 3d
       0.023017794 -0.012074442 -0.04049774 0.058081787
000320 61 dc 0a bb c7 83 33 b9 d9 16 76 bb 0e 88 15 bc
       -0.0021188485 -0.00017119861 -0.003755024 -0.009126676
000330 a7 52 2c 3c 18 28 b9 3c 16 62 2b 3d 11 b1 fe 3a
       0.010517753 0.022602126 0.04184159 0.0019431432
000340 2b 2c 8f bc d7 c3 10 3c b2 b4 bb 3c 16 50 b7 3c
       -0.017477116 0.008835754 0.02291331 0.022377055
000350 72 a2 25 39 ed 2a 6b 3c 23 eb d5 3c 8e ed 22 bd
       0.00015796142 0.014353496 0.026113098 -0.03977733
000360 66 45 13 3d 10 9e a0 3b b3 50 23 bc fe d7 3f 3c
       0.035954855 0.004901655 -0.009967971 0.011709211
000370 8b e2 3c bd fa 85 e1 3b 0b 84 82 3c 4f 1b 27 3d
       -0.046114486 0.0068824263 0.015932104 0.040797528
000380 de d9 d0 3b 38 cc 1c 3d 4b 7f 47 bd 61 30 d2 bb
       0.006373628 0.038280696 -0.04870538 -0.0064144586
000390 dd 5b 94 bd c8 1f bb bb 66 09 99 3c a0 44 db bb
       -0.07244084 -0.0057105757 0.01868124 -0.0066915303
0003a0 41 ac 86 bb 0c a9 55 bb bb ee 5a 3c 2e 33 a0 3c
       -0.0041098897 -0.003260198 0.013362582 0.019555654
0003b0 65 b0 98 bc 1e d0 ed 3c 77 22 cc bb 11 e2 74 3d
       -0.018638799 0.029029902 -0.0062296945 0.059785906
0003c0 61 1a 64 ba e0 cb 51 bd 08 2a 3a bd 5a e0 d9 3c
       -0.00087014405 -0.05121982 -0.04545024 0.026596237
0003d0 fd 86 21 3d 2a 25 e7 bc e1 6f ba 3c 51 98 9e 3c
       0.039435375 -0.028215963 0.022758426 0.01935974
0003e0 0e de a3 bc b7 23 85 3c fb e5 41 bb e3 72 96 3c
       -0.020003345 0.016252382 -0.0029586542 0.01836533
0003f0 ac 02 52 3c 90 8f 45 bc f8 84 3a 3c e7 9a f0 3c
       0.01281802 -0.012058154 0.011384241 0.029370738

bias f4 [14]
000000 7f 8c 30 bd 59 d3 8c bc 96 38 2d bd d5 59 b6 b9
       -0.043102738 -0.017190622 -0.042290293 -0.00034780675
000010 35 76 d8 bc 30 54 a2 3c bf 36 10 bd 7f ac 97 bd
       -0.026423553 0.019815534 -0.03520846 -0.07405948
000020 fc 7f e3 bb 4e ca 01 bd a6 8a a3 bc b5 2b 7a bc
       -0.006942747 -0.031687073 -0.019963574 -0.01526921
000030 c9 97 2f 3b 81 b8 9a 3c
       0.0026793352 0.018886806

weight f4 [64, 13]
000000 97 60 b9 be 0a cc 28 3f 4d 00 d6 3d 8d 43 35 3e
       -0.36206505 0.6593634 0.10449276 0.1770155
000010 72 9f 92 3c 00 22 88 be c5 4a 62 3e de f4 9a bd
       0.017898295 -0.2658844 0.22098835 -0.07566236
000020 97 4a b3 3b f7 10 05 be 46 5a a1 3e d2 08 c6 be
       0.0054715383 -0.12994753 0.31514186 -0.38678604
000030 6e 96 b4 3c 7e 09 3b 3f 79 fe 6d be 3b 32 c7 3e
       0.022044387 0.7306136 -0.23241605 0.3890551
000040 d8 fa 82 3d f2 bf ee 3d 35 cf 20 3e 4c e7 68 bd
       0.06395501 0.116577044 0.15704043 -0.056861207
000050 3f 1b 4d 3e 5a 51 1a be c8 48 8b be 98 8d 9b 3d
       0.20029925 -0.15070096 -0.27203965 0.07595366
000060 6e 51 81 3e 88 a5 c0 3d e0 78 9d 3e 2e ff 67 be
       0.25257438 0.094065726 0.30756283 -0.22655937
000070 da bb 3e 3f 08 7c a3 3c 3a 46 ca 3d 3e 39 e5 3c
       0.7450539 0.019956604 0.09876676 0.027981397
000080 05 fa 96 be 69 21 99 3d 4a 94 ce bd 5d 76 b6 be
       -0.29487625 0.074770756 -0.10086878 -0.3563718
000090 08 d1 88 bc 2e 40 50 3e 86 3e 04 3e c5 6e 89 bd
       -0.016701236 0.20336983 0.12914476 -0.06710581
0000a0 b2 ff 92 be 70 23 14 bd 08 fe 02 be 59 a6 72 3e
       -0.28710705 -0.03616661 -0.12792218 0.23696269
0000b0 4e 26 8e 3d 57 47 21 bf 4e bd bd bd 0b 0b 99 3e
       0.069409 -0.6299948 -0.09264623 0.29891238
0000c0 41 3f b6 3d c0 fe 86 3e bf 51 ad be c0 a6 96 3d
       0.088987835 0.26366234 -0.3385143 0.07356024
0000d0 3d 83 e6 bd 6b d3 a0 be d9 83 9c 3e 1a 7f 9c be
       -0.112555005 -0.314113 0.30569342 -0.3056572
0000e0 72 fe 92 be 06 47 3d 3e 03 65 72 3e d1 1b 4d bd
       -0.2870975 0.18484125 0.23671345 -0.050075356
0000f0 09 dc 45 3d c7 59 1b 3e 60 b2 e9 3e 29 01 fc 3d
       0.048305545 0.15170966 0.45643902 0.12304909
000100 ca ef 06 bf 71 b5 cd 3d 60 9e 7c be ba fe c3 3e
       -0.5270964 0.10044373 -0.2466979 0.38280278
000110 06 d8 76 be a3 c1 16 3e 21 71 c1 be 2d 95 0a 3f
       -0.24105844 0.14722304 -0.37781623 0.54133874
000120 15 ca 03 bf d8 03 76 3e cc 87 ae 3d 34 32 d1 3e
       -0.5148023 0.24024904 0.08521995 0.40858614
000130 78 9e cb 3d 1f d7 ae 3e 4d d5 f8 bd ea 8e e7 3e
       0.09942335 0.341485 -0.12150059 0.45226222
000140 c3 33 14 bf f1 dd 03 3e d4 2f 96 be ca 3e 36 3e
       -0.5789148 0.12877633 -0.29333365 0.1779739
000150 be f1 f9 bd 46 8e 6e 3e 30 cb 00 3e a8 8a 0c 3e
       -0.12204312 0.2329646 0.1257751 0.13724768
000160 a3 ea f7 bd 03 2b e0 be 9f a9 06 3d 14 74 06 bf
       -0.121053 -0.43782815 0.032876607 -0.5252087
000170 ab 21 b6 3c 8f b9 20 be b5 36 57 be 34 22 f5 3e
       0.022232851 -0.15695785 -0.21016963 0.47877657
000180 c6 5d 8c 3c 1a a6 09 be 76 41 7f 3e 00 f2 36 3e
       0.017134558 -0.13442269 0.24927315 0.17865753
000190 b8 c5 a2 be 2d 1d 25 bc 39 39 58 be a0 83 d1 be
       -0.31791472 -0.010077757 -0.21115579 -0.40920734
0001a0 28 9e 33 be 7b 0a 29 3f a0 f7 9b be 14 63 8b 3e
       -0.175408 0.66031617 -0.3046236 0.27224028
0001b0 2c 5f a7 be 0f d3 a2 3e 32 2c 5e bc 72 2c 79 3e
       -0.32689798 0.3180165 -0.013560342 0.24333361
0001c0 56 e0 54 bf 5c 49 07 3f 1f 80 a7 be 52 f1 00 3f
       -0.8315481 0.5284631 -0.32714936 0.50368226
0001d0 41 6f 2d 3d 23 f4 f3 bc 0e c3 ec be e6 f9 53 3e
       0.042342428 -0.0297795 -0.46242565 0.20700797
0001e0 07 f5 e1 be 5e 6c 1e 3e 52 bf 81 3d 08 4a e1 3e
       -0.44132254 0.15471026 0.063353196 0.44001794
0001f0 57 09 6e 3e 84 d2 54 be f0 0e ba be 96 fd 99 3e
       0.2324575 -0.2078343 -0.3633952 0.30076283
000200 ac 9a 08 be 17 f9 a7 bd 3d 2f 6f be c8 23 c1 be
       -0.13340253 -0.08201807 -0.23357864 -0.3772261
000210 21 98 02 3e b5 55 d8 bd a8 6d 3a 3e 1b 34 a0 3e
       0.12753345 -0.10563222 0.18205893 0.31289753
000220 ec 4b 17 3b 7b ba 4a be 35 2b 04 bf 70 07 d1 3c
       0.0023086024 -0.19797699 -0.5162843 0.025516242
000230 ad b0 15 be 79 1c 10 bf a9 5a e7 3a d4 43 e2 3e
       -0.14618178 -0.56293446 0.001765092 0.44192374
000240 75 1f 95 bc 8e 1d 16 be 0c e1 8b be 9e 78 50 3d
       -0.018203476 -0.14659712 -0.27320135 0.05089628
000250 1e da 4c 3e 5f 42 37 3f 48 d0 63 be 6f 0d 29 3e
       0.2000508 0.7158565 -0.22247422 0.16509031
000260 45 59 25 3e 6c aa 42 3e 15 57 ca bd 58 bc 88 bd
       0.16147335 0.19010323 -0.09879891 -0.06676549
000270 79 c2 99 3d 3c 40 18 bf e5 e8 0d 3e 56 11 2d bd
       0.07507796 -0.59473014 0.13858373 -0.04225286
000280 37 86 91 3e 3b 89 6b be b7 0f a4 be 47 01 3d 3e
       0.2842271 -0.23001568 -0.3204324 0.18457519
000290 07 3f a4 3c 4e e3 54 3d 1a ae 5a 3e bd 5b f1 bd
       0.020049585 0.051974587 0.21355477 -0.11785076
0002a0 86 a8 43 bd c1 9c 15 bd 0e d9 10 3e 78 ca 65 be
       -0.04776814 -0.036526445 0.141453 -0.22440517
0002b0 e3 ae d5 be 28 6d 6e 3e 1f c6 1d bf 72 0c ca bd
       -0.4173499 0.23283827 -0.61630434 -0.09865655
0002c0 07 1f 4e be 81 a9 44 3e 73 d4 f1 3c bc 1c ae be
       -0.20129023 0.19205286 0.029520249 -0.34006298
0002d0 55 04 a4 be 7e 9c f0 bd 7e ce 89 be 5b 3e 7d 3c
       -0.32034555 -0.117485985 -0.26915354 0.015456761
0002e0 c0 6f de be 72 9c d9 3d 0a f7 a6 be 4c 24 9c 3d
       -0.43444633 0.10625543 -0.3261035 0.076241106
0002f0 9b 5e 14 3e b3 64 bc be 88 88 bb be 30 94 95 3c
       0.14489214 -0.36795577 -0.36627603 0.018259138
000300 c2 4b 79 3d 6c b6 84 be 6f db 00 bf b0 a7 cb 3e
       0.060863264 -0.25920427 -0.5033483 0.39776373
000310 20 ce 1c be 83 72 a8 3e 75 8b f5 3d 72 15 1f be
       -0.15313005 0.32899866 0.1198949 -0.15535524
000320 30 20 1a 3e ec dd c1 be b5 59 92 be 0d 6d d1 be
       0.15051341 -0.37864625 -0.28584066 -0.40903512
000330 62 be db be 32 58 80 bb 6e 92 89 3e 7c 4a 3a 3c
       -0.42918688 -0.0039167637 0.2686953 0.0113702975
000340 b5 cc a4 3d 97 a2 a0 3e 47 78 5f bc 54 1d 91 3e
       0.08046857 0.31374046 -0.013639516 0.28342688
000350 bc 48 5f be ee 3a 6a bd a4 3d f2 be 20 46 ed 3e
       -0.2180509 -0.057185106 -0.47312653 0.46342564
000360 49 df 3e 3e 14 1c ea 3e 9b 27 b7 be 8d 7e 5a 3c
       0.18639864 0.45724547 -0.35772404 0.013335836
000370 5b 90 f1 3d 65 16 e3 3d c2 f2 e0 3c 3e c0 8c 3e
       0.11795112 0.11088256 0.027459506 0.2749042
000380 33 6f 5a 3e fc 81 dc be e0 8c af bc d1 8f c2 be
       0.21331482 -0.4306792 -0.02142948 -0.38000348
000390 61 8d cd be ea eb 12 3f cc 1e 42 be 67 15 58 bd
       -0.40146926 0.57391226 -0.1895706 -0.052754786
0003a0 9a d4 72 bd 60 77 56 bd 67 36 9f bc 46 38 e5 3e
       -0.059284784 -0.05235994 -0.01943512 0.44769496
0003b0 05 a9 8b ba c2 a2 d7 bd 61 63 cc 3d a7 c1 20 bd
       -0.001065523 -0.105290905 0.099798925 -0.03924718
0003c0 cf b9 18 bf 25 92 cf 3d 60 5a 9e bc d3 d4 96 3e
       -0.5965852 0.10135297 -0.019330204 0.29459247
0003d0 5d e9 b5 3e af 44 df 3e 00 08 aa 3d f3 85 a1 3e
       0.35529605 0.4360709 0.08302307 0.31547508
0003e0 0d 41 70 3e a1 f2 86 bd 73 6b e4 3d 9e 12 f5 be
       0.23462315 -0.065892465 0.11153307 -0.47865766
0003f0 b6 07 8f 3d ed e1 16 3e ac 93 22 3e f2 b4 03 3e
       0.069838926 0.14734621 0.15876645 0.12861994

bias f4 [64]
000000 00 00 00 00 00 00 00 00 00 00 00 00 84 43 ec bb
       0.0 0.0 0.0 -0.007210197
000010 00 00 00 00 7b d6 03 bc 00 00 00 00 00 00 00 00
       0.0 -0.008046742 0.0 0.0
000020 94 b8 bd 3c e2 3a 18 3d 00 00 00 00 00 00 00 00
       0.023159303 0.03716553 0.0 0.0
000030 3c d5 fd 3c 00 00 00 00 00 00 00 00 00 00 00 00
       0.030985467 0.0 0.0 0.0
000040 32 2b b7 bb 00 00 00 00 49 0d de b5 00 00 00 00
       -0.005589866 0.0 -1.6544155e-06 0.0
000050 01 08 84 3c 00 00 00 00 00 00 00 00 bf c6 9d 3c
       0.016117098 0.0 0.0 0.019259809
000060 00 00 00 00 00 00 00 00 82 c2 d8 bb 00 00 00 00
       0.0 0.0 -0.006614984 0.0
000070 a5 08 71 3b 00 00 00 00 c3 25 b2 bc 0f 73 2d bc
       0.0036778834 0.0 -0.021746522 -0.010586514
000080 00 00 00 00 0d 73 5e 3b d1 e8 22 bd 00 00 00 00
       0.0 0.0033943087 -0.039772812 0.0
000090 00 00 00 00 00 00 00 00 00 00 00 00 00 00 00 00
       0.0 0.0 0.0 0.0
0000a0 00 00 00 00 a9 91 d8 b4 00 00 00 00 fd 6f ad 3a
       0.0 -4.0339117e-07 0.0 0.0013232228
0000b0 4c 4a 2c 3c 00 00 00 00 91 61 b5 bb 00 00 00 00
       0.010515761 0.0 -0.0055353125 0.0
0000c0 54 d5 8f bb 00 00 00 00 00 00 00 00 f0 11 b2 bb
       -0.0043894444 0.0 0.0 -0.005434267
0000d0 00 00 00 00 00 00 00 00 00 00 00 00 00 00 00 00
       0.0 0.0 0.0 0.0
0000e0 00 00 00 00 00 00 00 00 49 ee 33 3c 00 00 00 00
       0.0 0.0 0.010982105 0.0
0000f0 00 00 00 00 92 b9 18 bd 00 00 00 00 00 00 00 00
       0.0 -0.03728635 0.0 0.0
