src/GraspNode/models/model_button_lhz.pt (torch, 456482 bytes, 15 tensors)

weight f4 [64, 13]
000000 d3 18 a6 3d f9 61 ab 3e af 0d 8d bc 0c e6 40 bd
       0.081102036 0.33473185 -0.017218439 -0.04709439
000010 67 b8 e3 be 58 ca ac 3e d8 15 b5 be ef da 17 3d
       -0.44476625 0.33748126 -0.35368228 0.037074026
000020 67 90 a2 3e c6 82 27 be 05 47 5d 3e fe b3 08 bf
       0.31750795 -0.1635848 0.21609123 -0.53399646
000030 ac 1a 2b bf 9c 70 fe be 29 bf bd 3c 5c c7 a5 be
       -0.66837573 -0.4969529 0.023162441 -0.32378662
000040 e1 72 7e 3e 25 3f 15 3e a9 fb af 3e e9 7a 68 3d
       0.2484851 0.14574869 0.3437169 0.05675784
000050 a7 1d 56 bd 52 6f 0a 3f 17 f2 7e 3e 1e 67 0a bc
       -0.052274372 0.5407611 0.24897037 -0.008447437
000060 64 67 9a 3d d5 7f 8a be db 00 6c bc f5 87 50 bc
       0.075392514 -0.27050653 -0.014404501 -0.012727727
000070 da c0 b0 3d 91 9e 6c 3e 99 4c ed be 3e 10 9c be
       0.086305335 0.23107363 -0.46347502 -0.30481142
000080 c4 13 29 3d 21 e9 d9 bd e7 c0 69 3e 43 52 1f be
       0.041278616 -0.10640169 0.22827493 -0.15558724
000090 7f 97 09 3e 67 d4 bf 3e cd 10 21 3f 0c 1b 11 3e
       0.13436697 0.37466738 0.6291626 0.14170474
0000a0 f8 25 0b bf c7 6f b3 3e 34 5d d4 3e fe d2 12 3e
       -0.5435481 0.35046217 0.41477358 0.143383
0000b0 fb 78 f3 3c 1e 16 80 be 64 8d a1 be 05 b0 c0 bd
       0.029720774 -0.25016874 -0.31553185 -0.09408573
0000c0 25 a2 83 3e 9f c1 70 3e 66 f4 b8 be 97 c4 9c 3c
       0.25709644 0.2351136 -0.3612396 0.01913671
0000d0 37 80 e6 3e be db 34 3a c9 b2 85 3e e2 03 b4 be
       0.45019695 0.0006899199 0.26112965 -0.35159212
0000e0 bc 2d 04 3c e3 10 66 be 0b ad f3 bd 63 74 0d 3e
       0.008067545 -0.2246738 -0.1189824 0.1381393
0000f0 e3 a8 bd bd d3 b2 ae be 4b 6a 20 be ef 12 0b 3f
       -0.09260728 -0.34120807 -0.15665548 0.54325765
000100 0d 98 ed 3e 40 ad 81 3e cd ed d4 3e 5d 38 86 be
       0.46405068 0.25327492 0.41587678 -0.26214877
000110 fd f9 e0 bd 66 c9 44 be b2 7d 1c bf 9b 86 91 3d
       -0.109851815 -0.19217452 -0.61129296 0.07105752
000120 bd a4 2a bd b8 16 1f be 83 37 6c be c4 38 5a be
       -0.041661013 -0.1553601 -0.23068051 -0.21310717
000130 3d 82 2c 3e 24 8b ac 3e 26 e6 b4 3e e0 d3 36 3d
       0.16846557 0.33699906 0.3533184 0.044635653
000140 a4 0e 8b 3e c4 d1 90 3e 46 d9 7d 3e 8a 6b 44 3e
       0.27159607 0.28285038 0.24789914 0.19181648
000150 45 65 cd be c1 ad e7 3e 0e 2e 90 be eb b8 00 3e
       -0.40116325 0.4524975 -0.28160137 0.1257054
000160 b8 f2 2f 3e fc af e9 3e ab 10 56 bd 9e b2 e3 3e
       0.17182434 0.45642078 -0.05226199 0.44472212
000170 df c1 82 bd 37 bc 13 bf 22 1a d4 3e 7b 22 47 be
       -0.06384634 -0.5770907 0.41426188 -0.19446747
000180 90 6d e0 3d 1c 22 38 3c 52 0a f5 bc d4 27 8a bd
       0.109583974 0.011238601 -0.029912148 -0.06745878
000190 bd 97 27 be 17 32 16 3e 16 8f 32 3e a1 69 cc be
       -0.16366477 0.14667545 0.17437395 -0.39924338
0001a0 82 d2 86 bd 50 6d d5 be 89 31 fe 3e 38 e9 92 3d
       -0.0658312 -0.4168496 0.49647167 0.07173389
0001b0 c6 2e a0 bd fc 5b d0 bc cb 1b 1f 3e 0a 86 17 3f
       -0.07821421 -0.025434487 0.15537946 0.591889
0001c0 6e 73 ec 3d 4f b7 96 3c d4 ae a8 3e 77 89 7c 3e
       0.11545454 0.018397955 0.32945883 0.24661814
0001d0 2a a7 9e 3d b1 4a ad 3e 8d cc 39 bd bf 4c ce 3e
       0.07746728 0.33846048 -0.04536109 0.40292928
0001e0 5c 27 d5 3d cc 1a 33 3f de 57 88 bd 8c 8d 99 3d
       0.10407898 0.69962764 -0.06657384 0.07497701
0001f0 ef 00 29 3d 1e 55 87 3e c3 ee 3a 3e fc 4a 73 be
       0.041260656 0.26432127 0.18255143 -0.23759073
000200 03 02 de 3e 64 08 10 be f3 a2 a9 3e 37 51 d6 3e
       0.4336091 -0.14065701 0.33132133 0.41858837
000210 19 59 19 3e f2 a5 51 bd 5b 3c 96 3e 42 89 bf 3e
       0.14975394 -0.05118365 0.29342923 0.37409407
000220 76 62 ac bd a8 8b da bd 50 8a 8e 3e 7c 2a bf 3e
       -0.084172174 -0.106711686 0.278399 0.373371
000230 30 a7 b6 3e dd 70 91 3e a9 2c d2 bd bf c0 b4 3b
       0.3567443 0.2840642 -0.102624245 0.005516141
000240 00 2e 75 3e c6 26 33 3f d5 10 ed be 43 71 24 3d
       0.23943329 0.6998104 -0.46301904 0.040147077
000250 ed c3 63 bc 5c dd fb 3d 25 ba df 3c a0 8d 0a be
       -0.013901693 0.1229808 0.02731044 -0.13530588
000260 7e 7d 8a 3e 5b a9 8e bd 53 3a 7b 3e 0f dc 81 3e
       0.27048868 -0.06965896 0.24533968 0.25363204
000270 f7 3a eb 3e 94 10 98 3d e5 28 72 3e 4d 26 50 bd
       0.45943424 0.07425037 0.23648413 -0.050817776
000280 1e 18 67 3e 29 d1 85 be 77 85 93 be 66 78 20 bf
       0.22567794 -0.2613614 -0.28812763 -0.62683713
000290 8e e8 fa bd 73 8c 9b 3e d4 0c 25 3c 1c 7e 95 3a
       -0.122513875 0.30380592 0.010073859 0.0011405381
0002a0 2c 23 39 3d ce 69 81 3e b9 39 95 be 26 33 47 3e
       0.04519956 0.25276035 -0.291456 0.19453105
0002b0 37 d2 d0 bd 6e 62 dd 3d 55 b2 2e bf 07 47 53 3e
       -0.10196345 0.108097896 -0.68240863 0.20632564
0002c0 70 ac e1 3d 16 dd 06 be 8e 32 ff 3c ac 6a 8a 3e
       0.11019218 -0.13170275 0.031152036 0.2703451
0002d0 92 60 cc be 6e 3e 73 bd b4 c4 b3 3e cd 6f b7 3a
       -0.39917427 -0.05938571 0.3511101 0.0013995111
0002e0 fc ce 32 be 6c 45 60 3e 40 b9 13 3f 49 85 b2 3e
       -0.17461771 0.21901482 0.57704544 0.34867314
0002f0 ac e1 3c 3d 2f 6c 63 3e 23 fd 8e be be b7 8b 3e
       0.046113655 0.22209238 -0.27927503 0.27288622
000300 b6 a9 f0 3d 67 98 7d 3e 5a 18 02 3f a8 32 40 3e
       0.1175112 0.24765168 0.5081841 0.18769324
000310 5f 26 8b be d3 32 86 3d 4c 23 1c 3e 09 a1 da bc
       -0.27177712 0.06552663 0.1524784 -0.026688116
000320 88 52 07 3f ab 66 f5 3c e2 62 17 be c9 9b e8 be
       0.5286031 0.029956182 -0.14783815 -0.45431355
000330 df dd de bd ac 06 c8 be 7e 44 4a 3b f5 7d 06 3f
       -0.10882162 -0.3906759 0.0030863578 0.52535945
000340 22 df 30 be 2c 92 8a bc 01 2d 8e 3c 15 71 12 3f
       -0.17272618 -0.016915403 0.017355444 0.572038
000350 5d 38 b9 bd 81 68 a3 3e 4e 1e c8 3d 21 03 f6 3d
       -0.090439536 0.31915668 0.09771405 0.120123155
000360 76 21 a7 be ec fd cd 3d b1 bd ff be 43 d9 a9 bc
       -0.32642716 0.100581974 -0.4994941 -0.020733481
000370 e7 72 8e bd 61 3f 81 3e 2b cb 85 3e 4c 29 a6 bd
       -0.0695551 0.25243667 0.26131567 -0.081133455
000380 99 0f 63 be 53 e4 09 3f 68 50 86 bd f9 38 6b 3d
       -0.22173919 0.5386402 -0.06558305 0.05742738
000390 54 2f 2f bf 84 75 2d 3e 5e ad 06 be 35 8b 04 be
       -0.6843159 0.1693936 -0.13152072 -0.12943728
0003a0 77 80 bd 3d 84 67 73 3c 6e 29 2f be aa d8 7b be
       0.09253018 0.014856223 -0.17105648 -0.2459437
0003b0 e0 95 33 bd e5 99 71 3e 04 72 7b 3e b1 51 e3 be
       -0.043844104 0.23593862 0.24555212 -0.44398263
0003c0 69 91 88 3e cd e2 f1 be cb c8 b7 be c3 bd 29 bc
       0.2667344 -0.47243348 -0.3589538 -0.010360184
0003d0 0b 32 6e be 0b 52 94 be 97 a6 3b be 9b 49 23 be
       -0.23261277 -0.28968844 -0.18325268 -0.15946047
0003e0 7e c8 21 be 42 d1 fd 3e ca 05 df bc f8 08 6d be
       -0.15799138 0.49573714 -0.02722444 -0.23147953
0003f0 6c e0 d2 be ef e3 09 3f 9a ae f4 be ab 1c de 3d
       -0.41186845 0.53863424 -0.4778946 0.10845312

bias f4 [64]
000000 b1 44 55 bd c3 66 40 3c b7 aa 4d bc 81 af 8a 3c
       -0.052067462 0.01174325 -0.012552909 0.01692939
000010 ee b5 6b 3d 00 00 00 00 6a 14 83 bd 00 00 00 00
       0.05754655 0.0 -0.06400378 0.0
000020 00 00 00 00 f6 30 42 bd 39 5d 17 bc 00 00 00 00
       0.0 -0.047409974 -0.009238535 0.0
000030 09 31 cb bb f0 ff b6 bc d6 86 88 bc 7a 8e 67 bd
       -0.006200914 -0.022338837 -0.016665857 -0.05653236
000040 5b 7b ac 3d 7b e3 a9 3c ed 8c 31 3c f2 a4 d4 3b
       0.08421966 0.020738354 0.010836822 0.0064893896
000050 d1 ef b9 3c bc 55 03 ba 00 00 00 00 28 e6 43 3b
       0.022697361 -0.0005010029 0.0 0.0029891822
000060 07 0c 1b 3b ed 23 48 bc 9f c6 d0 bc be c0 a6 bc
       0.0023658292 -0.012215597 -0.025485335 -0.020355579
000070 a6 f2 1f bc 58 f8 16 3b 00 00 00 00 e5 7d a8 bc
       -0.009762442 0.0023036208 0.0 -0.020567844
000080 8b 62 a8 3d ed 63 d8 39 80 25 ba bc 35 1f ee 3c
       0.082219206 0.0004127318 -0.02272296 0.029067615
000090 94 c3 d5 bc 00 00 00 00 7b 81 55 3c 5e 05 5d 3a
       -0.026094235 0.0 0.013031359 0.0008431281
0000a0 d8 3c 00 bd ad 35 05 3c 50 64 1d 3c 12 61 53 3d
       -0.031308025 0.008130473 0.009606436 0.051606245
0000b0 00 00 00 00 7d 66 5f bc df c1 c0 bc 9f 80 3d bd
       0.0 -0.013635275 -0.023529945 -0.04626524
0000c0 b1 bf ab 3a 00 00 00 00 00 00 00 00 40 2f 00 3a
       0.0013103393 0.0 0.0 0.00048898533
0000d0 00 00 00 00 5d ec d1 3c f7 98 58 bc f1 e4 08 3c
       0.0 0.025625402 -0.013220063 0.008355365
0000e0 00 00 00 00 00 00 00 00 58 1b 75 3b 00 00 00 00
       0.0 0.0 0.0037400331 0.0
0000f0 00 00 00 00 00 00 00 00 a3 09 4f 3c e9 6c d1 bc
       0.0 0.0 0.012636575 -0.025564628

weight f4 [256, 64]
000000 a1 76 c7 3d cc fb cd bd 1a 9d bb 3c 6f ad 09 3e
       0.097394235 -0.10057792 0.02290206 0.13445066
000010 e6 5c 1f 3c 5e 67 dc 3d 1e f6 ac 3d d2 de 41 3d
       0.009726739 0.10761903 0.08445381 0.04733164
000020 f6 e0 0e 3e 6b 90 fb 3c 24 b5 1e 3c b5 96 6c 3e
       0.13953003 0.030708512 0.009686742 0.23104365
000030 5f e6 0a bc aa 1e 99 3d 34 cd 45 3e b8 11 b5 bd
       -0.008477776 0.07476552 0.1931656 -0.0884127
000040 01 32 42 3e 19 c0 1b be b9 8f 22 bd f3 ab b2 bc
       0.18964387 -0.15209998 -0.039687846 -0.021810507
000050 93 4f c8 bd 3b eb 8a 3d ba 02 82 3d 4d c7 b1 ba
       -0.097808026 0.06783148 0.06348176 -0.0013563425
000060 4a 2c 08 bd 09 dd af 3e d2 e6 27 be 69 ec 50 3e
       -0.033245362 0.34348324 -0.16396645 0.20402683
000070 06 b6 62 3d 34 9b 00 be 51 1a 5c bd 32 6f e9 3c
       0.055349372 -0.12559205 -0.053736035 0.028495405
000080 7a 17 a1 3e 42 0c 8d bd e0 e4 00 3d 76 b2 d8 3d
       0.31463224 -0.068871036 0.031468272 0.10580914
000090 b4 05 3a bd 2f f4 00 be 14 7d 23 3d ca d1 46 3e
       -0.045415595 -0.12593149 0.039914206 0.19415966
0000a0 df d3 08 3d e4 dc 06 3e 2a c4 25 be ed d9 9e 3e
       0.03340518 0.131702 -0.16188112 0.3102564
0000b0 10 f0 a0 bd 55 c7 f7 bd 01 a2 dd bc 2f 05 1e 3e
       -0.07858288 -0.120985664 -0.027054789 0.15431665
0000c0 d6 24 11 3e 7e 73 4b be e1 a7 4e bd 7e 19 5e be
       0.14174208 -0.19868276 -0.05045307 -0.21689412
0000d0 99 cf d4 3c e4 a4 86 bd 8e a2 d2 bd e4 e5 b7 3d
       0.025977897 -0.06574419 -0.10284911 0.08979395
0000e0 ba ee 1f 3e 90 97 31 be ad 3c 53 3e 67 dc ef bd
       0.1561841 -0.17342973 0.20628615 -0.1171196
0000f0 41 84 b0 3c 32 df 36 be 38 b4 bc 3d d8 23 2d be
       0.021547439 -0.1785858 0.092140615 -0.16908205
000100 f8 c1 56 3b 31 18 20 bd 1a a3 75 bd 73 81 12 3e
       0.0032769423 -0.03908557 -0.05997 0.14307193
000110 e7 86 4d 3d ed f3 cf bd ea 7a 1f 3e 15 f5 ea 3d
       0.05017748 -0.10153947 0.15574232 0.11472527
000120 29 0f cd bd e4 c2 d5 3c a5 61 ce 3c 90 22 de bd
       -0.10012657 0.026093908 0.025193045 -0.10846436
000130 fc 53 5f 3d 20 17 25 be 9e fa 5b be c9 95 63 3e
       0.054523453 -0.16122103 -0.21482322 0.22225107
000140 b5 c8 2b be c8 3a 75 bc d5 9c 25 be 03 3e d8 3d
       -0.16775782 -0.014967628 -0.16173108 0.10558703
000150 23 23 25 bd 8b 56 d7 3d dd 66 2e 3e 61 be 26 3e
       -0.040316712 0.10514554 0.17031427 0.16283561
000160 d9 f8 43 3e 3d 35 82 3b 52 0c 56 bc 4d 8b 25 be
       0.19137897 0.0039736317 -0.013064461 -0.1616642
000170 91 74 99 3d 9e 52 07 bc 61 06 f6 3c d4 a1 3e 3e
       0.074929364 -0.008259444 0.030032339 0.1861642
000180 ff ca 25 3e 22 27 ca 3d 5f d0 bb bd ea 68 02 3f
       0.16190718 0.09870745 -0.09170603 0.50941336
000190 7f 3d f6 bc c4 cc 3b bd c4 af 07 be b5 d4 17 bd
       -0.03005862 -0.045849577 -0.13250643 -0.037068088
0001a0 d4 64 cd bc 3e 42 59 3d 42 46 3d 3d 0d 3d 17 bd
       -0.025072493 0.05304169 0.04620958 -0.036923457
0001b0 88 5d a2 3d 50 d5 0f be a9 da 3b be 2f 68 a5 3d
       0.07927996 -0.14046216 -0.18345131 0.08076512
0001c0 9b fc 44 be ac f3 c8 bd b5 9f 0d 3d a2 52 e4 3c
       -0.19236986 -0.09812102 0.034576137 0.027871434
0001d0 07 15 a4 3d 05 5e 5a bc 84 44 ca 3c 24 d7 1d 3e
       0.08011823 -0.01332808 0.024690874 0.15414101
0001e0 00 dc 88 be f9 fd 4a 3e dc 0b 56 3e 0e 68 7e bd
       -0.26730347 0.19823445 0.20902961 -0.062110953
0001f0 3e c7 3a 3c d1 59 26 be d2 18 ad bd e4 51 59 be
       0.011400042 -0.162452 -0.08452 -0.21222645
000200 c8 7a 0f 3e ed 51 1c bd d9 cb 28 be d1 20 26 3d
       0.14011681 -0.038164068 -0.16484012 0.04055864
000210 5e fb 03 be cd d2 a2 3d f5 40 4d 3d d1 9d 8f be
       -0.12888858 0.07950363 0.050110776 -0.28050092
000220 72 1d 00 bd c9 d5 6d be 41 6b 53 be 55 f4 7f 3d
       -0.03127808 -0.23226084 -0.20646383 0.062488873
000230 46 d9 f3 bc 92 38 a7 bd c7 eb ea 3d 54 0e 37 3e
       -0.02976669 -0.08165087 0.11470752 0.1787656
000240 d0 2f c2 3b 08 69 65 3e 8c 6c 3c be 1d 02 60 3d
       0.00592611 0.22403347 -0.18400782 0.054689515
000250 68 0b 4a 3e 3e a9 f0 3d 9d 12 1b bc 06 32 5b 3e
       0.19730914 0.117510304 -0.009464887 0.21405801
000260 35 72 ca 3d 30 f8 00 3e 72 c2 98 be f4 7d 6f be
       0.098850645 0.12594676 -0.2983585 -0.23387891
000270 e5 b6 7c bc 36 53 9f bd 23 8a 01 3e 30 ec 37 3d
       -0.015424465 -0.07779543 0.12650351 0.04490298
000280 cd 32 30 3e 3d 70 27 be 16 e3 65 3b d2 af 49 be
       0.17206879 -0.1635141 0.003507798 -0.19695976
000290 78 b8 9e 3c d2 8a 29 be e0 b4 7a 3e 80 54 06 bd
       0.01937507 -0.16556862 0.24483061 -0.03279543
0002a0 ba 55 ea 3d e4 d8 b3 bd 7d 5f 05 3e df 61 30 be
       0.11442132 -0.08781603 0.13024707 -0.17224835
0002b0 c0 89 e3 bd af 20 bf bd ad f1 fd 3c 44 f0 90 bc
       -0.11110258 -0.09332406 0.030999029 -0.017692693
0002c0 c4 c6 3d 3d f7 7e 0e be 43 0f 41 3c 68 05 b1 3d
       0.046332136 -0.1391562 0.011783424 0.08643609
0002d0 fd dd 85 3b cb d5 bc bd 74 7f 6c be 0c bb f4 bd
       0.004085301 -0.09220465 -0.23095495 -0.11949739
0002e0 50 ed 3b 3d 43 7a 9d bc 43 df 0d 3e dd 49 78 3c
       0.045880616 -0.019223338 0.13854699 0.015154329
0002f0 b3 20 01 be 55 ce 86 3d b0 6b 32 3c 3e 2a 06 be
       -0.1261013 0.065823235 0.0108899325 -0.13102052
000300 9b e9 a6 bd ec fe c0 bc 9d 68 aa bd a4 7b b0 ba
       -0.081500255 -0.023559056 -0.08320735 -0.0013464582
000310 03 d5 51 bd 11 ca 2e 3e 82 db 60 3e ca d9 6b 3d
       -0.051228534 0.1706927 0.21958736 0.057580747
000320 28 54 22 3e 26 48 49 bd 60 85 89 3c 40 15 72 3d
       0.15852416 -0.04914107 0.016787231 0.059102297
000330 68 2c 84 3b f9 f9 0f be ab 6a d0 3d bd 87 7e 3d
       0.004033614 -0.14060201 0.10176595 0.06214117
000340 e0 ac cd bd e1 7e bd 3c e1 27 2c bd 26 79 f1 bc
       -0.10042739 0.02313179 -0.04203022 -0.029476713
000350 36 04 87 bd d3 53 d0 3d 2d 74 b2 3b 17 90 26 3e
       -0.065926 0.10172238 0.005445978 0.16265903
000360 3e e8 7e 3d eb b7 81 3d 36 c6 19 3e 32 b8 f5 3d
       0.062233202 0.06333908 0.15017018 0.11998023
000370 70 49 bc be 71 02 02 be ba 53 20 3d d2 4c a5 bb
       -0.36774778 -0.12696244 0.039142348 -0.005044558
000380 66 b9 27 be f1 0c a3 3d 94 77 01 3d 46 a7 b9 3c
       -0.16379318 0.07961453 0.03160818 0.02266277
000390 a3 1e b5 bd bc 7d 95 3d ac 4c 3a 3b 0c 5c 5a be
       -0.08843734 0.072993726 0.0028427048 -0.21324176
0003a0 0c cd 35 3e d6 47 61 bc 92 56 04 be 5c cd 43 be
       0.17754 -0.013750037 -0.12923649 -0.19121307
0003b0 9e 2c e5 bd 1e f4 b4 bd 14 65 0d 3e 5c ab 80 3e
       -0.11190151 -0.08835624 0.1380809 0.25130737
0003c0 df dc f2 3d 8b 45 37 3e 82 f6 58 bc 6f 68 79 3d
       0.11858534 0.17897622 -0.013242366 0.06089061
0003d0 ec 71 51 3e d8 8c 78 bd 04 98 2a 3c f1 0e a6 be
       0.20453614 -0.060681194 0.01041222 -0.32433274
0003e0 c6 75 84 3e 4d 6b b4 3d f6 12 92 3c 46 b5 60 bc
       0.25871104 0.088095285 0.017831307 -0.013715094
0003f0 77 a5 43 3e 3a 39 62 3e e0 4d 39 3e ec 1a 1f 3e
       0.19106089 0.22092143 0.18096113 0.15537614

bias f4 [256]
000000 75 14 72 bc e7 e4 ae 3b b4 7e 80 bb 7e 9e 1b 3d
       -0.014775385 0.005337346 -0.003921354 0.037992947
000010 5c b4 0d 3c a5 88 62 bc 5c c0 04 3b f9 1c 48 3d
       0.008648958 -0.013826524 0.0020256257 0.048855755
000020 81 ab 5a 3c 92 47 23 3c 47 ec 9e bc 78 9d 95 3c
       0.013346554 0.009965794 -0.019399775 0.018263564
000030 4f 9d 95 3a d1 33 ca bc d3 96 03 bd 6b 3c c5 bb
       0.001141468 -0.024682911 -0.03212626 -0.0060191653
000040 52 c6 a7 3b cc cc 0c bd 91 ae 19 3b 89 1b 16 bd
       0.005120077 -0.034374997 0.0023449997 -0.036647353
000050 29 4e 47 3c 86 ef 81 bc 8b 17 6e bc 59 95 c8 3b
       0.012164631 -0.015861284 -0.01453198 0.0061213193
000060 36 97 cb bb b9 a6 33 bc 73 b3 13 3d d6 24 00 bb
       -0.006213094 -0.010965043 0.036059808 -0.0019553206
000070 84 3c 18 bb b5 eb 02 3d f5 b1 33 3c bd 6f 02 bc
       -0.002322943 0.03196307 0.010967721 -0.007961211
000080 1b ec 74 bc 49 ed 03 3c 83 ba 18 3b 51 15 f8 3b
       -0.01494887 0.008052179 0.002330453 0.0075709005
000090 38 bc 41 bb c4 6d 3d bc 73 86 41 3c 65 3e 72 bc
       -0.002956165 -0.011561815 0.01181184 -0.014785384
0000a0 66 d1 25 bb fb 7e 17 3b 57 b0 07 3c 7b 27 81 3c
       -0.0025301813 0.0023116458 0.008281789 0.015765896
0000b0 69 d4 ec bc cf 11 65 3b 1e cc 29 3a bc 1c 0d bb
       -0.028909879 0.0034953242 0.0006477254 -0.002153202
0000c0 09 14 ac bc d3 e0 5f 3c 68 fb 9b bc 9e 21 d1 3b
       -0.021005647 0.013664442 -0.019040778 0.0063821813
0000d0 f4 11 7c bc 0b 5a 04 3d cc b3 39 ba 3a 9b 4d bd
       -0.01538514 0.032312434 -0.0007083982 -0.050196864
0000e0 27 d0 4a bc 63 2d 60 3c cf db 94 bb f1 dd 6f bc
       -0.012378729 0.013682696 -0.004542805 -0.014640317
0000f0 0c 69 5e 3c 48 5f 92 bc f9 59 f8 bb ad 90 b6 bc
       0.01357485 -0.0178677 -0.007579085 -0.022285784
000100 a9 17 93 bc a2 08 37 bc 8f f3 a1 3c 86 c3 98 3b
       -0.017955618 -0.011171492 0.019769458 0.00466198
000110 67 f7 5a bc bb d8 f0 3c 72 b3 47 ba 9d 8b a9 ba
       -0.013364649 0.02940022 -0.0007617987 -0.0012935285
000120 87 6a ff bc f9 7c f5 3b fa b2 15 3c 48 47 78 bb
       -0.031178726 0.0074917045 0.00913691 -0.0037884284
000130 c9 bf 6b 3c 7b 76 3d bb 0c d2 a9 3c d6 15 ae bb
       0.014388987 -0.0028909731 0.020730041 -0.0053126616
000140 fc 18 69 bc 51 d5 b8 bc 95 26 df 3c 0c 74 1b 3c
       -0.014227148 -0.022562655 0.027240077 0.009488117
000150 cf c7 f1 bc 0b d2 d0 bb 10 6b 59 bc bd ed 1d bc
       -0.029514221 -0.0063726953 -0.013270155 -0.009639201
000160 28 66 8f 3c 5f 85 4a 3a a3 dc 5f 3b b1 72 07 3d
       0.017504767 0.00077255623 0.003415861 0.033068363
000170 b9 04 b4 3b 62 8b b4 3b 1b d2 bf bb 3b fc 28 3d
       0.005493727 0.00550978 -0.005853904 0.04125617
000180 3d fc 3b 3a 7a 4e ee bb f6 5c b8 bc 88 42 25 bc
       0.00071710703 -0.0072725387 -0.022505265 -0.010086663
000190 dd 02 b9 bb 81 dc a9 3a 2c e8 8f 3b 2f 8d 4a 3c
       -0.0056460933 0.0012959392 0.0043916907 0.012362762
0001a0 16 a6 96 3b d1 8c 25 bc 93 54 bd bb 4e da 7d bc
       0.0045974357 -0.010104374 -0.0057779043 -0.015493942
0001b0 41 ed 1c bc de df 96 3c 12 8f 5b bc 66 45 25 3d
       -0.00957805 0.018417295 -0.01340081 0.040349387
0001c0 f8 f8 da 3b 87 28 26 bc e4 02 bf bc 71 5a 39 bc
       0.0066825114 -0.010141498 -0.023316808 -0.011313067
0001d0 c3 31 21 3c 7b 14 0f bd d8 68 b5 bc 06 83 44 3c
       0.009838524 -0.03493164 -0.02214472 0.011994129
0001e0 55 55 c6 3b fa c2 ae 3c 71 93 a3 bc a5 36 9a 3c
       0.006052653 0.021333206 -0.019967766 0.018824885
0001f0 79 6b 27 bc c8 75 9b bb 7f 31 08 bc 7d d4 b7 3a
       -0.010218495 -0.004744265 -0.008312582 0.0014025118
000200 0c c8 a0 bb cf bb 4e bc 36 de 79 3b d8 fc 23 3c
       -0.00490666 -0.012618019 0.0038126833 0.010009013
000210 53 66 08 bc f3 59 4b 3c b2 8c 0e 3b 5e cb 7f bc
       -0.008325177 0.012411582 0.0021751341 -0.015612451
000220 71 2e 10 3c 5e a1 5b 3c ba 78 41 bd f3 a7 21 3d
       0.008800135 0.013405172 -0.047234274 0.03946681
000230 9b a8 c8 bb 0e f4 cb 3b 38 2b c3 ba ad fb 90 3b
       -0.006123615 0.006224162 -0.00148902 0.0044245333
000240 03 df 87 3c fb f2 07 bd e0 d3 85 bc b7 0b af bc
       0.016585832 -0.03319071 -0.016336381 -0.02136789
000250 a3 2d bc ba 6c 23 3f bc 6b 86 c7 3a 7e de de bb
       -0.0014356863 -0.01166616 0.0015222555 -0.0068014255
000260 31 1a 0b 3d 21 7f bc bc 33 16 30 3c 36 e8 a4 bc
       0.033960525 -0.023009839 0.01074748 -0.020130258
000270 7e d4 b1 3a 6f b9 0c bc 1d 90 e2 3b 22 b9 ab bc
       0.0013567356 -0.008589133 0.0069141523 -0.020962302
000280 02 4b ac 3c cc e7 29 3c e7 66 13 bd 0b ba e5 3b
       0.02103186 0.010370206 -0.035986807 0.0070107034
000290 92 ab 32 3b 1a 5a 3f 3d 10 f3 40 3c 8d 34 b8 bc
       0.0027262908 0.046716787 0.011776701 -0.022485996
0002a0 12 16 f7 3b be 1e 07 3d c4 89 1f bc 77 92 56 bc
       0.007540473 0.032988302 -0.009737436 -0.013096443
0002b0 18 f1 f4 3c 96 fb 3f 3b 27 1c fb 3a ab cb 8d 3c
       0.029900119 0.0029294244 0.001915817 0.01730903
0002c0 17 37 20 3d 95 6e 57 ba 49 25 94 3a aa 42 00 3c
       0.039115038 -0.0008218077 0.0011302616 0.007828394
0002d0 d6 0c 89 3b 25 9d 9a 3c d0 23 18 bd e0 df 85 3c
       0.0041824384 0.01887376 -0.03714353 0.016342103
0002e0 d0 25 c1 3c fa 8e d2 3c e9 87 c8 bc 34 72 ec 3b
       0.0235776 0.025702942 -0.02447887 0.0072157625
0002f0 b3 79 2c bc 80 e0 96 3a c8 4e 8c bc 68 db e4 3c
       -0.010527062 0.0011510998 -0.01712741 0.027936652
000300 9c eb f7 3c 45 05 d3 3b 7e be 0d bc 4b 2b a7 bc
       0.030263714 0.006439837 -0.008651374 -0.020406386
000310 96 fc 5d bb 19 69 dd bb 64 64 54 bc 61 ae 8c 3b
       -0.0033872477 -0.0067569134 -0.012963388 0.0042932485
000320 d6 e9 72 bc e5 2f 06 3b 58 e1 23 bc 88 dc 79 b9
       -0.014826259 0.0020475325 -0.010002457 -0.00023828645
000330 e9 66 9e bc e8 7a d1 bc 59 81 1b 3c 16 87 26 bc
       -0.01933618 -0.025571302 0.009491288 -0.010164043
000340 47 e3 18 3b fb da 0e bd 19 8c d6 bc f1 73 e1 3a
       0.0023328827 -0.034876805 -0.02618985 0.0017200691
000350 b6 6a 30 bc 8b e2 a9 b9 3c 3d d5 3b 54 40 20 bb
       -0.010767629 -0.0003240298 0.006507544 -0.0024452405
000360 75 67 71 bc ce a3 85 3c 66 1c 55 bd 21 06 3b bc
       -0.014734139 0.01631346 -0.052029036 -0.011415035
000370 34 27 cb bc 38 89 11 3d ac c4 ee bb 7a 81 73 3c
       -0.024798967 0.035531253 -0.0072866287 0.014862413
000380 ff 9b 90 bc 06 f0 38 3a 7f 52 3c bb c0 0c 14 bd
       -0.01765251 0.0007054809 -0.0028735695 -0.03614497
000390 22 04 49 3b 53 22 07 3c 05 e6 e5 3b b6 07 87 3b
       0.003067263 0.00824793 0.007015946 0.0041207923
0003a0 a1 92 53 3b 0f 41 55 3c a6 8a 9f bb 55 f6 fc bb
       0.0032283443 0.013015999 -0.004868823 -0.0077197948
0003b0 83 f1 1b 3c fe ac 8d 3c af 54 88 3c 59 4f dd bb
       0.00951803 0.017294403 0.016641943 -0.0067538437
0003c0 75 97 52 bb 34 3b a4 3c b1 7c 28 bb 5f 1d 0e 3d
       -0.0032133732 0.020047761 -0.0025709087 0.03469598
0003d0 58 fa 5d bc ab 6f 2a bd 5e 6b 35 3c 23 44 3b 3b
       -0.013548456 -0.0416104 0.011072962 0.0028574548
0003e0 2c 8c 6c 39 ac c7 cb bc 94 1d b3 3b 70 cc dc bb
       0.00022558932 -0.024875484 0.0054661725 -0.006738238
0003f0 9e be b8 ba dc 50 7c ba f5 c4 a2 bc db df a3 bc
       -0.0014094894 -0.0009625086 -0.019869307 -0.020004204

weight f4 [128, 256]
000000 de fa d5 3b ba 95 2b be e6 dd 0b bb ce 1f 0f bd
       0.00653015 -0.16756335 -0.0021341979 -0.03494244
000010 7e 16 0b 3c 02 91 96 3c 6a 0c 21 bd 13 ad 2e bd
       0.008489249 0.018379692 -0.03931848 -0.042645525
000020 76 3f c0 3d cb 6c 31 be c2 e0 9a 3d 35 e4 bd 3d
       0.09387104 -0.17326657 0.075624004 0.09272043
000030 f7 2d 5e bd ba 02 db 3d 52 3d f1 ba c8 49 8c 3e
       -0.054243054 0.106938794 -0.0018405116 0.2740004
000040 b6 96 ac bd db 26 d8 3d 9c d8 31 be 9c 45 40 3d
       -0.08427183 0.10554286 -0.17367786 0.046941385
000050 2e 9d d5 bd ce 69 2d bd f6 75 80 3e 66 90 3e bc
       -0.1043037 -0.04233723 0.25089997 -0.011631107
000060 3e 4c 90 bd 8e cb e8 bd 2f 70 92 bc 13 61 95 3d
       -0.07045792 -0.1136695 -0.017875759 0.07293906
000070 4e 3a 58 bd 02 ef b5 3d b5 b7 10 3e 76 aa 1f 3e
       -0.05278998 0.08883478 0.14132579 0.1559237
000080 e5 ad 4e 3c 20 a0 4e bd 08 87 1c bd ab 4c a2 3d
       0.012614702 -0.050445676 -0.038214713 0.079247795
000090 88 28 5a 3d d9 4c 13 bd 46 5f a0 bd 5f 36 0b bc
       0.05326131 -0.03596196 -0.07830672 -0.00849685
0000a0 66 cf 20 3e 1f fd a4 bd 69 d4 a4 bd 17 6d f4 3c
       0.15704116 -0.080560915 -0.080483265 0.029837174
0000b0 0c d3 d0 3b 01 3d d2 3d 9a c7 b7 3d eb 1b 33 3b
       0.006372815 0.10265542 0.08973618 0.0027329873
0000c0 19 01 44 3c 08 e4 2b bd 28 86 03 3d 18 16 aa bc
       0.011963152 -0.041965514 0.032110363 -0.020762488
0000d0 78 85 e0 bc a8 a9 20 bd 6c b6 be 3b 60 85 ba bd
       -0.027407393 -0.039224297 0.005820086 -0.091074705
0000e0 e0 cf e7 3d 66 98 ba 3d 8b 8c 2b 3d 08 ce 92 bc
       0.11318946 0.09111099 0.04188208 -0.017920509
0000f0 f3 59 6d 3c a7 ca 06 bd 91 f2 93 3d 9e 5b 99 3d
       0.014486778 -0.032908108 0.07224 0.07488178
000100 a6 67 23 be f6 8a 86 3d df b8 f0 3c ce 52 d0 bd
       -0.15957507 0.065694734 0.029385028 -0.10172044
000110 a7 d4 f6 bd e5 8c 32 bd 84 6b 09 bc 20 e5 ea 3d
       -0.12052279 -0.0435914 -0.00838745 0.114694834
000120 dd 74 ed 3d ab 00 fb bb 55 1c 99 3d 7c e8 28 3e
       0.115945555 -0.0076599917 0.07476107 0.16494936
000130 98 1a 88 3a 3a db a5 bc 0d d6 88 3d 05 cb 98 3d
       0.0010383902 -0.020246137 0.06681452 0.07460598
000140 31 84 11 bc 68 e4 c5 bd cc a3 ad bd d1 6e fc bd
       -0.008881615 -0.09662706 -0.084785074 -0.12325824
000150 9b 63 00 3e d4 bd 1d 3d 51 2f 81 3b e4 e8 63 bc
       0.12537996 0.038511112 0.003942408 -0.013910506
000160 22 53 a0 3b d5 94 09 3e 10 de a6 bd e3 a2 27 3c
       0.0048927227 0.13435681 -0.08147824 0.010231706
000170 4d ea 68 be d7 bf 29 3d ad 09 83 3d f2 0d cf 3c
       -0.22745629 0.04144272 0.0639833 0.025275204
000180 49 ba f1 3d e0 83 43 3e 7c a1 1c bd 6d 25 60 bd
       0.11803109 0.19093275 -0.03823994 -0.054723192
000190 ef c1 14 3c aa 69 fd 3c 47 05 f4 bc cf 99 8d bd
       0.0090794405 0.030934174 -0.029787673 -0.06914102
0001a0 31 0a 74 3d 61 63 dd bb 6b 37 99 3c 40 25 5f 3e
       0.05958003 -0.0067562317 0.018703183 0.21791553
0001b0 0d 79 ac bd 1a e4 99 3c f9 f1 b3 3b e9 a2 55 bd
       -0.08421526 0.018785525 0.005491492 -0.052157316
0001c0 ce cc c4 bd 37 98 d2 3d 19 57 88 3c 08 66 68 bd
       -0.09609376 0.10282939 0.016643094 -0.05673793
0001d0 8b 5c ae bd a4 8a dd 3c 92 f5 6a 3d d1 ec e0 ba
       -0.08513745 0.027043648 0.0573631 -0.001716042
0001e0 95 e2 4b bd 8e a4 a9 3d ba 5e 19 3d 19 89 a6 bc
       -0.049776632 0.082833394 0.037443854 -0.020329045
0001f0 c3 70 eb 3c e9 ab 07 3c 46 a2 c5 bd 0d bb 09 bc
       0.028740292 0.008280733 -0.09650092 -0.008406413
000200 fa 73 ea 3c 04 25 56 3c f9 62 6f bd d7 24 05 3d
       0.028619755 0.013070349 -0.058443997 0.032505836
000210 35 38 cd bd d8 87 d6 3d db f7 47 bd 3b f8 3b 3d
       -0.10020486 0.10475129 -0.048820358 0.045891028
000220 a4 19 2d bd 12 7d f6 3d 2e 6e 64 3b 81 87 08 3e
       -0.04226078 0.12035574 0.0034855711 0.1333294
000230 3d 59 2f 3d 11 4e 97 bd 5b d8 c4 3c 63 56 b7 bd
       0.042809714 -0.07387937 0.024028948 -0.08952024
000240 93 ad 0e be ef e5 04 3e a0 10 79 bd d0 a5 a4 3d
       -0.13933401 0.12978338 -0.06080687 0.08039439
000250 09 a2 f1 3b f5 55 8d 3c 3b 10 5f bd 14 b2 b1 3d
       0.0073740524 0.017252902 -0.054458838 0.08676544
000260 27 54 31 3d 15 d7 bd bc c0 5a b1 bd 23 db b2 3d
       0.043293145 -0.023173848 -0.08659887 0.08733203
000270 25 24 95 3d ba 9f fc bc 3e db 2a bd 96 d4 7f 3d
       0.07282285 -0.030837882 -0.041712992 0.062458597
000280 b7 a1 49 3d 39 c2 49 bb f7 aa d2 3c af c2 f8 bc
       0.04922649 -0.0030785932 0.025716288 -0.03036627
000290 29 c1 7e 3b 13 db 84 3c 0e 99 ec bb f4 b3 07 3d
       0.0038872457 0.016217744 -0.007220394 0.0331306
0002a0 9f bb bf 3c a2 5d 8a bb de 9f 97 bd f0 bf 4f bd
       0.023404894 -0.0042225877 -0.07403539 -0.050720155
0002b0 f4 2b e3 bc 8b a8 9e bb cf b7 80 3d 09 4f 89 bb
       -0.02773092 -0.004841869 0.06285059 -0.00419033
0002c0 a3 d4 28 3d 05 9b 46 3d e4 f2 89 3c 27 fe 62 bc
       0.04121841 0.048487682 0.016839452 -0.01385454
0002d0 8d 6f 17 bd 74 88 38 3e bb 34 1a bd 8e 49 b2 bd
       -0.036971617 0.18020803 -0.037647944 -0.08705436
0002e0 db e0 9e 3d 90 ec a4 3d c5 5d 16 3e de 5e 3d bb
       0.077577315 0.08052933 0.14684208 -0.0028895657
0002f0 53 a5 04 bc fb b1 8b 3d c4 09 a5 3d 73 fa bc 3c
       -0.008096057 0.068210565 0.08058503 0.023068642
000300 a7 f2 2c 3d 7f a4 6f 3d a1 bf 18 3b df d3 3d 3e
       0.0422236 0.058506485 0.002330758 0.18537854
000310 c9 01 1d 3d 4a 4d fa 3d 24 62 cb bd 42 19 71 3e
       0.03833178 0.12221773 -0.09930828 0.23544791
000320 5a 3c a3 bd 91 30 28 3c 25 c2 2a bd a5 1a 0f be
       -0.079704955 0.010265485 -0.041689057 -0.13975008
000330 b1 dc 0d 3d 5d 04 1d bc 51 07 86 3d 7f b8 18 3d
       0.034634296 -0.00958356 0.06544364 0.037285324
000340 2d b4 be 3c 6b d8 86 bd a4 5c 2d be 70 69 9f bb
       0.023279274 -0.06584247 -0.16929871 -0.004864864
000350 5f dc 44 3c 34 ee 9b 38 08 30 b5 3b 3e 9c 85 3d
       0.012015431 7.435345e-05 0.0055294074 0.065239415
000360 94 ce 9c bc 07 f0 0c 3e 8c d1 d9 bd 7b 43 ae 3c
       -0.019141473 0.13763438 -0.10635671 0.021272412
000370 1f 0a a8 bc e9 54 09 bd e1 9a e1 bd 0e 4a 04 be
       -0.020512639 -0.033528242 -0.11015869 -0.12918875
000380 ab 2e 78 3b 50 b2 20 3c c2 75 1b 3e 32 d8 a8 3d
       0.0037869613 0.009808138 0.1518164 0.08244361
000390 a0 3b 2c bd b2 38 b9 bb 77 e3 8f bc 31 b9 cd 3d
       -0.04204905 -0.0056525106 -0.017564518 0.10045088
0003a0 d7 06 83 bc 6f ee e4 bd 30 ca 1f bd e1 13 a4 bc
       -0.015994472 -0.1117829 -0.03901118 -0.02002901
0003b0 29 c7 a6 3d bd 17 95 3d 32 27 e3 3d 25 07 3c 3d
       0.081434555 0.07279918 0.1109146 0.04590525
0003c0 02 f4 c7 bc da 9e 5a bc e5 70 a4 bd 8a 09 87 bd
       -0.024408344 -0.013343537 -0.080293454 -0.06593616
0003d0 81 1b 96 bd fb 9c be 3c b9 ec 4b 3c 7d 76 df 3c
       -0.07329465 0.023268213 0.012446576 0.02727818
0003e0 95 91 f7 bc 71 f7 ec 3b e1 a5 20 bd 81 99 84 3d
       -0.030220786 0.0072316458 -0.039220694 0.06474591
0003f0 9d a2 60 bd d3 9a 92 bc 83 31 1f 3e c3 46 87 3d
       -0.05484258 -0.017896092 0.15546231 0.066052936

bias f4 [128]
000000 27 33 bc bc 9f c0 b4 3c b8 24 d3 bc 4c c9 b1 bc
       -0.02297361 0.022064505 -0.025774345 -0.021702431
000010 ba 03 bf bb 09 e4 db ba b0 ff d0 3c 7a 8b 1b bd
       -0.0058293017 -0.0016776334 0.025512546 -0.037974812
000020 cb 09 61 bd c3 9a 8e bc ca 81 bd ba ba 41 0c bd
       -0.05494098 -0.01740778 -0.0014458236 -0.03424237
000030 03 81 c8 3c 88 8b 6a 3c 84 e4 09 3c f8 e2 c1 bc
       0.02447558 0.014315493 0.008416299 -0.023667797
000040 65 db 08 3c 78 ec f8 3c 33 e0 86 3c d1 ca 47 3d
       0.008353089 0.030386195 0.016464328 0.048777405
000050 7b c4 0e bc 8f 1f 84 3b 61 5c a8 bc c4 1e e3 3c
       -0.008713837 0.0040320824 -0.020551862 0.027724631
000060 90 44 21 3d 0a 12 52 ba 62 8c b3 bb 35 4d 38 bb
       0.039372027 -0.0008013552 -0.0054793814 -0.002812219
000070 38 05 81 ba 67 2b 9c 3c bb 7a 6a bc 5f 7f 80 bc
       -0.0009843474 0.019063665 -0.014311488 -0.015685735
000080 1a 5f d3 3c 49 d0 9c 3c b4 ee 2e bc 12 2d 29 ba
       0.025802184 0.019142287 -0.010677028 -0.00064535544
000090 b5 eb 8d bb 08 9f 85 bc 71 99 6e bc e7 97 a8 3a
       -0.004331077 -0.016311184 -0.0145629505 0.0012862653
0000a0 a3 0d 85 39 b9 8c 57 bc 01 f0 be 3b d6 0d 00 3d
       0.00025377897 -0.0131561095 0.0058269505 0.031263195
0000b0 86 e1 93 39 46 fb e9 ba 10 65 ca bc 84 19 14 3b
       0.00028206053 -0.0017851375 -0.024706393 0.0022598216
0000c0 a3 0c b8 bc a5 51 cd bc 66 29 40 39 79 65 62 3c
       -0.022466963 -0.025063345 0.00018325969 0.013818138
0000d0 4d 0f fa 3c 27 ea 70 bb 68 c3 16 3c 07 74 b5 3c
       0.030524874 -0.003676066 0.009201862 0.022150053
0000e0 20 e8 1f bd cf 57 4d 3a 16 4b 71 3c ba bb 2b bd
       -0.03903973 0.0007833214 0.014727375 -0.041927077
0000f0 0b 82 09 3c 5f a1 f1 bc ed ec e2 3c d1 46 80 bb
       0.008392821 -0.029495893 0.027700866 -0.003914692
000100 10 59 5c bd 1b aa 68 bb 1d da 1b bc 19 76 41 bd
       -0.053795874 -0.0035501781 -0.0095124515 -0.047231767
000110 f7 52 e3 3b 45 77 ce bb e0 07 dd bb f9 00 3d 3b
       0.0069373804 -0.006300839 -0.0067453235 0.002883969
000120 36 78 44 3b 74 86 0d bd fa dd 15 bb a3 ce d5 bc
       0.0029978878 -0.034552053 -0.0022867904 -0.026099509
000130 b9 56 9e bc 8f 66 0e 3c e6 67 3b ba c5 ef 05 bc
       -0.019328462 0.008691444 -0.0007148966 -0.008174841
000140 29 51 18 3d c8 8a 52 bb 21 79 34 3d 91 dd ad 3c
       0.037186775 -0.0032126177 0.04406083 0.021223815
000150 6d c8 8e bc 93 22 ca bc 19 84 1a 3c c7 09 07 bd
       -0.017429555 -0.02467469 0.009430909 -0.03296831
000160 bc 80 68 3a f5 29 81 3c 78 3f 69 3b b7 7a 21 bd
       0.00088692806 0.015767077 0.003559081 -0.03942367
000170 5c d0 90 3c 85 8a f0 3c 27 5f f5 39 8e a4 03 bd
       0.017677478 0.029362926 0.00046800936 -0.032139353
000180 a7 13 89 ba 41 dc 1f 3c b6 f0 ce bc 21 1d 74 3b
       -0.0010458127 0.0097571025 -0.025261264 0.0037248807
000190 c6 a4 a0 3c 65 4f 8e 3c fb 6a 40 3c 14 7a 8d bc
       0.01960982 0.017371843 0.011744256 -0.017270125
0001a0 06 20 23 bd 43 de ac 3c a2 a5 4a bd 95 97 aa bb
       -0.03982546 0.021102076 -0.049474366 -0.0052060583
0001b0 de c3 ad bc 27 1d 64 bc ad 9d 06 3d cb 64 45 3d
       -0.02121156 -0.013922966 0.032865215 0.048191827
0001c0 e0 4c 83 bd d4 38 8e 3c c7 7e d6 bc 6c e6 48 bc
       -0.06411147 0.017361082 -0.026183499 -0.012261968
0001d0 45 8a 7e bb ba 06 54 3d 37 1d 50 3c 46 31 c7 bc
       -0.003883974 0.051764227 0.012702278 -0.024315488
0001e0 92 f0 53 bc c6 0f 79 bc 11 69 e8 bb bb 41 0b 3b
       -0.012935774 -0.015201515 -0.007092603 0.0021248895
0001f0 93 b4 6f 3c 3f 0c cc bc fb b8 13 3c b7 bb f5 bb
       0.014630455 -0.024908183 0.009016271 -0.007499184

weight f4 [14, 128]
000000 c3 72 e7 b8 c2 d9 8c bc 4c ad 83 3c 59 b1 24 bd
       -0.000110363144 -0.017193679 0.016073845 -0.040208194
000010 f1 da 98 3c 34 d5 13 bd 88 87 4d bd ad 0e 42 3d
       0.018659087 -0.036092 -0.05017808 0.047377277
000020 ce 1f 48 3d 38 f6 1c 3d e9 1e 06 bc b6 33 19 3d
       0.048858456 0.03832075 -0.0081860805 0.03740283
000030 7e 73 d7 3b 74 2f 0b 3b 4b 95 89 3a 2a d7 0a bb
       0.006575047 0.0021238 0.0010496763 -0.0021185377
000040 b3 71 c9 bb 18 ad 2e 3b be c9 3b 3b f6 2c 98 bd
       -0.006147587 0.0026653465 0.0028654183 -0.074304506
000050 09 37 d2 3c 3a 18 2c 3b ba 3b 3c 3c 11 c0 3c bd
       0.025661008 0.0026259557 0.011488849 -0.046081606
000060 c5 8b a2 bc 30 bf a3 bc ec 72 65 bd 38 ec 10 3d
       -0.019842038 -0.019988626 -0.0560178 0.035381526
000070 3b 62 51 3b 72 1f e0 39 8b 40 c9 bb f6 4f 34 bc
       0.003194942 0.00042748038 -0.0061417273 -0.011005392
000080 38 6c 06 3d a8 8c 93 3c cc 37 59 3d 7b 7f db 3a
       0.03281805 0.018011406 0.053031728 0.0016746366
000090 41 5b 2b bc 57 ae fa bb e5 6c 15 bb bb cb 23 3c
       -0.010458768 -0.0076501775 -0.0022800502 0.009997304
0000a0 50 b1 59 3c c4 12 5c bc ce a2 47 bd 7e 27 76 3b
       0.0132869035 -0.013432208 -0.048739247 0.003756016
0000b0 46 70 d9 bb da 0a 56 bc 2b f3 28 bc 12 7a ca bb
       -0.0066356985 -0.013064111 -0.010311882 -0.0061791027
0000c0 77 00 11 bd 34 d9 9e bb bd 14 27 bd 55 90 64 bc
       -0.035400834 -0.00484767 -0.040791262 -0.013950427
0000d0 58 c1 83 3b 51 da 5c 3d 41 50 05 3a ae b1 c3 bb
       0.004020851 0.05391914 0.0005085506 -0.005972109
0000e0 06 70 6e 3d 0a d4 0b 3a f3 8f e1 3c 23 e3 26 3b
       0.058212303 0.00053340255 0.02753446 0.0025464974
0000f0 69 ed 0c bc c1 d8 9d 3c b0 27 e3 3b 5f bf a9 3b
       -0.008601525 0.019268395 0.0069322214 0.005180284
000100 fa 89 74 bd b4 6f 7a bd a1 f7 58 bb 82 22 d0 3c
       -0.059701897 -0.061141685 -0.0033106583 0.02540708
000110 35 28 39 bb 5c 29 fd 3c 56 19 e0 ba 97 c0 0a 3c
       -0.0028252725 0.03090351 -0.0017097394 0.008468769
000120 7a bc f4 3b bd 68 31 bb 3f e6 10 3d 4a 5c 73 3c
       0.007468757 -0.0027070486 0.03537583 0.014853546
000130 27 46 0c bc fb 93 3f 3c 86 07 72 bc 5e 8f 35 bb
       -0.0085616475 0.011692996 -0.014772302 -0.0027703862
000140 47 2d 2c bd a6 71 13 3d 25 5f b8 bc 57 07 8e 3c
       -0.042035367 0.035997055 -0.022506306 0.017337484
000150 21 15 46 3b 01 66 da bb 9f f4 dc bc af 85 72 3d
       0.0030224996 -0.006664992 -0.026972113 0.05920952
000160 09 5e de 3b b1 c8 a7 3a 87 ab f0 bc 95 78 0a 3d
       0.006786112 0.00128009 -0.029378666 0.033806402
000170 9b c4 a0 3b 0a d0 fd bb 1c 6e 71 bc 60 ad a5 3c
       0.0049062497 -0.0077457475 -0.014735725 0.020224273
000180 fb 72 22 ba d7 8b 16 3c 23 23 2d 3d 93 78 df 3c
       -0.0006196943 0.009188614 0.042269837 0.027279174
000190 18 d4 e6 bb 8d 6b 89 bc 6b 0f 87 3b a1 b6 c4 bb
       -0.0070443265 -0.016774917 0.004121711 -0.0060032164
0001a0 e4 40 ac 3c cf 2f 93 bc 50 94 08 3c 4c b6 4a bc
       0.021027036 -0.017967133 0.008336142 -0.0123725645
0001b0 3e 7d 44 3c 3a 13 94 bb 7a 40 22 bc 08 1a 5d bd
       0.011992751 -0.0045188935 -0.009903068 -0.053979903
0001c0 9e 55 fb bb 38 d8 c0 bc 2a ed 8f 3b 16 84 79 ba
       -0.0076701185 -0.023540601 0.004392286 -0.00095182785
0001d0 cd 30 3a 3c ab ee 94 bd 8b db 12 3c 8b 9c db 3c
       0.011364174 -0.07272085 0.008963476 0.026808044
0001e0 8d da 65 3b 2e 57 28 bc 52 ad f3 3a 16 a4 8c 3d
       0.0035072893 -0.0102746915 0.0018591082 0.068672344
0001f0 94 07 84 3c 37 b2 b9 3c 74 6a ff 3b 95 49 7d bc
       0.016116895 0.022667987 0.0077946726 -0.015459438
000200 a3 41 03 bd 14 ce a4 3c b6 ca 5f bc f9 3d 90 ba
       -0.032045018 0.020117797 -0.01365917 -0.0011004797
000210 dd e7 ad 3c 37 ba 59 39 8d 76 c6 bb 69 e2 a7 3c
       0.021228725 0.00020764103 -0.006056613 0.020493703
000220 ef 01 da bb 95 58 6c bd bc c9 8a 3d a8 51 5e 3b
       -0.0066530625 -0.057701666 0.06776759 0.0033923183
000230 0d 39 11 3d 71 d7 26 3d 9c c4 0b 3d 60 42 ea bb
       0.0354548 0.040732805 0.03412305 -0.007149026
000240 c0 8b a7 bb 47 2f 97 bc 86 5e b3 3c dc 02 45 bc
       -0.005113095 -0.01845516 0.021895658 -0.0120246075
000250 49 6e b6 bc 0f 56 98 bc f2 0f bc bc fb f7 fa bb
       -0.022269385 -0.018595723 -0.022956822 -0.007658956
000260 64 4f d9 3b 30 35 5e bd 4c 8d 8b bc d4 3f 3e 3d
       0.0066317786 -0.054249942 -0.017035149 0.04644759
000270 4e e1 08 bd 3a 1b 26 bd 9d 11 cd 39 cc ea 3c bc
       -0.033417992 -0.04055331 0.0003911377 -0.011530589
000280 59 2c c6 3c d8 63 83 3c f1 75 ee bb dd f7 24 bc
       0.024191068 0.01603882 -0.0072772433 -0.010068861
000290 15 69 8f bc 95 e5 6d bd c4 87 b4 bc 79 af 8f bc
       -0.017506162 -0.058080275 -0.022037394 -0.017539727
0002a0 57 a3 9f bc fb 72 86 bc fa cd a1 bc 77 23 4f bd
       -0.019487066 -0.016412249 -0.019751538 -0.05057093
0002b0 b8 3a 2e 3c 96 b6 e2 39 2f b4 d4 bc 4f 0d 1f 3d
       0.010634117 0.00043242116 -0.025964824 0.03883105
0002c0 ec 64 45 bc 15 c4 fe 39 ed 69 3e 3d 01 48 c1 3c
       -0.012047987 0.00048592748 0.046487737 0.023593904
0002d0 ea 2f 4a 3c cf 81 0f 3d 94 3d 24 bd 1e 49 97 3c
       0.012340525 0.035035904 -0.040097788 0.018467482
0002e0 ec 79 29 3c f8 53 81 ba a4 7e 32 bd de df 39 bc
       0.01034401 -0.0009866944 -0.043577805 -0.011344878
0002f0 88 d1 69 3c 9d aa 4b bd db b9 0f 3d d3 ea 15 3d
       0.014271148 -0.049723256 0.035089355 0.0366009
000300 44 5e 8f bc 76 7f f2 b9 77 87 10 3c a0 6b 0b bd
       -0.017501004 -0.00046252803 0.00882136 -0.034038186
000310 63 35 76 3c 53 e8 95 bc 59 e5 74 3a 5e b0 18 bd
       0.015027377 -0.018299257 0.0009342037 -0.03727757
000320 1b 50 8f 3b 34 44 b6 bb 65 5b 5d bd 8b 93 b9 3c
       0.004373563 -0.0055623297 -0.05404224 0.022653362
000330 ce b6 07 bc 8e 27 95 bb bf ea a7 bd f7 b5 a5 3d
       -0.00828333 -0.0045518344 -0.08199071 0.08091348
000340 8f 9f 9c bc 0a d7 18 3d 4e b6 9d bb ea a6 39 bd
       -0.019119052 0.037314452 -0.004812992 -0.045325197
000350 b7 27 ad bc e9 c3 9f bc 7e 62 4f 3d a3 01 a1 ba
       -0.021137102 -0.019502597 0.05063104 -0.0012283813
000360 ab cf 9c 3c 97 66 4e bc a5 59 5a 3c 86 14 c6 bc
       0.019141993 -0.0125977015 0.013327037 -0.024179708
000370 69 c7 f9 bb 63 45 b7 3b bf 3c d1 bc d6 2d c2 bd
       -0.0076226485 0.0055929883 -0.025541661 -0.09481399
000380 f7 fb 5e 3b 5a 7a 2c 3d 9e dd 0c bd e0 a5 80 bd
       0.0034024694 0.04210887 -0.034391038 -0.06281638
000390 5f c7 98 3b 0f cb 70 bd 10 35 5b 3d 66 a0 3a bc
       0.0046624388 -0.0587874 0.0535174 -0.011390781
0003a0 c8 fa 2a 3c 5d 15 5a 3d e7 db ca bc 01 e3 98 3c
       0.0104357675 0.05324303 -0.02476306 0.018662931
0003b0 6c 03 18 3d ff 79 87 bb 0e 29 57 3b 38 dc 93 3d
       0.03711264 -0.004134416 0.0032830867 0.07219738
0003c0 2b 82 ab bc 91 89 a8 3c 94 04 07 3a c2 bd 66 3c
       -0.020936092 0.02057341 0.00051505235 0.014083328
0003d0 84 55 8d 3c ee a7 9d bc 9c f5 b2 b9 14 db 8c bc
       0.017252691 -0.019245114 -0.000341338 -0.017194308
0003e0 e4 32 b3 3c 3c ab 6e 3c 0f cf bf bc 9e 20 81 3c
       0.021874852 0.014567193 -0.023414163 0.015762623
0003f0 7c de a2 3c 8f b6 a6 bd 53 91 40 3d d3 0c 9c bc
       0.01988148 -0.08140289 0.047013592 -0.019049084

bias f4 [14]
000000 8a d8 a7 bc ff 0b b0 3a 3a 5d 20 bd e1 f8 0c 3d
       -0.020488996 0.001343131 -0.039151408 0.034417037
000010 f9 56 29 bd de da c7 3c 79 f3 13 3c 9d 75 56 bd
       -0.04134271 0.024396356 0.009030216 -0.05235826
000020 74 55 15 bc 64 9a 2b bd eb 07 ab bc 45 54 94 bc
       -0.009114612 -0.041895285 -0.020877799 -0.01810659
000030 b1 b1 9c bb da 37 91 3b
       -0.0047819247 0.004431707

weight f4 [64, 13]
000000 1c 59 cc be 27 02 32 3f 0d f9 0f 3e c4 91 15 3e
       -0.39911735 0.69534534 0.14059849 0.14606386
000010 90 1c 1c 3d 20 75 6d be b6 3f 47 3e 0a ce c8 bd
       0.038113177 -0.23189211 0.19457898 -0.09804924
000020 be 3b 9e 3b f7 fe 2a be fb 8f 98 3e 61 d1 bb be
       0.004828899 -0.16698824 0.29797348 -0.3668318
000030 e0 06 f1 3b c8 bd 43 3f 59 3c 84 be f1 f1 b4 3e
       0.007355556 0.7646146 -0.25827292 0.35340837
000040 f1 19 e3 3d 72 b0 8f 3d 09 f6 08 3e 44 22 a2 bd
       0.11088932 0.07016076 0.13375105 -0.07916692
000050 56 0a 5e 3e fa 5f 47 be b1 88 74 be ec 9f 97 3d
       0.2168363 -0.19470206 -0.23880269 0.074035496
000060 6c cf 92 3e e6 41 b9 3d e0 78 9d 3e 2e ff 67 be
       0.28673875 0.09045772 0.30756283 -0.22655937
000070 da bb 3e 3f 08 7c a3 3c 3a 46 ca 3d 3e 39 e5 3c
       0.7450539 0.019956604 0.09876676 0.027981397
000080 05 fa 96 be 69 21 99 3d 4a 94 ce bd 5d 76 b6 be
       -0.29487625 0.074770756 -0.10086878 -0.3563718
000090 08 d1 88 bc 2e 40 50 3e 86 3e 04 3e e2 8c 0d be
       -0.016701236 0.20336983 0.12914476 -0.13823274
0000a0 04 70 f3 be 20 9d 99 bd 08 8a 1a be a0 e0 45 bd
       -0.475464 -0.07500672 -0.15091717 -0.048309922
0000b0 d5 91 99 3d b3 0b 0c bf e8 ed 23 be 12 33 75 bc
       0.074985184 -0.5470535 -0.16008723 -0.014965789
0000c0 59 0b 48 3e 27 98 e9 be 16 b2 25 bf b9 b2 6a 3d
       0.19535579 -0.45623896 -0.6472486 0.05729935
0000d0 41 37 ff bd b7 f3 9a be a0 b7 a2 3e c1 df 93 be
       -0.12461711 -0.30264065 0.3178072 -0.28881648
0000e0 6e a3 8c be c4 a8 56 3e fb 1b 7f 3e 98 c4 72 bd
       -0.27468437 0.20962816 0.24913017 -0.059269518
0000f0 5e a7 84 3d f2 1b 0e 3e 2b 10 ef 3e ae 7c f2 3d
       0.06477235 0.13877848 0.46692023 0.11840187
000100 ca f4 04 bf ef dd 05 3e 34 ef 0a be 0a 7f d1 3e
       -0.5193602 0.13072942 -0.13567811 0.40917236
000110 33 15 8a be 4b 70 67 bd 85 a5 bb be 8d 6f 01 3f
       -0.269693 -0.056503575 -0.3664972 0.5056084
000120 a5 d2 f4 be a1 c3 a0 3d de 44 03 3e b4 c7 a2 3c
       -0.4781696 0.07849813 0.1281924 0.019870616
000130 4c 8b df 3e c9 51 d1 3e 4d d5 f8 bd ea 8e e7 3e
       0.43660963 0.4088271 -0.12150059 0.45226222
000140 c3 33 14 bf f1 dd 03 3e d4 2f 96 be ca 3e 36 3e
       -0.5789148 0.12877633 -0.29333365 0.1779739
000150 be f1 f9 bd 46 8e 6e 3e 30 cb 00 3e a8 8a 0c 3e
       -0.12204312 0.2329646 0.1257751 0.13724768
000160 a3 ea f7 bd 03 2b e0 be 9f a9 06 3d 14 74 06 bf
       -0.121053 -0.43782815 0.032876607 -0.5252087
000170 ab 21 b6 3c 8f b9 20 be b5 36 57 be 34 22 f5 3e
       0.022232851 -0.15695785 -0.21016963 0.47877657
000180 c6 5d 8c 3c 1a a6 09 be 76 41 7f 3e 00 f2 36 3e
       0.017134558 -0.13442269 0.24927315 0.17865753
000190 b8 c5 a2 be 2d 1d 25 bc 39 39 58 be a0 83 d1 be
       -0.31791472 -0.010077757 -0.21115579 -0.40920734
0001a0 6f 94 43 be 46 e9 92 3e c0 d8 ab be dc 7c 23 3e
       -0.19099592 0.28693599 -0.33563805 0.15965599
0001b0 56 81 d5 bc 15 ca b6 3e cb 65 73 3e 70 af 76 3e
       -0.026062649 0.3570105 0.237693 0.24090362
0001c0 2d a9 fd be 06 c0 e1 3e 6b 9e 5a 3e f8 cb b2 bc
       -0.49543133 0.44091815 0.21349494 -0.021825776
0001d0 57 e3 f1 bd c6 22 7a bd d7 c8 df be b1 cc 2b 3e
       -0.1181094 -0.06106832 -0.43707916 0.16777302
0001e0 ff bb f5 be c6 49 40 3e 95 07 d0 3c fa 64 e4 3e
       -0.47994992 0.18778142 0.02539424 0.4460829
0001f0 a9 73 8a 3e 3f 0f 4c be 9b 30 a7 be 05 46 90 3e
       0.27041367 -0.19927691 -0.3265427 0.2817842
000200 49 90 df bd 62 de 04 bd 3d 2f 6f be c8 23 c1 be
       -0.10916192 -0.032438643 -0.23357864 -0.3772261
000210 21 98 02 3e b5 55 d8 bd a8 6d 3a 3e 1b 34 a0 3e
       0.12753345 -0.10563222 0.18205893 0.31289753
000220 ec 4b 17 3b 7b ba 4a be 35 2b 04 bf 70 07 d1 3c
       0.0023086024 -0.19797699 -0.5162843 0.025516242
000230 ad b0 15 be 79 1c 10 bf a9 5a e7 3a 93 fd b8 3e
       -0.14618178 -0.56293446 0.001765092 0.36130962
000240 af c6 05 3e 5a 2f bb bd ad 39 99 be e6 a5 a5 3d
       0.13064073 -0.09139891 -0.29926816 0.08088283
000250 40 34 88 3e 42 03 83 3f df 18 b0 be c2 08 48 3e
       0.26602364 1.0235369 -0.34393975 0.19534591
000260 92 f5 55 3d 55 ef 4c 3f 47 a7 45 bf b5 2d da be
       0.052236147 0.8005269 -0.7720837 -0.42612997
000270 de 6f 08 3e 3e 52 05 bf 4c 49 ee 3d 10 8e 5d bb
       0.13323924 -0.52078617 0.11635074 -0.00338066
000280 0e d3 94 bd 73 6c a2 be c9 78 a7 be de 55 5e 3d
       -0.07266818 -0.31723365 -0.3270934 0.054281108
000290 6b b9 9c 3e 32 d0 80 3c f9 c9 02 3f bd e4 be be
       0.30610213 0.015724275 0.51089436 -0.37283888
0002a0 41 56 80 bd 02 9f 2b bd a4 d3 9c 3a 33 bf 13 be
       -0.062664516 -0.04189969 0.0011964929 -0.14428405
0002b0 fe 16 bc be ee 36 9e 3e 58 63 19 bf d9 2d b5 be
       -0.36736292 0.30901283 -0.5991721 -0.3538654
0002c0 fc 0c d6 bd 18 6c c6 3e 3f 6b 69 3d fc d8 f8 be
       -0.10451695 0.38754344 0.056987043 -0.48603046
0002d0 8d c3 0a bd 29 40 6e 3e 90 23 83 be 25 6c 68 3c
       -0.033877898 0.23266663 -0.2561307 0.01418594
0002e0 47 17 e5 be ff 2b f3 3d e9 8c a5 be 5e 7c 82 3d
       -0.44744322 0.11873626 -0.32334068 0.063713774
0002f0 68 80 14 3e d8 54 bc be 15 7b bb be 9e 3b 98 3c
       0.14502108 -0.3678348 -0.36617342 0.018583115
000300 c4 75 79 3d 4d c4 84 be 32 db 00 bf 6a de bd 3e
       0.060903326 -0.25931016 -0.50334466 0.3708375
000310 d0 a7 b9 3d 2b d1 95 3e b9 1a 82 3d 8f bd 72 be
       0.09065211 0.29261145 0.06352753 -0.23705123
000320 6c ec 3b 3e 30 1d 2f bf f4 07 d4 be e4 40 53 bf
       0.18351907 -0.6840391 -0.41412318 -0.8252089
000330 ff d4 e7 be ee 16 96 bd f5 52 17 3e 03 f8 8b be
       -0.4527969 -0.07328592 0.1477774 -0.27337655
000340 56 f0 bb 3d 29 00 6e 3e 18 a6 73 bd 4d fd b9 3e
       0.091767 0.23242249 -0.05948457 0.36326066
000350 44 36 7e be ab 98 44 bd 2e 73 16 be 3d c8 15 3f
       -0.24825388 -0.047997158 -0.14692375 0.58508664
000360 6c 36 3e 3e 71 55 00 3f 17 6e 17 be 64 11 84 be
       0.18575448 0.50130373 -0.1478809 -0.25794518
000370 d4 b2 37 ba dd 03 22 3e ee 5f a4 bc 81 76 68 3e
       -0.00070075435 0.15821786 -0.020065274 0.22701456
000380 c1 85 86 3e df 69 e8 be 3a 49 92 bd 3c a6 aa be
       0.2627392 -0.45393273 -0.07142873 -0.33329952
000390 07 2b b6 be e5 1b 1a 3f d7 55 19 be c9 db 82 bc
       -0.35579702 0.60198814 -0.14974152 -0.015973942
0003a0 1a 63 93 bd f2 14 a5 bd 95 c2 27 3c 14 ed 8f 3e
       -0.071966365 -0.080606356 0.010239263 0.28110564
0003b0 07 07 e0 bc e4 2f 97 bc 64 90 a6 3e 62 a8 89 bd
       -0.0273471 -0.018455453 0.32532036 -0.067215696
0003c0 31 fe 07 bf b5 8f f9 3d 16 c3 d3 3e c5 6d ab 3e
       -0.5312224 0.12185613 0.41359776 0.33482185
0003d0 72 5b b4 3e 13 3c b9 3e 5c 1f 81 3e f3 85 a1 3e
       0.35226017 0.36178645 0.25219238 0.31547508
0003e0 0d 41 70 3e a1 f2 86 bd 73 6b e4 3d 9e 12 f5 be
       0.23462315 -0.065892465 0.11153307 -0.47865766
0003f0 b6 07 8f 3d ed e1 16 3e ac 93 22 3e f2 b4 03 3e
       0.069838926 0.14734621 0.15876645 0.12861994

bias f4 [64]
000000 e8 06 0b 3d f0 84 0d bd 00 00 00 00 a7 f7 a2 bc
       0.033942133 -0.034550607 0.0 -0.01989348
000010 ff 63 45 3c 4e e2 70 3c 00 00 00 00 00 00 00 00
       0.012047767 0.014702393 0.0 0.0
000020 cc 6b ed 3c 00 00 00 00 00 00 00 00 9e 61 80 3d
       0.028982066 0.0 0.0 0.06268619
000030 8e 0b dc bb 0b 8e b8 bb 6d 35 00 ba 22 86 0c 3d
       -0.0067152446 -0.005632167 -0.00048907736 0.034307607
000040 00 00 00 00 ed 98 29 bd 64 ed 74 bd 00 00 00 00
       0.0 -0.041405607 -0.059796706 0.0
000050 00 00 00 00 53 b3 16 3b 6c 0c b6 3d 2e 25 c0 3b
       0.0 0.002299507 0.08889088 0.005863807
000060 00 00 00 00 4a 9a 10 3d 00 00 00 00 fd 5f 15 37
       0.0 0.03530339 0.0 8.903441e-06
000070 1b dc 25 3d 00 00 00 00 2f ea 28 bb 00 00 00 00
       0.040493112 0.0 -0.002577435 0.0
000080 ec cc 8e 3d 41 67 06 3c 11 66 7b 3a 00 00 00 00
       0.069726795 0.008203329 0.0009590099 0.0
000090 9b 4b 2e bd 00 00 00 00 e9 62 6a 3c bc 7e bd 30
       -0.04255257 0.0 0.014305809 1.378758e-09
0000a0 fe bd ef 3c df 60 3a bd f7 43 a5 ba ac 91 f5 3c
       0.0292654 -0.04550254 -0.0012608756 0.029976688
0000b0 00 00 00 00 5e bd d2 bd 1c 83 0f bd 99 5e 86 bd
       0.0 -0.10290025 -0.035037145 -0.06561012
0000c0 00 00 00 00 ee b5 8f bc 00 00 00 00 d7 cd af bb
       0.0 -0.017542806 0.0 -0.005365114
0000d0 f2 09 3b ba 00 00 00 00 a1 8c 35 bc ad 09 a3 bc
       -0.0007134966 0.0 -0.011080892 -0.019902075
0000e0 00 00 00 00 47 36 9b bc 00 00 00 00 d0 c7 77 bd
       0.0 -0.01894678 0.0 -0.06049329
0000f0 01 91 2b 37 c2 d5 bb 36 dd 76 70 bc 94 24 87 bc
       1.0226156e-05 5.597919e-06 -0.014676777 -0.016496934
