src/GraspNode/models/model_button_0123-4.pt (torch, 455989 bytes, 15 tensors)

weight f4 [64, 13]
-0.038585372 0.28371292 -0.033239715 -0.1253359 -0.48581725 0.3152522 -0.16976847 0.09295083
0.5107896 -0.16127187 0.35837469 -0.17451353 -0.37436786 -0.48755172 -0.022014355 -0.35122278
0.24070428 0.12898342 0.2906322 0.09523272 -0.046138406 0.5102589 0.28120783 -0.1006015
-0.007954945 -0.13584132 -0.10549783 0.012322119 0.11333596 0.22260146 -0.44860795 -0.3287026
0.056653608 -0.11502173 0.2137792 -0.176491 0.18011624 0.37726176 0.5232873 0.15286744
-0.55311644 0.2851698 0.35475022 0.13826564 -0.0431951 -0.12479375 -0.2610497 -0.1766496
0.31740054 0.2671578 -0.308725 0.18548559 0.5180399 -0.029384622 0.25010556 -0.3658871
0.016739782 -0.25012755 -0.11366356 0.3068401 0.02464468 -0.30848348 0.04445955 0.509709
0.1636568 0.25260705 0.41996875 -0.25802183 -0.10682251 -0.18616098 -0.62194747 0.07404776
-0.038848806 -0.16042197 -0.23474815 -0.18247944 0.1773025 0.35628623 0.28797483 0.1386231
0.34173468 0.21148108 0.26591343 0.21170187 -0.387157 0.38807023 -0.34907556 0.06360455
0.21862471 0.3817222 -0.030377712 0.4828412 -0.046250533 -0.56187904 0.43389753 -0.18600196
0.1119158 0.04727143 -0.05374242 -0.05292247 -0.18330926 0.12524483 0.2219531 -0.5042842
-0.11452154 -0.435267 0.4808378 0.049530953 -0.10390195 -0.048638243 0.19344011 0.60372794
0.15418515 0.039849002 0.37064335 0.24369931 0.10934875 0.27208862 0.0679583 0.47451466
0.04707395 0.6044512 0.0019641116 0.03811462 0.06077051 0.24595597 0.13103832 -0.3566107
0.33469218 0.050587434 0.32206705 0.42772058 0.15827303 -0.06047044 0.30182672 0.36890867
-0.07772327 -0.114713535 0.2677167 0.3643253 0.36581653 0.29578552 -0.11185625 0.005516141
0.23943329 0.6998104 -0.46301904 0.040147077 -0.013901693 0.1229808 0.02731044 -0.13530588
0.27048868 -0.06965896 0.24533968 0.25363204 0.4366615 0.09323185 0.23333602 -0.056062322
0.24892327 -0.26047257 -0.31281424 -0.6261232 -0.12513715 0.30388844 -0.0565439 -0.06609341
0.082576886 0.23632099 -0.26432285 0.21510096 -0.12856899 0.14180993 -0.65625304 0.21861926
0.08956957 -0.10142205 -0.0021998237 0.26029584 -0.45416299 -0.05694482 0.33838195 0.025814699
-0.14267299 0.2184633 0.6158848 0.32675514 0.08580877 0.20676154 -0.25411555 0.232037
0.09930968 0.15030426 0.35139832 0.13812192 -0.16838393 0.13101889 0.08739064 0.023694476
0.5784948 0.08662407 -0.19424893 -0.4111585 -0.17447498 -0.43757138 0.055272806 0.37446102
-0.102985375 -0.15033448 -0.08033535 0.7163179 -0.16989529 0.17581218 0.28305203 0.23115474
-0.13594173 0.2019987 -0.52034277 -0.09707752 -0.17927487 0.24152616 0.26816976 -0.13163626
-0.22007093 0.51962274 -0.09555966 -0.011810376 -0.5964252 0.18888277 -0.059510287 -0.16034871
0.1756398 0.19517484 -0.10671206 -0.22187379 -0.0015895829 0.30919296 0.2902499 -0.4050654
0.36394435 -0.5481357 -0.3215145 -0.0441312 -0.49017662 -0.14352879 0.067567006 -0.12714732
-0.16686833 0.50977874 -0.013270628 -0.23602656 -0.38339987 0.3508602 -0.4850839 0.022763632
00000000: b20b 1ebd d242 913e 5e26 08bd 0e58 00be
00000010: 0abd f8be bd68 a13e c9d7 2dbe 015d be3d
00000020: 1bc3 023f 7424 25be e37c b73e adb3 32be
00000030: 25ad bfbe 61a0 f9be 7357 b4bc 79d3 b3be
00000040: 2f7b 763e 3b14 043e becd 943e 5f09 c33d
00000050: a0fb 3cbd 54a0 023f 79fa 8f3e 2908 cebd
00000060: 7555 02bc fd19 0bbe 3f0f d8bd b7e2 493c
00000070: af1c e83d a3f1 633e f1af e5be b54b a8be
00000080: 9d0d 683d 8390 ebbd efe8 5a3e 0fba 34be
00000090: 6470 383e 7428 c13e 28f6 053f 4889 1c3e
000000a0: 0a99 0dbf c701 923e d2a1 b53e 8295 0d3e
000000b0: 58ed 30bd de93 ffbd 4ea8 85be a2e3 34be
000000c0: 5382 a23e e8c8 883e 3411 9ebe efef 3d3e
000000d0: 439e 043f 05b8 f0bc d60d 803e 8e55 bbbe
000000e0: de21 893c b810 80be 71c8 e8bd 251a 9d3e
000000f0: a4e3 c93c 8cf1 9dbe 381b 363d 4a7c 023f
00000100: a695 273e b655 813e 2506 d73e 701b 84be
00000110: c3c5 dabd fca0 3ebe f337 1fbf 5aa6 973d
00000120: ed1f 1fbd a845 24be d261 70be e4db 3abe
00000130: c98e 353e 266b b63e 7071 933e 37f3 0d3e
00000140: d9f7 ae3e 7f8e 583e ce25 883e 60c8 583e
00000150: 7139 c6be 24b1 c63e 08ba b2be 1a43 823d
00000160: 28df 5f3e 1871 c33e aeda f8bc f636 f73e
00000170: 3371 3dbd 4ed7 0fbf d127 de3e 4c77 3ebe
00000180: 1c34 e53d b09f 413d 0321 5cbd 3bc5 58bd
00000190: 6cb5 3bbe 2e40 003e ac47 633e c518 01bf
000001a0: 458a eabd 51db debe 5f30 f63e f8e0 4a3d
000001b0: 8cca d4bd e538 47bd 2a15 463e ea8d 1a3f
000001c0: b6e2 1d3e b538 233d f7c4 bd3e 508c 793e
000001d0: 3df2 df3d 334f 8b3e b92d 8b3d 96f3 f23e
000001e0: 9dd0 403d 50bd 1a3f 53b8 003b 131e 1c3d
000001f0: 80ea 783d e2db 7b3e e92e 063e ad95 b6be
00000200: c65c ab3e c534 4f3d f9e5 a43e 31fe da3e
00000210: 5312 223e daaf 77bd 0889 9a3e 99e1 bc3e
00000220: 612d 9fbd eeee eabd 2a12 893e d988 ba3e
00000230: 4e4c bb3e 3371 973e e414 e5bd bfc0 b43b
00000240: 002e 753e c626 333f d510 edbe 4371 243d
00000250: edc3 63bc 5cdd fb3d 25ba df3c a08d 0abe
00000260: 7e7d 8a3e 5ba9 8ebd 533a 7b3e 0fdc 813e
00000270: 1992 df3e 57f0 be3d a3ef 6e3e 9ba1 65bd
00000280: bee5 7e3e a95c 85be 3029 a0be 9c49 20bf
00000290: f423 00be 4497 9b3e 949a 67bd fb5b 87bd
000002a0: 121e a93d 21fe 713e 5355 87be 6d43 5c3e
000002b0: 97a7 03be 9f36 113e 3300 28bf badd 5f3e
000002c0: 4070 b73d 5db6 cfbd eb2a 10bb 7f45 853e
000002d0: 0d88 e8be f93e 69bd 6640 ad3e 5979 d33c
000002e0: de18 12be d8b4 5f3e a0aa 1d3f 734c a73e
000002f0: 82bc af3d 4cb9 533e 6f1b 82be 1b9b 6d3e
00000300: e062 cb3d 5ce9 193e 7bea b33e d56f 0d3e
00000310: d66c 2cbe d129 063e ddf9 b23d eb1a c23c
00000320: 3c18 143f f667 b13d 31e9 46be 5e83 d2be
00000330: 92a9 32be 5b09 e0be bd65 623d 5bb9 bf3e
00000340: ffe9 d2bd 48f1 19be dc86 a4bd 9c60 373f
00000350: 08f9 2dbe 1c08 343e 32ec 903e d4b3 6c3e
00000360: 4f34 0bbe bfd8 4e3e 2f35 05bf 94d0 c6bd
00000370: d593 37be a252 773e 8c4d 893e a8cb 06be
00000380: 465a 61be ff05 053f c8b4 c3bd 4f80 41bc
00000390: 52af 18bf 7c6a 413e 0fc1 73bd 7432 24be
000003a0: ebda 333e eadb 473e da8b dabd e232 63be
000003b0: 8d59 d0ba 8a4e 9e3e a39b 943e bb64 cfbe
000003c0: ea56 ba3e 9f52 0cbf 8c9d a4be ebc2 34bd
000003d0: 6ef8 fabe 36f9 12be 9260 8a3d e832 02be
000003e0: 88df 2abe dc80 023f 0c6d 59bc f2b0 71be
000003f0: fd4c c4be f3a3 b33e eb5c f8be cc7a ba3c

bias f4 [64]
-0.073243305 -0.028152091 0.007976761 -0.03335144 0.046005435 0.0037061356 0.0 0.019199608
-0.029295044 0.0038792726 0.0 0.0 -0.0050921445 0.0013321509 0.01148139 0.008396261
-0.019128514 -0.03112076 0.053772233 0.011616268 -0.016597407 0.015831038 0.0040281727 -0.009816656
-0.004406713 0.0 0.0 -0.04623372 0.0 0.0 -5.5429995e-05 -0.022791825
-0.004285852 4.0413637e-05 -0.0015445797 0.0 -0.0043267645 0.0 0.005846798 0.006473236
0.0 0.011786964 1.6765213e-06 -0.0023657386 0.0 0.023548722 0.055081476 0.0
0.0026179848 0.0 -0.009144173 0.0 0.0 0.008840381 0.024738267 0.013550852
0.0 0.007334106 -0.0045229634 -0.0006577756 0.0018210213 -0.002879004 -0.00028736488 0.0413401
00000000: 9600 96bd 379f e6bc f6b0 023c 859b 08bd
00000010: 3270 3c3d a3e2 723b 0000 0000 7f48 9d3c
00000020: 29fc efbc 653b 7e3b 0000 0000 0000 0000
00000030: 01dc a6bb 919b ae3a 711c 3c3c 7990 093c
00000040: 67b3 9cbc f7f0 febc 4640 5c3d 2952 3e3c
00000050: 49f7 87bc 18b0 813c c3fe 833b 0ad6 20bc
00000060: 3066 90bb 0000 0000 0000 0000 925f 3dbd
00000070: 0000 0000 0000 0000 817d 68b8 ecb5 babc
00000080: 5570 8cbb d081 2938 7f73 caba 0000 0000
00000090: 88c7 8dbb 0000 0000 7f96 bf3b 701d d43b
000000a0: 0000 0000 1c1e 413c d504 e135 820a 1bbb
000000b0: 0000 0000 40e9 c03c 1d9d 613d 0000 0000
000000c0: 7f92 2b3b 0000 0000 71d1 15bc 0000 0000
000000d0: 0000 0000 3fd7 103c e8a7 ca3c 6504 5e3c
000000e0: 0000 0000 f152 f03b 5e35 94bb 936e 2cba
000000f0: 56af ee3a acad 3cbb 76a9 96b9 3d54 293d

weight f4 [256, 64]
0.1018465 -0.14200073 0.017441617 0.1026719 0.05480684 0.10391333 0.0362285 0.035938527
0.13308084 0.040867157 0.01909025 0.24048443 -0.030829882 0.07107655 0.13282298 -0.08045838
0.103319265 -0.15515238 -0.048939463 0.019548295 -0.07118846 0.047159757 0.06892393 -0.03514041
-0.0334971 0.34189537 -0.12558143 0.13106565 0.07766784 -0.13034405 -0.04429605 -0.09301001
0.30146575 -0.059430853 0.042194985 0.08382822 -0.040070027 -0.116491415 0.048549794 0.19322237
0.091607295 0.14315708 -0.17897011 0.28284883 -0.0691435 -0.13876042 -0.05358001 0.08436509
0.19135466 -0.1892419 -0.05996017 -0.20745324 0.016537864 -0.07392921 -0.10441928 0.13854456
0.14674325 -0.16398545 0.21483119 -0.12655951 0.07323836 -0.170791 0.1015783 -0.088924736
0.012480489 -0.034546737 -0.02666142 0.1875322 0.103174694 -0.07744793 0.1221386 0.1364492
-0.10376066 0.007480539 0.0042244536 -0.12999295 0.009667142 -0.14062788 -0.24357973 0.19781812
-0.23495886 -0.041644048 -0.13238336 0.107382394 -0.060097 0.19597761 0.14371596 0.13094515
0.11922012 -0.048333883 -0.0411826 -0.18160444 0.08536605 0.020417888 0.008503986 0.12671441
0.21330696 0.0771788 -0.08618387 0.42464635 -0.081947416 -0.067377664 -0.15692435 -0.00837513
0.0050842916 0.03352984 0.044081397 -0.011542907 0.057751484 -0.17487887 -0.2011482 0.049207166
-0.19800197 -0.119649656 0.056153134 0.006343086 0.10164688 0.01037979 0.028885474 0.14328583
-0.24577646 0.17670529 0.18733089 -0.040583022 0.07335469 -0.1874652 -0.106045 -0.16031225
0.07384542 -0.18408951 -0.14079766 0.19424698 -0.09667504 0.12087951 0.0534549 -0.27176055
0.033612046 -0.22697832 -0.23007159 0.038756974 -0.032856375 -0.04549755 0.05532004 0.14197816
-0.047527652 0.1713524 -0.14296252 0.1069311 0.16979687 0.16154426 -0.04339665 0.33294338
-0.0036148846 0.07752902 -0.1762885 -0.2529815 0.015554839 -0.027750172 0.10277098 -0.038006805
0.1113938 -0.18724547 0.025650047 -0.17625044 -0.006145677 -0.18930028 0.21530904 -0.012446187
0.0663714 -0.1258093 0.10436902 -0.1356549 -0.13483359 -0.17040537 -0.110938296 0.045399196
0.19824941 -0.16288783 0.035814308 0.06270421 0.027817626 -0.061287157 -0.20464858 -0.15356922
0.06961284 -0.042957798 0.11465851 0.03888627 -0.16297488 0.020974346 -0.012811062 -0.130187
-0.11113372 -0.11592538 -0.04259752 0.09279575 -0.013015496 0.19099084 0.19369993 0.08433972
0.16017802 -0.09565228 -0.0057270415 0.03677978 0.066410065 -0.10523297 0.14373735 0.03293963
-0.09137168 0.065078974 -0.014134983 -0.072191454 0.002306495 0.146722 -0.017148951 0.2467087
0.020173458 0.0075285006 0.036891717 0.052477956 -0.42156285 -0.07905957 0.016819956 -0.02474382
-0.013729999 0.057292487 -0.03143431 -0.025040185 -0.14169595 0.050671663 -0.01838868 -0.1744351
0.1509889 -0.054220114 -0.09131648 -0.13709328 -0.13422486 -0.20637724 -0.028981546 0.14751482
0.1931726 0.15665305 0.00911742 0.038568247 0.2268593 -0.025110478 -0.07799769 -0.38960367
0.28103352 0.06577274 -0.0038781893 0.008607452 0.16027743 0.19429082 0.15863097 0.095257446
00000000: e694 d03d a468 11be b9e1 8e3c a545 d23d
00000010: 237d 603d 83d0 d43d 5664 143d 4734 133d
00000020: 5846 083e 5264 273d 2863 9c3c 8d41 763e
00000030: f38e fcbc 9590 913d bf02 083e 5dc7 a4bd
00000040: 0d99 d33d 44e0 1ebe bf74 48bd bf23 a03c
00000050: 41cb 91bd 972a 413d fd27 8d3d 64ef 0fbd
00000060: 4134 09bd e90c af3e 6b98 00be 1336 063e
00000070: 5110 9f3d e978 05be c66f 35bd 087c bebd
00000080: b859 9a3e c46d 73bd a6d4 2c3d 21ae ab3d
00000090: 7820 24bd 0d93 eebd 26dc 463d 16dc 453e
000000a0: 9b9c bb3d c597 123e f143 37be 90d1 903e
000000b0: 1b9b 8dbd 3617 0ebe b676 5bbd 9bc7 ac3d
000000c0: 7af2 433e a1c8 41be cc98 75bd 9f6e 54be
000000d0: 6a7a 873c 3368 97bd c7d9 d5bd a0de 0d3e
000000e0: dd43 163e cdeb 27be b5fc 5b3e d198 01be
000000f0: fefd 953d d6e3 2ebe 4908 d03d 2c1e b6bd
00000100: f77a 4c3c e180 0dbd 0d69 dabc 7108 403e
00000110: 414d d33d 059d 9ebd cd23 fa3d 57b9 0b3e
00000120: 7880 d4bd 4f1f f53b 496d 8a3b df1c 05be
00000130: ef62 1e3c c100 10be f76c 79be d590 4a3e
00000140: 0e99 70be f392 2abd 818f 07be 4deb db3d
00000150: 4628 76bd 5bae 483e 472a 133e 7c16 063e
00000160: ae29 f43d c0f9 45bd 16af 28bd 84f6 39be
00000170: 65d4 ae3d 6a43 a73c 4d54 0b3c 6cc1 013e
00000180: 246d 5a3e eb0f 9e3d 2b81 b0bd 3f6b d93e
00000190: 0cd4 a7bd 4dfd 89bd c7b0 20be d737 09bc
000001a0: 219a a63b 9656 093d b28e 343d 761e 3dbc
000001b0: d28c 6c3d 7213 33be cbf9 4dbe 748d 493d
000001c0: 07c1 4abe e10a f5bd d400 663d a9d9 cf3b
000001d0: 3d2c d03d ff0f 2a3c 3ba1 ec3c 85b9 123e
000001e0: d3ac 7bbe 3bf2 343e abd3 3f3e 623a 26bd
000001f0: fc3a 963d e1f6 3fbe 1f2e d9bd e528 24be
00000200: 443c 973d f681 3cbe 432d 10be aee8 463e
00000210: 90fd c5bd ad8f f73d 86f3 5a3d 3324 8bbe
00000220: c9ac 093d 016d 68be e397 6bbe a2bf 1e3d
00000230: 6894 06bd a45b 3abd 4497 623d b962 113e
00000240: 5bac 42bd 0177 2f3e c464 12be b1fe da3d
00000250: 3bdf 2d3e dc6b 253e b0c0 31bd 8e77 aa3e
00000260: b3e7 6cbb 89c7 9e3d f984 34be cb86 81be
00000270: b9d9 7e3c 5454 e3bc 9779 d23d 06ad 1bbd
00000280: 6f22 e43d 47bd 3fbe 0c20 d23c ff7a 34be
00000290: ad61 c9bb efd7 41be f979 5c3e 18eb 4bbc
000002a0: bbed 873d 27d4 00be 6dbf d53d 1ee9 0abe
000002b0: d111 0abe bf7e 2ebe 9e33 e3bd 82f4 393d
000002c0: e501 4b3e 11cc 26be 06b2 123d 116b 803d
000002d0: cae1 e33c 3e08 7bbd 668f 51be 4041 1dbe
000002e0: 2d91 8e3d 84f4 2fbd 15d2 ea3d 3647 1f3d
000002f0: e3e2 26be 64d2 ab3c 7de5 51bc be4f 05be
00000300: 139a e3bd 496a edbd bd7a 2ebd b30b be3d
00000310: f23e 55bc 1a93 433e 4659 463e 4eba ac3d
00000320: b505 243e 58e5 c3bd e8a9 bbbb 65a6 163d
00000330: 0002 883d 6284 d7bd e22f 133e b5eb 063d
00000340: 1321 bbbd 2048 853d 6a96 67bc 1dd9 93bd
00000350: 9128 173b 4b3e 163e f57b 8cbc 35a1 7c3e
00000360: cf42 a53c a4b1 f63b c51b 173d 20f3 563d
00000370: 16d7 d7be fce9 a1bd 01ca 893c 8db3 cabc
00000380: caf3 60bc 87ab 6a3d 43c1 00bd 1321 cdbc
00000390: be18 11be 178d 4f3d dba3 96bc 1d9f 32be
000003a0: d69c 1a3e e915 5ebd 2204 bbbd 2e62 0cbe
000003b0: 3e72 09be 8e54 53be b56a edbc 200e 173e
000003c0: 0acf 453e a869 203e 3b61 153c bdf9 1d3d
000003d0: ce4d 683e 7db4 cdbc 41bd 9fbd 227a c7be
000003e0: a0e3 8f3e dcb3 863d 3829 7ebb 4506 0d3c
000003f0: c41f 243e 2cf4 463e 2870 223e 5616 c33d

bias f4 [256]
-0.0053354404 -0.016190961 -0.027653698 0.01567056 -0.0026294598 0.005525413 0.0056193415 0.018139135
0.013562941 0.0010884454 -0.013501408 -0.005048594 0.014212914 -0.00035083143 -0.02199886 0.008171313
0.010464476 -0.0027644096 0.012398444 0.009577072 0.02198334 -0.016936973 0.011171539 -0.019005938
-0.00412696 -0.014607174 0.0037977297 0.002726573 0.012619882 0.0053141653 -0.0029578337 0.022274882
0.008371507 0.008294885 0.017861517 0.0049330518 -0.0010573658 -0.0015847111 0.0013464387 -0.014609465
0.025041971 0.00983674 0.0076697106 -0.017750442 -0.032839198 0.013587438 0.003385694 -0.015800841
0.008505712 0.0028199418 0.0010963693 0.00070202147 -0.023258064 -0.008389398 -0.002174539 -0.0009106292
-0.011171105 0.0017373977 -0.01758101 -0.024276495 0.0030906624 -0.01927509 0.0018194937 0.011607487
-0.015347254 -0.014853447 0.00039384904 0.013485689 0.013502273 0.0061969007 -0.0053951005 0.014416104
-0.005810052 -0.010540266 0.0145386895 0.001493305 0.0007460382 -0.01070005 0.0033163824 -0.002311329
0.008958563 0.003447291 -0.0021323327 0.03178251 0.03517849 0.0069762324 0.014971398 -0.010417167
0.01061532 0.021576928 -0.016196148 0.012443999 -0.0054549444 0.003306494 -0.0031583079 -0.01938742
-0.010031018 -0.0053983945 0.00049212336 0.005177098 -0.00025879077 -0.023673771 0.006491621 0.00945793
0.009673712 0.020855442 0.003718949 -0.021566927 -0.0076494217 -0.006247158 -0.013412782 0.014734844
-0.0061517917 -0.009079649 0.02041644 -0.016599866 0.003537585 -0.033817586 0.0017487367 0.0011326896
-0.0008796204 -0.0053931233 -0.008914867 0.0075116227 -0.0062875883 0.0042939475 -0.027011143 0.026088212
0.017694423 0.005066193 0.00038588568 -0.017099865 -0.0030748576 -0.0075154807 -0.030237734 -0.005807064
0.010334865 0.0062594605 -0.0046694567 0.014778404 0.012868602 0.00245347 -0.002226192 0.012850151
-0.0031167476 -0.0009900241 0.0069018933 0.0030673295 0.018591793 0.01879368 0.0026625947 -0.0056101084
-0.014823656 0.021098 -0.016213378 -0.008698799 0.004632737 -0.0036431665 0.0036585259 -0.0025684705
0.0061264485 -0.0075832056 -0.0072528087 -0.0042035095 0.03161312 0.01583051 0.009127156 -0.016193254
-0.0062930067 -0.008865787 -0.0056012482 0.012613802 0.018869665 -0.01381075 0.010687018 -0.00028959184
-0.00065516605 -0.00596895 0.0002460592 0.008776323 0.010909583 0.020212406 0.0050616916 0.018852465
0.021693349 0.015221658 -0.011744765 -0.013895938 0.0073265997 0.007888639 -0.010359434 0.0033396173
-0.015855808 -0.0077433293 -0.01685669 -0.015216789 0.014002757 0.016743077 0.0014429905 0.010776177
-0.042829376 0.008937304 0.0313015 -0.013750339 0.00825055 -0.017930541 0.01015483 -0.005099696
0.0086821625 -0.016620936 -0.010371318 0.005508305 -0.021120615 0.01650141 -0.016239144 0.005720379
-0.023078755 0.004686066 -0.014756411 0.011646535 0.015108384 0.0140481675 -0.0108067505 -0.009767649
0.027056465 0.016708674 0.003810594 -0.0075124125 0.00024527457 -0.007253652 0.013526829 0.0015110343
0.004181094 0.009426498 0.013547522 0.020174555 -0.0052497154 -0.002352803 0.0090044495 0.010639031
-0.01528124 0.020371962 -0.017616706 0.02778124 0.0012678286 -0.007901046 0.010223326 0.0064279004
-0.0021028048 -0.028487006 0.012838875 -0.0117140515 -0.008348769 0.0026195953 -0.003894724 -0.01468936
00000000: ebd4 aebb e8a2 84bc 028a e2bc 8c5f 803c
00000010: 0453 2cbb 860e b53b 7422 b83b 8698 943c
00000020: 1937 5e3c 2baa 8e3a 0235 5dbc ad6e a5bb
00000030: 48dd 683c ccef b7b9 f436 b4bc f9e0 053c
00000040: 3273 2b3c 192b 35bb d822 4b3c 27e9 1c3c
00000050: 6816 b43c 68bf 8abc d508 373c 57b2 9bbc
00000060: 733b 87bb ee52 6fbc 55e3 783b 4eb0 323b
00000070: 9fc3 4e3c 7322 ae3b 37d8 41bb d079 b63c
00000080: a528 093c 45e7 073c 5152 923c 70a5 a13b
00000090: 4f97 8aba 15b6 cfba fc7a b03a 8a5c 6fbc
000000a0: d224 cd3c 472a 213c 3252 fb3b 6069 91bc
000000b0: 6582 06bd d89d 5e3c 85e2 5d3b c470 81bc
000000c0: 8b5b 0b3c c6ce 383b 0db4 8f3a dd07 383a
000000d0: b287 bebc b073 09bc b682 0ebb 4bb7 6eba
000000e0: 0307 37bc 65b9 e33a 0d06 90bc 80df c6bc
000000f0: b68c 4a3b cbe6 9dbc 147c ee3a 542d 3e3c
00000100: 0d73 7bbc df5b 73bc 867d ce39 14f3 5c3c
00000110: a338 5d3c 5f0f cb3b 62c9 b0bb 8631 6c3c
00000120: 4062 bebb 14b1 2cbc af33 6e3c 00bb c33a
00000130: c791 433a 434f 2fbc aa57 593b aa79 17bb
00000140: f0c6 123c f2eb 613b 9bbe 0bbb 612e 023d
00000150: 5217 103d e198 e43b 984a 753c c4ac 2abc
00000160: e1eb 2d3c 19c2 b03c c9ad 84bc eae1 4b3c
00000170: 64bf b2bb c4b1 583b 9dfb 4ebb 5ed2 9ebc
00000180: 2459 24bc 04e5 b0bb d701 013a a5a4 a93b
00000190: 4fae 87b9 7fef c1bc aab7 d43b 6ff5 1a3c
000001a0: 7d7e 1e3c 08d9 aa3c 9cb9 733b 20ad b0bc
000001b0: 00a8 fabb f6b4 ccbb 49c1 5bbc 6a6a 713c
000001c0: f894 c9bb cfc2 14bc 6140 a73c 71fc 87bc
000001d0: d4d6 673b 4f84 0abd de35 e53a c276 943a
000001e0: 5396 66ba ccb8 b0bb aa0f 12bc 0f24 f63b
000001f0: 1d08 cebb 3eb4 8c3b 7946 ddbc f2b6 d53c
00000200: e5f3 903c 4f02 a63b b350 ca39 0415 8cbc
00000210: 8d83 49bb 6c44 f6bb 20b5 f7bc 2f49 bebb
00000220: 9153 293c 291c cd3b 3e02 99bb 1e21 723c
00000230: d4d6 523c 65ca 203b 4ee5 11bb 7189 523c
00000240: 5942 4cbb b2c3 81ba 4729 e23b 4005 493b
00000250: d14d 983c 34f5 993c ed7e 2e3b 00d5 b7bb
00000260: ebde 72bc b7d5 ac3c ebd1 84bc 6885 0ebc
00000270: 37ce 973b 31c2 6ebb e1c3 6f3b c953 28bb
00000280: 60c0 c83b 8a7c f8bb f8a8 edbb 98bd 89bb
00000290: c27c 013d fcae 813c 118a 153c b7a7 84bc
000002a0: 9135 cebb ce41 11bc ad8a b7bb 1faa 4e3c
000002b0: 8e94 9a3c 7c46 62bc 9a18 2f3c 5cd4 97b9
000002c0: 73bf 2bba 2f97 c3bb 8201 8139 91ca 0f3c
000002d0: 1cbe 323c 7d94 a53c 8cdc a53b 7c70 9a3c
000002e0: 40b6 b13c 4364 793c 1d6d 40bc caab 63bc
000002f0: f913 f03b 5a3f 013c 9eba 29bc 7bdd 5a3b
00000300: 0ae4 81bc c1bb fdbb 0b17 8abc d74f 79bc
00000310: d26b 653c c728 893c ba22 bd3a 908e 303c
00000320: db6d 2fbd c56d 123c 0036 003d 1a49 61bc
00000330: 512d 073c 12e3 92bc 7260 263c 5a1b a7bb
00000340: a13f 0e3c a128 88bc 76ec 29bc 037f b43b
00000350: 2405 adbc f72d 873c f407 85bc 0472 bb3b
00000360: a80f bdbc 928d 993b e0c4 71bc 1cd1 3e3c
00000370: 2889 773c 492a 663c cc0e 31bc 7d08 20bc
00000380: 85a5 dd3c a1e0 883c 29bb 793b af2a f6bb
00000390: 3298 8039 0bb0 edbb a29f 5d3c e60d c63a
000003a0: 8f01 893b 9971 1a3c 6df6 5d3c 1c45 a53c
000003b0: ce05 acbb 7c31 1abb 6687 133c 554f 2e3c
000003c0: 2b5e 7abc 1ae3 a63c e950 90bc 7c95 e33c
000003d0: 452d a63a 6473 01bc bd7f 273c 23a1 d23b
000003e0: 36cf 09bb 955d e9bc 255a 523c 4bec 3fbc
000003f0: 46c9 08bc 84ad 2b3b a03e 7fbb a4ab 70bc

weight f4 [128, 256]
0.00063310855 -0.13380066 0.013598477 0.011772143 0.022691483 -0.03633284 0.019349836 -0.018945623
0.06433779 -0.067629315 0.029268809 -0.0071109594 -0.058935817 0.06289337 0.0065215616 0.18027985
0.021323005 0.15791766 -0.123538196 0.062105 -0.056300636 0.03849855 0.19710879 0.022023972
-0.030354958 -0.15332203 0.031421587 0.12709658 -0.07960831 0.011257724 0.10601077 0.10326666
-0.037290793 0.053114347 -0.027445553 0.022792045 0.067693874 -0.04332031 -0.05889585 -0.06222307
0.056211602 -0.070549786 -0.046862043 0.05815536 0.03584327 0.12303859 0.14872053 0.07207407
0.056133937 -0.024429943 -0.014434589 0.019181412 -0.044636432 0.0063787485 0.055962093 -0.06802605
0.040586248 0.1146084 0.03180896 0.007905621 0.052435577 -0.01772642 0.07052817 -0.0010620842
-0.015498333 0.031406436 0.054678615 -0.008770436 -0.18850897 -0.0735747 -0.032731712 0.11594196
0.0597011 -0.00021041441 0.0027327903 0.07103875 -0.0107178055 0.029395886 0.019067649 0.03847385
-0.06761247 -0.07279994 -0.046954583 -0.11693527 0.07948134 -0.025495077 -0.07148118 0.013418891
-0.006737184 0.13595738 -0.06888154 0.016553516 -0.16747515 0.061215587 0.014404765 0.10269797
0.0811442 0.030585531 -0.038921572 -0.038705263 0.019174766 0.0196716 0.010062857 -0.08817448
0.011130219 0.014454899 0.041420586 0.07707384 0.007687351 -0.026692959 0.039974958 -0.05595528
-0.0684932 0.17934123 -0.04134776 -0.058432728 -0.031850316 0.052705456 -0.0006914924 -0.034152508
-0.057801683 0.06871918 0.012465678 -0.049321167 -0.025794724 0.028014932 -0.05796683 0.0060676383
-0.003978502 0.015844636 0.02068441 0.07202066 -0.091244854 0.0677242 -0.06930882 0.08760514
-0.024389436 0.018898455 0.037885975 0.04468254 0.0031743995 -0.06549985 -0.0062536965 -0.07257795
-0.040266078 0.1800112 -0.041542597 -0.00059671514 -0.053231597 0.014663321 -0.055925947 0.064817645
0.084492266 -0.025702398 -0.011825898 0.065505 -0.011514731 0.011170221 -0.060530253 -0.043473464
0.008811742 0.03825786 0.062210295 0.014829241 -0.02033314 0.015135686 0.034761604 -0.00826903
-0.024450403 0.122954674 0.006004004 -0.11205115 0.072851695 0.07053377 0.07507032 -0.041469123
0.021148244 0.06997228 -0.02832875 -0.050311267 0.030501196 0.18278207 -0.06655894 -0.0368355
0.0863054 0.06802089 0.17785122 -0.007854432 -0.034929212 0.03860618 0.03453618 -0.00591364
0.09626439 0.10285832 -0.04588599 0.12273668 -0.045668066 0.16112702 -0.08284427 0.087006964
-0.03864958 -0.0057399534 0.0048053563 -0.010359581 0.047486447 -0.009394689 -0.012044003 0.008036731
-0.00786053 -0.03961635 -0.119008325 -0.050956566 0.006197688 0.004932494 0.013960095 0.035301372
0.040945623 0.13881637 -0.072255395 0.031823415 -0.04278008 -0.025298381 -0.05347702 -0.10026154
0.0415153 -0.0014743468 0.105720654 0.12480568 -0.0052279937 -0.021347014 0.0040292204 0.0867096
-0.044697985 -0.16848381 -0.0007908614 -0.018290484 -0.016507886 -0.007842996 0.051336884 0.045935247
-0.00219607 0.007014674 -0.0572901 -0.09059843 -0.10700047 0.012525201 -0.0786737 -0.06958926
-0.057918742 -0.048898723 -0.09554595 0.05569573 -0.0043576234 -0.107558385 0.03686975 0.0008497698
00000000: 32f7 253a 0a03 09be 25cc 5e3c f2df 403c
00000010: 7de3 b93c bed1 14bd 8c83 9e3c da33 9bbc
00000020: 88c3 833d 3d81 8abd 24c5 ef3c 0d03 e9bb
00000030: af66 71bd 3dce 803d d3b2 d53b 489b 383e
00000040: 95ad ae3c 2bb5 213e 9801 fdbd d061 7e3d
00000050: 7f9b 66bd a8b0 1d3d e3d6 493e 9e6b b43c
00000060: f6aa f8bc 7300 1dbe ecb3 003d 9b25 023e
00000070: ae09 a3bd 5172 383c 2d1c d93d 787d d33d
00000080: 3bbe 18bd 6e8e 593d 7fd5 e0bc 62b6 ba3c
00000090: 16a3 8a3d a370 31bd c63c 71bd 9edd 7ebd
000000a0: 233e 663d 687c 90bd 6af2 3fbd 5134 6e3d
000000b0: 65d0 123d a8fb fb3d 324a 183e 929b 933d
000000c0: b3ec 653d 4e21 c8bc 0e7f 6cbc 5622 9d3c
000000d0: b1d4 36bd d204 d13b 8238 653d 3e51 8bbd
000000e0: c43d 263d cfb7 ea3d 1d4a 023d 9486 013c
000000f0: b0c6 563d ff36 91bc 1371 903d a235 8bba
00000100: b8ec 7dbc 09a4 003d aff6 5f3d e0b1 0fbc
00000110: 7f08 41be 55ae 96bd b011 06bd fa72 ed3d
00000120: 2489 743d b0a2 5cb9 9d18 333b c47c 913d
00000130: bc99 2fbc a4cf f03c c233 9c3c c196 1d3d
00000140: 6878 8abd 2318 95bd 7353 40bd c27b efbd
00000150: 1dc7 a23d 0ddb d0bc ba64 92bd e8da 5b3c
00000160: 98c3 dcbb 6938 0b3e c411 8dbd 3d9b 873c
00000170: 9b7e 2bbe 32bd 7a3d f701 6c3c 5053 d23d
00000180: ee2e a63d 828e fa3c 3a6c 1fbd 6989 1ebd
00000190: 6614 9d3c 5626 a13c aede 243c d294 b4bd
000001a0: 865b 363c 3ed4 6c3c a2a8 293d e4d8 9d3d
000001b0: 2de6 fb3b 31ab dabc c8bc 233d 5d31 65bd
000001c0: 2a46 8cbd 3aa5 373e 455c 29bd 2857 6fbd
000001d0: 7a75 02bd ade1 573d 4545 35ba 80e3 0bbd
000001e0: 75c1 6cbd a4bc 8c3d d83c 4c3c fe04 4abd
000001f0: 754f d3bc 927f e53c a06e 6dbd 0ad3 c63b
00000200: 185e 82bb 9ccc 813c 5a72 a93c 917f 933d
00000210: 95de babd fcb2 8a3d c8f1 8dbd 536a b33d
00000220: 5bcc c7bc efd0 9a3c 532e 1b3d 0a05 373d
00000230: 9609 503b c924 86bd cfeb ccbb c0a3 94bd
00000240: 0bee 24bd db54 383e 9228 2abd e06c 1cba
00000250: 6009 5abd 6d3e 703c 9b12 65bd 1dbf 843d
00000260: 480a ad3d d68d d2bc 69c1 41bc 7c27 863d
00000270: 48a8 3cbc 4d03 373c 92ee 77bd 3b11 32bd
00000280: 205f 103c 46b4 1c3d 39d0 7e3d 58f6 723c
00000290: af91 a6bc abfb 773c 2f62 0e3d d37a 07bc
000002a0: 364c c8bc a9cf fb3d 3cbd c43b 137b e5bd
000002b0: 4533 953d 0274 903d 78be 993d 87db 29bd
000002c0: 153f ad3c a04d 8f3d b211 e8bc 3013 4ebd
000002d0: a5dd f93c 392b 3b3e 0e50 88bd d2e0 16bd
000002e0: e3c0 b03d 894e 8b3d a11e 363e e0af 00bc
000002f0: ef11 0fbd 8421 1e3d cf75 0d3d 35c7 c1bb
00000300: 4426 c53d 62a7 d23d f3f2 3bbd 5e5d fb3d
00000310: 700e 3bbd 7bfe 243e 42aa a9bd b530 b23d
00000320: 064f 1ebd 3816 bcbb 4076 9d3b 3bbb 29bc
00000330: 2681 423d 2fec 19bc 3654 45bc 7eac 033c
00000340: 74c9 00bc c144 22bd a3ba f3bd d5b7 50bd
00000350: fa15 cb3b c2a0 a13b e2b8 643c 2c98 103d
00000360: 99b6 273d e125 0e3e a3fa 93bd 4559 023d
00000370: 2a3a 2fbd 8d3e cfbc b80a 5bbd ec55 cdbd
00000380: f20b 2a3d df3e c1ba 1284 d83d 1f9a ff3d
00000390: 974f abbb efdf aebc 8d07 843b ce94 b13d
000003a0: 3c15 37bd 0587 2cbe cf51 4fba edd5 95bc
000003b0: 8c3b 87bc e97f 00bc a046 523d 9926 3c3d
000003c0: f1eb 0fbb 5adb e53b 06a9 6abd ab8b b9bd
000003d0: 1023 dbbd 8036 4d3c ad1f a1bd d084 8ebd
000003e0: 343c 6dbd 074a 48bd 98ad c3bd 3521 643d
000003f0: 65ca 8ebb 9247 dcbd bc04 173d 16c3 5e3a

bias f4 [128]
0.003216173 0.012978359 -0.0249096 0.00801225 0.0006063889 0.0022692585 -0.0043814895 0.014928253
-0.00969626 0.030392071 -0.020298518 0.013197504 0.009940766 -0.0075528375 -0.020905685 -0.027935425
-0.011123126 -0.009286427 -0.005152763 0.040682904 -0.06446222 0.0044723 0.0026558402 -0.0031995738
-0.035741042 -0.008200828 0.028975477 0.019295245 0.00734647 0.006099236 -0.004422657 0.022455404
-0.008152243 -0.067406654 -0.0044243964 0.019017698 0.05490827 0.0022820989 -0.0181115 0.026973296
0.02146883 -0.00069557125 -0.0014854255 -0.010620274 0.017184516 0.015405529 0.00586755 0.004200611
0.008459801 -0.0045979414 0.016701894 -0.032857556 0.023386212 0.0006032265 0.00873163 0.0151581345
-0.020141361 0.00854805 -0.029007569 0.0021447279 0.026509903 0.014285496 -0.016760042 -0.0056493613
-0.026187636 0.026152276 0.01698565 -0.004188441 0.017959667 0.0009405802 -0.0032201111 -0.031220589
-0.0077329404 0.007913127 0.00014341842 -0.034352984 0.009677734 0.0027984558 0.039356593 -0.049794346
0.005460192 0.0039918036 -0.006780026 0.052404825 0.023025442 -0.037170734 0.0046448135 -0.03245141
-0.004242318 -0.048004776 -0.027365817 -0.038677525 -0.02431673 -0.016782207 -0.008907618 0.001102839
0.008832137 0.00096664863 -0.02661982 0.006470702 -0.0022797054 0.019950552 -0.042168412 0.016326442
-0.010491879 0.0060395 -0.021053072 -0.017174996 -0.050439812 -0.023919074 0.01144926 0.0002949045
-0.013309535 -0.010390357 -0.0059509473 -0.004944236 0.002897454 0.0050013624 -0.029707305 -0.011044788
-0.0005989227 0.0056275763 0.011104745 -0.0005518376 0.0025907103 0.014000033 -0.006127598 -0.021469485
00000000: 6ec6 523b 2fa3 543c 380f ccbc d045 033c
00000010: 12f6 1e3a d7b7 143b 9992 8fbb a295 743c
00000020: 10dd 1ebc cbf8 f83c 1449 a6bc 583a 583c
00000030: 98de 223c cb7d f7bb 6642 abbc d5d8 e4bc
00000040: c63d 36bc 1926 18bc 82d8 a8bb 1ea3 263d
00000050: c504 84bd 5f8c 923b 9b0d 2e3b f1af 51bb
00000060: 3365 12bd c45c 06bc fb5d ed3c 1011 9e3c
00000070: a8ba f03b 1adc c73b f0eb 90bb 65f4 b73c
00000080: fc90 05bc 800c 8abd 87fa 90bb 01cb 9b3c
00000090: 7ee7 603d 448f 153b 925e 94bc 1af7 dc3c
000000a0: 66df af3c ff56 36ba 9cb2 c2ba a800 2ebc
000000b0: 8bc6 8c3c 7967 7c3c 9444 c03b 47a5 893b
000000c0: fa9a 0a3c 54aa 96bb 69d2 883c a595 06bd
000000d0: 7194 bf3c d821 1e3a 1c0f 0f3c d359 783c
000000e0: 7fff a4bc 1f0d 0c3c 48a1 edbc 908e 0c3b
000000f0: 4c2b d93c b70d 6a3c 5b4c 89bc 471e b9bb
00000100: 7487 d6bc 4c3d d63c 7d25 8b3c 313f 89bb
00000110: 2720 933c 4591 763a 8008 53bb 52c2 ffbc
00000120: 9b64 fdbb 0fa6 013c 9762 1639 b7b5 0cbd
00000130: 5c8f 1e3c 4c66 373b 6134 213d 28f5 4bbd
00000140: 69eb b23b adcd 823b fb2a debb 71a6 563d
00000150: da9f bc3c 5740 18bd 8533 983b c5eb 04bd
00000160: 2503 8bbb a8a0 44bd 472e e0bc 536c 1ebd
00000170: e133 c7bc d77a 89bc 42f1 11bc 238d 903a
00000180: abb4 103c b166 7d3a cf11 dabc 2f08 d43b
00000190: 1c67 15bb 576f a33c c9b8 2cbd 08bf 853c
000001a0: 21e6 2bbc ffe6 c53b 7e77 acbc 94b2 8cbc
000001b0: fa99 4ebd eff1 c3bc ad95 3b3c 699d 9a39
000001c0: 3c10 5abc 513c 2abc 2a00 c3bb 4203 a2bb
000001d0: 36e3 3d3b 78e2 a33b bc5c f3bc 33f5 34bc
000001e0: 0601 1dba 8867 b83b adf0 353c 32a9 10ba
000001f0: e8c8 293b 6560 653c 05ca c8bb c6e0 afbc

weight f4 [14, 128]
-0.0002902282 -0.018827088 -0.0021613794 0.0018168761 0.012589438 0.0009513573 -0.02291022 0.0023442104
0.0030517585 -0.06376709 0.0043618423 0.032629326 -0.00262962 0.008876532 -0.0023990725 -0.00011498941
0.00016264465 -0.0035600767 0.04684587 -0.047838822 0.018992253 -0.026108008 0.0021276693 -0.011603242
0.05318092 0.0042130114 -0.015601491 -0.00050587085 -0.06362514 -0.0062770937 0.010874 -0.04082286
0.012323339 0.043358974 0.007548347 -0.025815558 -0.02264529 -0.005502004 -0.0024112524 -0.051389728
-0.009095673 0.0016980852 0.00045301192 -0.037071265 -0.006358215 -0.021384977 -0.0015503302 -0.0010440722
0.0098363245 0.008532764 0.0007263542 0.04097372 -0.008074664 0.0124513125 0.004409847 0.00802559
-0.0040355977 0.029831408 0.039035875 -0.011293601 -0.007731994 -0.014610788 -0.019977896 0.0008931658
-0.011672182 -0.024779491 0.01211986 -0.016389564 -0.040952466 -0.0026595723 -0.00020299156 0.030661616
-0.0011720881 -0.0079922145 0.033831377 0.036098816 0.04406325 0.0004345342 -0.024110407 0.037228294
0.045725174 -0.015330817 -0.0061952877 -0.027704393 -0.008645797 0.02114332 0.013458173 0.03734455
0.0028925573 0.017211763 0.014382443 0.053044517 0.005683931 0.02554492 0.0646402 -0.020848906
0.011243517 -0.00956573 0.010579227 0.0025823065 -0.0033577448 -0.03373037 0.021973643 0.012662038
0.0059561464 0.0021492424 0.0022031819 0.006949626 0.054185633 0.027043212 0.023290627 -0.06894224
0.010734124 0.011952428 0.028415935 -0.006512573 -0.0031638641 -0.0072511425 -0.0017311495 -0.008269598
0.0045952834 0.009976789 0.013136723 0.061336707 -0.0007329582 -0.012038952 0.015585852 0.042638447
-0.003061965 -0.008670214 -0.006349337 -0.018362049 0.015036643 -0.015976852 -0.043161407 0.045689818
-0.040154282 -0.013994334 -0.024114402 0.0347677 -0.03800894 0.013348946 -0.019376177 -0.04918173
-0.028989622 -0.023988703 0.0076899664 -0.020285502 0.00046093288 0.0044637714 -0.00820116 -0.003122163
-0.030445404 -0.011739246 -0.0029874719 0.024082068 0.013472083 -0.0134068 -0.0180655 -0.027685048
0.0068005454 -0.024772594 0.011255682 -0.02410497 0.01803874 0.016396912 -0.032996487 0.011357428
0.0480708 0.007174804 0.04430817 -0.023845294 0.032237187 -0.03949671 0.026721712 0.015280448
0.048563253 -0.033797514 0.09863141 0.025500212 0.036207214 -0.0141277015 -0.006976028 -0.0063798022
-0.039230462 -0.02838293 -0.007876374 -0.028546732 0.012865019 -0.009922175 -0.026911777 0.039976105
-0.039995264 0.06032211 -0.006257109 0.06590247 0.0021415357 -0.0508349 0.0071719815 -0.008877224
-0.016000776 -0.032541145 0.029549466 0.010799135 0.008036951 0.011831639 0.015948262 -0.026808778
0.020173056 -0.020793948 -0.03958527 -0.00027737406 0.028345801 0.022697482 0.035906 -0.04425073
0.0053827735 0.014541511 -0.013868057 -0.074675575 -0.04214461 0.014401696 0.028834166 -0.07700451
0.016407497 -0.026252596 -0.020991473 -0.020306626 0.030969959 0.03722868 -0.008419031 0.015310676
-0.025259063 0.03728847 0.016604768 -0.0053465506 -0.03075366 -0.0011831158 0.032473728 -0.009613727
0.020472914 -0.02123102 -0.09119313 0.034279913 0.042469468 0.0022712327 -0.0343529 0.027186396
-0.0027712802 -0.06096615 0.03841659 -0.0031373312 0.005914384 -0.040867385 0.008869902 -0.0017553574
00000000: c529 98b9 443b 9abc eea5 0dbb 3f24 ee3a
00000010: ee43 4e3c 8264 793a 37ae bbbc 53a1 193b
00000020: 0300 483b 5298 82bd c9ed 8e3b 54a6 053d
00000030: b455 2cbb e06e 113c c239 1dbb 7826 f1b8
00000040: 978b 2a39 2d50 69bb 74e1 3f3d a4f2 43bd
00000050: a495 9b3c 76e0 d5bc 5e70 0b3b 861b 3ebc
00000060: 3dd4 593d 4d0d 8a3b 659d 7fbc 6b9c 04ba
00000070: e64d 82bd 14b0 cdbb dd28 323c df35 27bd
00000080: d4e7 493c 2e99 313d 2058 f73b 267b d3bc
00000090: 9d82 b9bc 284a b4bb 1a06 1ebb 097e 52bd
000000a0: 0506 15bc 4992 de3a 3b82 ed39 0ad8 17bd
000000b0: 9358 d0bb 8c2f afbc 7334 cbba 40d9 88ba
000000c0: 8928 213c 02cd 0b3c ce68 3e3a 0fd4 273d
000000d0: 984b 04bc 9700 4c3c 7a80 903b c47d 033c
000000e0: 0c3d 84bb ff60 f43c 15e4 1f3d cc08 39bc
000000f0: ab5c fdbb 1662 6fbc afa8 a3bc 5823 6a3a
00000100: ae3c 3fbc 5cfe cabc 6192 463c 6843 86bc
00000110: c6bd 27bd 384c 2ebb 22da 54b9 122e fb3c
00000120: c0a0 99ba c7f1 02bc c592 0a3d 5adc 133d
00000130: ab7b 343d 31d2 e339 3083 c5bc b27c 183d
00000140: 524a 3b3d 1b2e 7bbc d701 cbbb 53f4 e2bc
00000150: 1aa7 0dbc c134 ad3c ab7f 5c3c 99f6 183d
00000160: 0f91 3d3b afff 8c3c 57a4 6b3c 3545 593d
00000170: 4540 ba3b 9443 d13c 1562 843d 53cb aabc
00000180: ba36 383c 94b9 1cbc 7e54 2d3c ea3b 293b
00000190: 9c0d 5cbb db28 0abd 1202 b43c 7074 4f3c
000001a0: c72b c33b 4eda 0c3b 4263 103b b0b9 e33b
000001b0: c1f1 5d3d ba89 dd3c fccb be3c 9731 8dbd
000001c0: 2ede 2f3c 1ed4 433c 89c8 e83c 6c67 d5bb
000001d0: d558 4fbb fe9a edbb bde7 e2ba 357d 07bc
000001e0: 0894 963b b075 233c 693b 573c 333c 7b3d
000001f0: fe23 40ba 063f 45bc cd5b 7f3c a7a5 2e3d
00000200: 40ab 48bb 830d 0ebc 190e d0bb 026c 96bc
00000210: 405c 763c e3e1 82bc 04ca 30bd 3f25 3b3d
00000220: d178 24bd 7e48 65bc 918b c5bc 9368 0e3d
00000230: 43af 1bbd 8ab5 5a3c caba 9ebc c872 49bd
00000240: a57b edbc f583 c4bc 1dfc fb3b c82d a6bc
00000250: 5da9 f139 d444 923b 285e 06bc 349d 4cbb
00000260: a468 f9bc f755 40bc 76c9 43bb c247 c53c
00000270: 03ba 5c3c 32a8 5bbc 19fe 93bc c1cb e2bc
00000280: 1cd7 de3b e5ef cabc c169 383c c977 c5bc
00000290: fbc5 933c d152 863c 5327 07bd 8114 3a3c
000002a0: e3e5 443d 9e1a eb3b 7c7c 353d 3557 c3bc
000002b0: 240b 043d 4dc7 21bd 7ee7 da3c d85a 7a3c
000002c0: 43ea 463d 436f 0abd 44ff c93d d2e5 d03c
000002d0: 044e 143d e077 67bc 2a97 e4bb a90d d1bb
000002e0: 1fb0 20bd 5283 e8bc e80b 01bc d6da e9bc
000002f0: cdc7 523c 9e90 22bc 1676 dcbc fcbd 233d
00000300: 13d2 23bd 5114 773d 6f08 cdbb e0f7 863d
00000310: 0259 0c3b 4238 50bd f102 eb3b c771 11bc
00000320: 0f14 83bc dd49 05bd b911 f23c dbee 303c
00000330: 6aad 033c 7ed9 413c eea5 823c 159e dbbc
00000340: f741 a53c 1258 aabc 2a24 22bd 846c 91b9
00000350: 7435 e83c 12f0 b93c 2b12 133d 4140 35bd
00000360: fa61 b03b 853f 6e3c d936 63bc 82ef 98bd
00000370: d49f 2cbd 17f5 6b3c a135 ec3c 8ab4 9dbd
00000380: 0469 863c af0f d7bc 4ff6 abbc 155a a6bc
00000390: b6b4 fd3c 1a7d 183d faef 09bc a1d9 7a3c
000003a0: 18ec cebc cbbb 183d b906 883c 1e32 afbb
000003b0: 19ef fbbc c712 9bba 2c03 053d e582 1dbc
000003c0: d0b6 a73c adec adbc 77c3 babd 1869 0c3d
000003d0: 77f4 2d3d f6d8 143b a0b5 0cbd 01b6 de3c
000003e0: 5e9e 35bb a4b7 79bd b75a 1d3d af9b 4dbb
000003f0: 73cd c13b 8f64 27bd 1153 113c 0514 e6ba

bias f4 [14]
-0.036746524 0.009887193 -0.03178694 0.012332164 0.013394375 0.033142358 -0.0103541445 -0.06486857
-0.0011697148 -0.03938818 -0.005684393 -0.0149335 0.0019040712 0.012894446
00000000: 8683 16bd e5fd 213c 0633 02bd d80c 4a3c
00000010: 1574 5b3c 48c0 073d 6ea4 29bc d0d9 84bd
00000020: 1e51 99ba 8055 21bd 2544 babb a4ab 74bc
00000030: 0792 f93a 3a43 533c

weight f4 [64, 13]
-0.36206505 0.6593634 0.10449276 0.1770155 0.017898295 -0.2658844 0.22098835 -0.07566236
0.0054715383 -0.12994753 0.31514186 -0.38678604 0.022044387 0.7306136 -0.23241605 0.3890551
0.06395501 0.116577044 0.15704043 -0.056861207 0.20029925 -0.15070096 -0.27203965 0.07595366
0.25257438 0.094065726 0.30756283 -0.22655937 0.7450539 0.019956604 0.09876676 0.027981397
-0.29487625 0.074770756 -0.10086878 -0.3563718 -0.016701236 0.20336983 0.12914476 -0.12649867
-0.36797634 -0.07811337 -0.19136824 -0.043967232 0.08925611 -0.5167375 -0.19583078 -0.023260918
0.16814575 -0.38177723 -0.5564255 0.08014713 -0.081246614 -0.2991445 0.3190197 -0.28400216
-0.26178026 0.19965895 0.20237923 -0.10448218 -0.071001075 0.129663 0.5007911 0.19000135
-0.47298312 0.14264967 -0.17451666 0.37893292 -0.27338436 -0.08927541 -0.38835168 0.34257355
-0.4794555 0.00868066 0.13098882 0.09502582 0.19491765 0.3975683 -0.16095878 0.48918617
-0.53897566 0.12381089 -0.177529 0.19801423 -0.3824551 0.26930976 0.08394985 0.15541278
0.21649699 -0.073557094 -0.10682159 -0.50109434 -0.0008388245 -0.1700102 -0.22890872 0.4431763
0.04349012 0.4017458 0.3768083 0.38967702 -0.42106795 -0.25211516 -0.85041875 -0.41343167
-0.2006 0.30902493 -0.35842788 0.2215049 0.052772034 0.3294217 0.32834622 0.33855978
-0.17514065 0.48625225 -0.20592745 0.10769311 0.21253715 -0.038775194 -0.44974354 0.15953755
-0.48492652 0.17755565 0.017871432 0.45240915 0.26811206 -0.19165102 -0.32004973 0.3261362
-0.09119284 -0.05457267 -0.10480078 -0.38481417 0.07869527 -0.23333357 0.16867895 0.26811936
0.03397465 0.023602413 -0.5816856 0.0082661435 -0.594537 -0.6977019 0.07018598 0.4166542
0.0011346559 -0.09879952 -0.21410221 0.06017909 0.21017335 1.3902681 -0.010792405 0.53023946
-0.00478807 -0.05859912 -1.1956768 0.01725681 0.113920346 -0.5109596 0.13701102 -0.014331394
-0.051971864 -0.30768108 -0.3228139 0.04947198 0.31028175 0.00968968 0.5107891 -0.37602413
-0.06535786 -0.043338127 0.13458341 -0.231277 -0.42416817 0.22592722 -0.6094781 -0.10229413
-0.197857 0.19311789 0.03548792 -0.34100398 -0.3248483 -0.112193234 -0.27530068 0.008779351
-0.44113111 0.099874444 -0.31940296 0.06870978 0.13830246 -0.36255398 -0.37359387 0.024627753
0.06054307 -0.2612821 -0.5012848 0.39779812 -0.1526075 0.3295383 0.11996617 -0.15483117
0.15089583 -0.37864798 -0.28584382 -0.4090369 -0.4291939 -0.003916837 0.2686969 0.0113699315
-0.08960819 0.23510398 -0.03038169 0.3419387 -0.24103823 -0.04627541 -0.18210158 0.4537029
-0.045725387 0.508943 0.44939426 -0.12236618 -0.15630458 0.101765566 0.024184993 0.2677678
0.18716452 -0.42158034 -0.032923155 -0.5071433 -0.55710304 0.105559334 -0.11960759 0.33118102
0.28896958 -0.18187253 -0.019234093 0.44806376 -0.00042799592 -0.10477994 0.0994439 -0.038698193
-0.59658223 0.101351656 -0.019328069 0.2945866 0.3552959 0.4360716 0.08302221 0.28338984
0.26388085 -0.03979681 0.1048674 -0.4529429 0.055538964 -0.44862866 -0.024248168 -0.026127607
00000000: 9760 b9be 0acc 283f 4d00 d63d 8d43 353e
00000010: 729f 923c 0022 88be c54a 623e def4 9abd
00000020: 974a b33b f710 05be 465a a13e d208 c6be
00000030: 6e96 b43c 7e09 3b3f 79fe 6dbe 3b32 c73e
00000040: d8fa 823d f2bf ee3d 35cf 203e 4ce7 68bd
00000050: 3f1b 4d3e 5a51 1abe c848 8bbe 988d 9b3d
00000060: 6e51 813e 88a5 c03d e078 9d3e 2eff 67be
00000070: dabb 3e3f 087c a33c 3a46 ca3d 3e39 e53c
00000080: 05fa 96be 6921 993d 4a94 cebd 5d76 b6be
00000090: 08d1 88bc 2e40 503e 863e 043e de88 01be
000000a0: 6567 bcbe e7f9 9fbd 09f6 43be fc16 34bd
000000b0: e8cb b63d e948 04bf dd87 48be ae8d bebc
000000c0: 662e 2c3e 4e78 c3be e771 0ebf 2e24 a43d
000000d0: a064 a6bd 7829 99be 8d56 a33e bb68 91be
000000e0: 1008 86be 6573 4c3e 803c 4f3e c1fa d5bd
000000f0: 0369 91bd 61c6 043e d833 003f b78f 423e
00000100: d82a f2be c112 123e 7fb4 32be 7f03 c23e
00000110: 09f9 8bbe 07d6 b6bd 08d6 c6be cd65 af3e
00000120: 317b f5be 5439 0e3c ef21 063e e69c c23d
00000130: 7e98 473e 128e cb3e 61d2 24be 9c76 fa3e
00000140: 4ffa 09bf 9090 fd3d 2aca 35be 3ec4 4a3e
00000150: 28d1 c3be f8e2 893e e6ed ab3d 8724 1f3e
00000160: 63b1 5d3e 1aa5 96bd 47c5 dabd b847 00bf
00000170: 8fe4 5bba 2717 2ebe 0c67 6abe 01e8 e23e
00000180: b222 323d a0b1 cd3e 04ed c03e bf83 c73e
00000190: 3896 d7be 3d15 81be 0bb5 59bf 51ad d3be
000001a0: 166a 4dbe 8438 9e3e dc83 b7be 2ed2 623e
000001b0: 7d27 583d f6a9 a83e ff1c a83e b557 ad3e
000001c0: 1258 33be 0ef6 f83e a5de 52be 358e dc3d
000001d0: 57a3 593e bdd2 1ebd c944 e6be d05d 233e
000001e0: 4a48 f8be 26d1 353e 1c67 923c 2ca2 e73e
000001f0: fc45 893e 2a40 44be 8fdd a3be 53fb a63e
00000200: 50c3 babd 9887 5fbd cba1 d6bd 5d06 c5be
00000210: fc2a a13d ffee 6ebe 2dba 2c3e f146 893e
00000220: 0129 0b3d d959 c13c 59e9 14bf b86e 073c
00000230: 9433 18bf 979c 32bf abbd 8f3d b353 d53e
00000240: bcb8 943a 6757 cabd 9c3d 5bbe 597e 763d
00000250: af37 573e 4ef4 b13f a1d2 30bc c6bd 073f
00000260: 3ee5 9cbb a105 70bd f00b 99bf 275e 8d3c
00000270: 124f e93d 40ce 02bf 9e4c 0c3e 39ce 6abc
00000280: 73e0 54bd 6088 9dbe dd47 a5be 22a3 4a3d
00000290: 40dd 9e3e 77c1 1e3c 13c3 023f 3c86 c0be
000002a0: 57da 85bd 5283 31bd 3cd0 093e e1d3 6cbe
000002b0: 922c d9be 7759 673e c206 1cbf 967f d1bd
000002c0: 079b 4abe b2c0 453e c85b 113d 1398 aebe
000002d0: 8452 a6be 91c5 e5bd 36f4 8cbe 44d7 0f3c
000002e0: f0db e1be f98a cc3d c988 a3be b7b7 8c3d
000002f0: 299f 0d3e ada0 b9be b247 bfbe 24c0 c93c
00000300: 03fc 773d c4c6 85be 3354 00bf 32ac cb3e
00000310: 2445 1cbe 3eb9 a83e d3b0 f53d 108c 1ebe
00000320: 7084 1a3e 26de c1be 1f5a 92be 496d d1be
00000330: 4ebf dbbe cf58 80bb a492 893e f348 3a3c
00000340: 8084 b7bd 19bf 703e 06e3 f8bc 9712 af3e
00000350: bad2 76be 498b 3dbd d678 3abe bf4b e83e
00000360: 8b4a 3bbd 174a 023f 0117 e63e 1f9b fabd
00000370: 4f0e 20be 776a d03d 9b1f c63c dc18 893e
00000380: 0ea8 3f3e 61d9 d7be 6eda 06bd 25d4 01bf
00000390: 4e9e 0ebf 7e2f d83d d3f4 f4bd 8f90 a93e
000003a0: d2f3 933e cb3c 3abe d190 9dbc 9d68 e53e
000003b0: a464 e0b9 dd96 d6bd 3ea9 cb3d ff81 1ebd
000003c0: 9db9 18bf 7591 cf3d e655 9ebc 0ed4 963e
000003d0: 58e9 b53e c744 df3e 8c07 aa3d 7918 913e
000003e0: 641b 873e fb01 23bd b8c4 d63d 22e8 e7be
000003f0: d37c 633d a8b2 e5be 18a4 c6bc 9009 d6bc

bias f4 [64]
0.0 0.0 0.0 0.0 0.016471773 -0.007869902 0.013091099 0.031874713
0.003173408 -0.0033570344 -0.0033754238 0.09250025 0.0 -0.0063503333 -0.006604914 1.161381e-05
-0.0022111959 -0.027940812 8.6845785e-06 -0.035499826 0.021448385 0.0659274 0.007956214 -0.05733838
0.0105406735 0.10868862 -0.009710512 0.0 -0.008214193 0.011944665 0.09040694 0.008447495
9.546601e-06 -0.050761864 0.07152458 -0.0013069847 0.0 -0.064099915 -0.0041180565 0.0
0.06891776 -0.06342156 -0.00066503993 0.0194335 1.5846825e-05 -0.088979095 -0.053238366 0.051381174
-0.013535205 0.0013982138 0.025640376 0.0 0.0009339951 0.0 0.0 0.010089129
0.0 0.0 0.06962575 0.025603786 0.013117452 0.032067873 0.0 0.0
00000000: 0000 0000 0000 0000 0000 0000 0000 0000
00000010: d0ef 863c c3f0 00bc 0d7c 563c 0f8f 023d
00000020: f4f8 4f3b b101 5cbb 3736 5dbb c570 bd3d
00000030: 0000 0000 7516 d0bb 096e d8bb efd8 4237
00000040: b6e9 10bb 21e4 e4bc fbb3 1137 4468 11bd
00000050: 86b4 af3c f204 873d c85a 023c a6db 6abd
00000060: cab2 2c3c 2498 de3d d718 1fbc 0000 0000
00000070: d394 06bc 8eb3 433c 4627 b93d 5d67 0a3c
00000080: 572a 2037 aceb 4fbd 7b7b 923d 214f abba
00000090: 0000 0000 d146 83bd c3f0 86bb 0000 0000
000000a0: c124 8d3d 2ae3 81bd 1356 2eba 0133 9f3c
000000b0: ccee 8437 ac3a b6bd 7910 5abd 1175 523d
000000c0: c4c2 5dbc 4544 b73a c40b d23c 0000 0000
000000d0: 5ad7 743a 0000 0000 0000 0000 e04c 253c
000000e0: 0000 0000 0000 0000 f297 8e3d 08bf d13c
000000f0: 95ea 563c 9a59 033d 0000 0000 0000 0000
