src/GraspNode/models/model_button_cp_0125-1.pt (torch, 456183 bytes, 15 tensors)

weight f4 [64, 13]
000000 86 66 4f 3d 75 c2 b0 3e 6e 60 cd 3c 77 d6 e4 bd
       0.050634883 0.3452336 0.025070395 -0.111737184
000010 b2 72 cf be 88 54 be 3e f1 93 8d be 81 e6 a6 3c
       -0.40517193 0.37173867 -0.27651933 0.020373585
000020 a8 21 9f 3e 73 89 54 be 3b e2 51 3e df 47 1a be
       0.31080365 -0.20755558 0.20496456 -0.15066479
000030 0c 83 e9 be a6 cb e7 be de e9 c4 bc e0 89 b4 be
       -0.45607793 -0.4527256 -0.024037298 -0.3526144
000040 b8 c6 7c 3e cd cb 14 3e ff 1f 92 3e 19 b6 f4 3d
       0.2468518 0.14530869 0.28540036 0.11948795
000050 8a 5b 3e 3d 25 9f 1e 3f 4c e7 91 3e cd 43 96 bd
       0.046474017 0.61961585 0.28496778 -0.07337151
000060 11 95 27 bd e0 5a 57 bd f0 8f d7 bd fe 94 23 3c
       -0.040913645 -0.0525769 -0.10525501 0.009984253
000070 44 75 d6 3d 62 25 68 3e aa a8 f6 be ac ff 8e be
       0.104715854 0.2267051 -0.48175555 -0.27929437
000080 79 16 de 3d 9c d8 ef bd ed 4e 88 3e e1 65 33 be
       0.1084413 -0.11711237 0.26622716 -0.17519332
000090 1c 09 e2 bb 04 9e a9 3e 9e 3a 90 3e df f1 83 3d
       -0.0068980586 0.3312837 0.2816972 0.064426176
0000a0 08 66 07 bf 20 a7 9c 3e 62 2f cf 3e 5c bf 12 3e
       -0.5289006 0.30596256 0.40465838 0.1433081
0000b0 d2 13 26 bd 5c 62 f7 bd 20 a6 ad be 82 27 1d be
       -0.040546246 -0.120793074 -0.33915806 -0.15347102
0000c0 c9 5e 9f 3e 27 eb 17 3e a5 f2 90 be 54 97 a0 3d
       0.31127003 0.14835797 -0.28310123 0.078413635
0000d0 e2 3b 07 3f 89 c6 e4 bc b8 cb 7e 3e 34 6a 96 be
       0.5282575 -0.0279267 0.248824 -0.29377902
0000e0 6b ad a8 3c b4 17 82 be 48 d8 e6 bd e7 fc f7 3d
       0.020590505 -0.2540871 -0.11271721 0.12108784
0000f0 c3 ab 56 be 73 97 ac be 4e 1d 10 be f0 2f fe 3e
       -0.2096396 -0.33709297 -0.14073679 0.49645948
000100 11 cc 9b 3e 6f b4 8e 3e 4b 95 e2 3e 03 9a 6f be
       0.30429128 0.27872035 0.44254526 -0.23398595
000110 43 4e b5 bd 5c 5b 24 be 70 ab 1c bf ce e0 bb 3d
       -0.08852818 -0.16050476 -0.6119909 0.091737375
000120 83 08 57 bd 36 99 21 be fe f8 82 be c8 1b 12 be
       -0.05249835 -0.15781102 -0.2558059 -0.1426841
000130 5c d5 3e 3e 26 be 9e 3e 70 71 93 3e 37 f3 0d 3e
       0.18636078 0.31004447 0.28797483 0.1386231
000140 d9 f7 ae 3e 7f 8e 58 3e ce 25 88 3e 60 c8 58 3e
       0.34173468 0.21148108 0.26591343 0.21170187
000150 71 39 c6 be 24 b1 c6 3e 08 ba b2 be 1a 43 82 3d
       -0.387157 0.38807023 -0.34907556 0.06360455
000160 28 df 5f 3e 18 71 c3 3e ae da f8 bc 71 66 f8 3e
       0.21862471 0.3817222 -0.030377712 0.48515657
000170 88 35 32 bd 3f 22 0f bf 06 38 e3 3e 11 c8 3f be
       -0.043508083 -0.5591163 0.4437868 -0.18728663
000180 31 47 d5 3d d7 5a d4 3d 67 38 88 bd 6a fc 66 bd
       0.10413969 0.10368889 -0.06651383 -0.056393065
000190 ca f3 3b be ea cb 92 3d ce a2 0c 3f 2c 59 d7 be
       -0.18354717 0.071678 0.5493592 -0.4206022
0001a0 0b 78 8a bd 1c 49 e6 be e9 1e f1 3e 78 fc ae 3d
       -0.06761178 -0.44977653 0.47093895 0.08544248
0001b0 46 cf bf bd 9b 48 38 bd 9e 7c 42 3e 10 ae 15 3f
       -0.09365706 -0.044991117 0.1899285 0.58468723
0001c0 40 a7 91 3d 9b 32 2e 3d e8 57 96 3e 78 7c bd 3e
       0.071119785 0.04252873 0.29363942 0.37009025
0001d0 02 69 c4 bd b4 c0 8b 3e 2f df 8c 3d df 5f f3 3e
       -0.09590341 0.27295458 0.068785064 0.4753408
0001e0 c5 f4 43 3d cd 84 1a 3f 19 09 2e 3b 37 06 1f 3d
       0.047840852 0.6035889 0.0026555716 0.038824286
0001f0 93 5f 77 3d 78 7a 7c 3e d8 63 05 3e 08 51 b6 be
       0.06039388 0.24656093 0.13026369 -0.35608697
000200 dd 3b ab 3e bf a5 50 3d f9 e5 a4 3e 31 fe da 3e
       0.3344411 0.050939318 0.32206705 0.42772058
000210 53 12 22 3e da af 77 bd 08 89 9a 3e 99 e1 bc 3e
       0.15827303 -0.06047044 0.30182672 0.36890867
000220 61 2d 9f bd ee ee ea bd 2a 12 89 3e d9 88 ba 3e
       -0.07772327 -0.114713535 0.2677167 0.3643253
000230 4e 4c bb 3e 33 71 97 3e e4 14 e5 bd bf c0 b4 3b
       0.36581653 0.29578552 -0.11185625 0.005516141
000240 00 2e 75 3e c6 26 33 3f d5 10 ed be 43 71 24 3d
       0.23943329 0.6998104 -0.46301904 0.040147077
000250 ed c3 63 bc 5c dd fb 3d 25 ba df 3c a0 8d 0a be
       -0.013901693 0.1229808 0.02731044 -0.13530588
000260 7e 7d 8a 3e 5b a9 8e bd 53 3a 7b 3e 0f dc 81 3e
       0.27048868 -0.06965896 0.24533968 0.25363204
000270 ba 5f de 3e 05 62 c4 3d 0c 24 72 3e 4b d4 54 bd
       0.4343241 0.09589008 0.23646563 -0.05196027
000280 f7 20 81 3e 8c 06 84 be fd 40 a0 be 1c 65 20 bf
       0.25220463 -0.25786245 -0.31299582 -0.6265428
000290 b9 1e fc bd bb 85 9a 3e e2 b0 51 bd f0 09 80 bd
       -0.123105474 0.30180153 -0.05119408 -0.062518954
0002a0 24 8e b6 3d 15 ba 9c 3e 58 6d 23 be a7 11 a1 3e
       0.0891383 0.3061072 -0.1595968 0.3145878
0002b0 54 54 c2 bb be d1 5e 3e a6 b4 18 bf b9 96 ad 3e
       -0.005930463 0.21759698 -0.5965065 0.33904055
0002c0 92 4f 9a 3c 99 b8 07 bc 14 0f b5 bd 37 13 a6 3e
       0.01883677 -0.008283758 -0.088407665 0.32436535
0002d0 20 5a 9f be 93 62 98 bd 37 d5 aa 3e a8 4e aa 3c
       -0.31123447 -0.074406765 0.33365795 0.02078946
0002e0 1c 47 17 be 59 24 59 3e e5 62 1f 3f 89 6a a7 3e
       -0.1477322 0.21205272 0.62260276 0.32698467
0002f0 bb 48 a6 3d 9e 8d 55 3e 2a 80 86 be 88 b5 71 3e
       0.08119341 0.20854804 -0.26269656 0.23604405
000300 77 38 d0 3d ac 52 1c 3e 2c 56 b4 3e 34 cb 11 3e
       0.1016702 0.15265912 0.35221994 0.14237672
000310 f3 a4 28 be fe 71 0a 3e 60 c4 ba 3d 69 81 d3 3c
       -0.16469173 0.13520047 0.09119487 0.025818544
000320 28 01 14 3f bc 20 b9 3d c4 ea 47 be f4 a7 d2 be
       0.57814264 0.09039447 -0.1952315 -0.41143763
000330 60 75 35 be dc 08 da be a8 cb 5e 3d d4 c8 c9 3e
       -0.17720556 -0.42584884 0.05439344 0.39411032
000340 b4 db 10 be 24 c1 21 be a4 e2 b2 bd 7e 13 32 3f
       -0.1414631 -0.15796334 -0.087346345 0.6956099
000350 3d f7 3a be 69 f8 3c 3e 44 ea 8a 3e f2 f0 82 3e
       -0.18258376 0.18454136 0.27131855 0.25574452
000360 1c 04 a1 bc 8f 31 4d 3e 49 66 d6 be bc 3d 8e be
       -0.01965528 0.20038436 -0.41874912 -0.27781475
000370 3c 74 d4 bd e8 ef 78 3e fa 64 85 3e 89 6e 12 be
       -0.103737324 0.24310267 0.26053602 -0.14299978
000380 45 42 6b be 5c 8e fb 3e 43 e3 f1 bd 5e 9d 80 3c
       -0.22974499 0.4913205 -0.11810925 0.015700039
000390 20 df 1b bf dc 96 20 3e 2a 37 75 bd c3 62 08 be
       -0.60887337 0.15682548 -0.05986706 -0.13318925
0003a0 cf 18 5a 3e 46 c8 57 3e da c6 02 be b5 28 78 be
       0.21298526 0.21072492 -0.12771168 -0.24234279
0003b0 a6 06 cb bc 0b 51 8d 3e a0 76 9a 3e f4 fd d1 be
       -0.024783444 0.27600893 0.3016863 -0.41014063
0003c0 16 05 8b 3e e7 df 01 bf 8b ad b8 be 14 23 1f bd
       0.27152318 -0.5073227 -0.36069903 -0.038851812
0003d0 ee c2 81 be 2f 15 6f 3c 3e 8a cb bc 8f b7 46 be
       -0.25344032 0.014592453 -0.024846192 -0.1940596
0003e0 bd da 36 be 5c 69 f9 3e 9a b4 26 bc 51 02 8e be
       -0.1785688 0.48713195 -0.010174895 -0.27736142
0003f0 36 10 d7 be 15 3e e1 3e e1 f9 fd be f1 f8 9c 3c
       -0.42004555 0.43992677 -0.49604705 0.019161673

bias f4 [64]
000000 2a f8 70 bc 27 db bc bc e2 72 8a 3b 94 84 e3 bc
       -0.014707604 -0.023053719 0.004225121 -0.02777318
000010 1f 2c 63 3d 9c 8b c2 3c 00 00 00 00 f9 6a cc 3c
       0.055462 0.023748212 0.0 0.024953352
000020 f5 91 d7 bc da 9c 98 3b 00 00 00 00 00 00 00 00
       -0.026314715 0.00465737 0.0 0.0
000030 d1 8f 3a bb 7a 75 cc 3d 21 cb d1 3b 17 d4 30 3c
       -0.002846707 0.099833444 0.0064023887 0.010792754
000040 d6 a1 a8 bc ba 78 09 bd d2 87 1e 3d f5 37 b6 3b
       -0.020584982 -0.0335624 0.038703747 0.00556087
000050 b4 7b 90 bc 4a 7d 90 3c f9 0c 41 bd 8f bd 85 bc
       -0.017637111 0.017637867 -0.047131512 -0.01632574
000060 55 52 54 bc 00 00 00 00 00 00 00 00 bf 2e 8c bd
       -0.012959083 0.0 0.0 -0.068448536
000070 00 00 00 00 00 00 00 00 51 d6 f5 b6 57 8c 3a bd
       0.0 0.0 -7.3265187e-06 -0.045543995
000080 a3 97 eb 3b 39 43 f8 b8 3c 57 f4 bb 00 00 00 00
       0.0071897074 -0.00011838083 -0.007456688 0.0
000090 15 d9 c2 bc 00 00 00 00 a8 21 3d 3b 8c a4 4d 3c
       -0.023785153 0.0 0.0028859172 0.012551438
0000a0 00 00 00 00 13 df f5 bb 00 00 00 00 c6 70 32 3c
       0.0 -0.007503399 0.0 0.010891145
0000b0 00 00 00 00 28 d6 ef 3c 94 f0 b6 3c 00 00 00 00
       0.0 0.029276922 0.022331513 0.0
0000c0 b9 d8 91 bb 00 00 00 00 61 3c 06 bc 00 00 00 00
       -0.004450884 0.0 -0.008193106 0.0
0000d0 00 00 00 00 7a c6 23 3c 0a b1 bc 3c 5e ef 84 ba
       0.0 0.009996051 0.023033638 -0.0010142138
0000e0 00 00 00 00 4c af 79 3b b5 47 dd bb 8a b8 b9 b9
       0.0 0.003809887 -0.006752933 -0.00035423442
0000f0 94 d7 05 3b 7d 93 35 bd 91 6b d8 b8 3d 46 55 bc
       0.0020422684 -0.04433011 -0.000103197184 -0.013017234

weight f4 [256, 64]
000000 4f c9 c5 3d 81 f7 2d be 20 91 e2 3c 33 52 0e 3e
       0.09657537 -0.16988946 0.027657092 0.13898544
000010 1c 51 00 3d 84 4b ec 3d 25 e1 d8 3c e5 bb 3c 3d
       0.031327352 0.11537841 0.026474545 0.046077628
000020 f2 c2 2a 3e a9 e3 fe 3c 19 f9 18 3c 0d 45 6c 3e
       0.16675928 0.031114416 0.009336733 0.23073216
000030 4b 6e 23 bd 6e 38 ab 3d 40 16 f9 3d 46 ae b8 bd
       -0.039900105 0.083603725 0.12162447 -0.09017615
000040 ce 5d 01 3e db 8f 2c be 2f cf 1c bd 51 12 22 3d
       0.1263344 -0.16851752 -0.038283523 0.03956825
000050 15 af da bb 85 43 22 3d ef c4 6a 3d c8 27 a0 bd
       -0.0066737034 0.039615173 0.057316717 -0.07820088
000060 88 98 9e bd 6b 0e aa 3e 4a 37 ed bd 50 5e 00 3e
       -0.07743937 0.33214125 -0.11582811 0.12535977
000070 b8 09 b3 3d 9c f8 f6 bd 81 63 5d bd cc fb f5 bd
       0.08742088 -0.12059137 -0.054049972 -0.12010917
000080 12 a0 8c 3e d6 b0 8d bd 4f 33 5e 3d 86 a7 bf 3d
       0.27465874 -0.069184944 0.05424815 0.093581244
000090 97 2e 21 bd 37 46 01 be 63 16 1a 3d 27 57 53 3e
       -0.039351072 -0.12624441 0.037619006 0.20638715
0000a0 36 a3 a7 3d 30 b6 08 3e 71 40 41 be e7 8b 9e 3e
       0.08185427 0.13350749 -0.18872239 0.30966112
0000b0 82 94 a1 bd 6b 26 15 be 92 33 89 3b 00 c1 c0 3d
       -0.07889654 -0.14565437 0.004187056 0.09411812
0000c0 7a 04 2d 3e 21 c5 4b be 35 71 4d bd 1f 6b 5e be
       0.16896239 -0.19899417 -0.05015679 -0.21720551
0000d0 db 60 d7 3c 7c 71 83 bd 93 23 bb bd 1b a4 00 3e
       0.026291301 -0.0641813 -0.091376446 0.12562601
0000e0 5d 40 20 3e 03 e9 31 be 1b a3 52 3e 1e 38 ef bd
       0.15649553 -0.17374043 0.20570032 -0.116806254
0000f0 a8 07 4a 3d 5a 67 38 be e2 0e bc 3d a4 a7 9e bd
       0.049323708 -0.18008175 0.09182526 -0.07746819
000100 a7 6c 0b 3c d2 5c 5c bc 64 56 0a bd a8 4f 1e 3e
       0.008509791 -0.013449864 -0.033773795 0.15460074
000110 56 91 11 3e 97 00 93 bd c5 67 f0 3d af 84 14 3e
       0.14215598 -0.07177847 0.117385425 0.1450374
000120 f1 f0 02 be a5 bc 32 3b 7a 7a 0a ba b8 fa 09 be
       -0.12787224 0.0027273085 -0.00052825327 -0.13474548
000130 1b d6 9c 3b fb a6 0b be 80 29 7f be 28 0d 48 3e
       0.0047862655 -0.13637917 -0.24918175 0.19536269
000140 28 89 51 be 6a 11 45 bd bc 51 05 be 83 99 e0 3d
       -0.20462477 -0.04811231 -0.1301946 0.1096678
000150 3b 84 56 bd cc 0b 43 3e d3 01 0f 3e 55 83 42 3e
       -0.0523722 0.19047469 0.1396554 0.18995412
000160 eb 18 10 3e c2 71 59 bd 14 37 15 bd e0 54 7a be
       0.14072005 -0.053087004 -0.03642948 -0.2444644
000170 1f 90 b8 3d 6b 32 ce 3c 6b d8 75 3b 3a 94 1a 3e
       0.09011864 0.025170526 0.0037513028 0.15095606
000180 a4 8d 21 3e 31 54 94 3d 8f 8f a6 bd ff d9 db 3e
       0.15776688 0.07242621 -0.081328504 0.42939755
000190 f2 c9 e2 bd 01 b9 93 bd ae 30 26 be 5d d7 ba bc
       -0.11073674 -0.07213021 -0.16229507 -0.022807771
0001a0 53 da ad 39 55 ef ed 3c b0 16 21 3d ce 12 29 bc
       0.00033159796 0.029044786 0.039328277 -0.010319425
0001b0 ca 14 59 3d f0 85 1e be 02 c4 0a be 76 05 5d 3d
       0.05299834 -0.1548078 -0.13551334 0.053960286
0001c0 66 88 32 be b5 c6 fe bd 1a 56 79 3d af 73 d0 3a
       -0.17434844 -0.12440244 0.06087313 0.0015903617
0001d0 f5 e7 d9 3d 80 4f 7b 3c a6 c3 f6 3c 61 72 1f 3e
       0.106399454 0.0153387785 0.03012259 0.15570976
0001e0 04 cf 76 be 60 14 30 3e 92 db 3a 3e 5c c2 12 bd
       -0.24102408 0.17195272 0.18247822 -0.035829887
0001f0 e8 7b 07 3d a8 e2 41 be d9 e9 e2 bd 49 eb 1d be
       0.03307715 -0.18934119 -0.11079759 -0.15421785
000200 23 5a 9b 3d 5d 81 40 be 22 d0 18 be 62 cb 57 3e
       0.075855516 -0.18799348 -0.14923146 0.21073678
000210 dd 60 1a be 83 b2 05 3e 65 bd 45 3d 77 d1 88 be
       -0.15076013 0.13056378 0.048276324 -0.2672231
000220 c7 e6 43 3d 82 b5 6d be f8 e5 70 be 9f 89 09 3d
       0.04782751 -0.23213771 -0.23525226 0.03357851
000230 c1 b9 1c bd 4e 38 37 bd a7 52 4e 3d 1a b7 14 3e
       -0.038263086 -0.04473143 0.050371792 0.14522973
000240 a6 90 1d bd c9 49 31 3e 2c 47 13 be d6 47 d0 3d
       -0.038468026 0.17313303 -0.14382619 0.101699516
000250 d7 0a 6a 3e 0b e6 d7 3d 06 63 45 bd 6f 5d bc 3e
       0.22855698 0.10541924 -0.04819014 0.36790034
000260 79 2c 07 bb c0 2c 94 3d e4 36 2f be 35 69 89 be
       -0.0020625873 0.07235098 -0.17110783 -0.2683808
000270 28 d9 a9 3c 58 e8 b8 bc ca de c7 3d cd 4b 27 bd
       0.020733431 -0.022571728 0.097592905 -0.040843774
000280 a1 f4 be 3d 6c 0b 45 be 24 f5 fe 3c ec 2c 2f be
       0.09324003 -0.19242638 0.031122752 -0.1710698
000290 9e dd 07 bc 04 26 47 be 18 1b 57 3e bb b9 fd bc
       -0.008292584 -0.19448096 0.21006429 -0.030972352
0002a0 a7 a5 7a 3d 79 08 06 be b0 24 cb 3d 39 b2 15 be
       0.061193135 -0.1308917 0.09919107 -0.14618768
0002b0 da 5f 0f be 9f 3c 14 be 61 06 84 3d 7f 2a 4f 3d
       -0.14001408 -0.1447625 0.06446529 0.050577637
0002c0 f9 0f 79 3e 26 1a 2c be 7b 0c 27 3d 17 a0 6b 3d
       0.243225 -0.1680685 0.040783387 0.05752572
0002d0 bf 26 07 3d c3 93 65 bd 9c 93 51 be d9 2b 0e be
       0.032995936 -0.05604912 -0.20466465 -0.13883914
0002e0 f0 2b 99 3d cd 28 45 bd 3c 04 e0 3d 59 7d 34 3d
       0.074790835 -0.048134614 0.10938308 0.044064853
0002f0 f8 61 07 be 07 49 af 3c fa 5e 93 bc aa ed ff bd
       -0.13220966 0.021397127 -0.017989624 -0.12496503
000300 3e c8 f3 bd 3f f5 ca bd 56 1d 33 bd de 35 32 3e
       -0.119034275 -0.09910058 -0.04372915 0.17403361
000310 c7 d0 56 bd 6b b9 49 3e af d4 40 3e 0c 64 bb 3d
       -0.0524452 0.19699638 0.18831132 0.09149942
000320 8c cb 55 3e 15 ef ce bd 32 20 36 bc 9d 93 00 3d
       0.20878428 -0.10104195 -0.011116074 0.031390775
000330 24 84 7a 3d 90 75 cb bd 97 2b 0c 3e a8 b3 ed 3c
       0.061161175 -0.09934533 0.13688503 0.02901633
000340 cb 8c b2 bd ef f0 66 3d b1 7f 7e bc 4f 8b 81 bd
       -0.087182604 0.056382116 -0.015533374 -0.06325399
000350 90 ad 85 3c ed 90 13 3e 2e 03 bb bc ba b2 89 3e
       0.016318113 0.14410754 -0.022828665 0.2689417
000360 b9 cd e8 3c 48 37 0c 3b ba 2e 2d 3d ba a0 0c 3d
       0.028418409 0.0021395255 0.04228089 0.03433297
000370 7b 14 d5 be c5 e0 96 bd 72 48 3b 3c d9 f4 d3 bc
       -0.41617188 -0.0736709 0.0114308465 -0.025873588
000380 39 dc fc bc 8e 98 54 3d fe 52 d5 bc 98 fb a0 bc
       -0.03086673 0.0519033 -0.02604055 -0.01965122
000390 bb c0 13 be 22 7a 39 3d 50 90 ce bc 45 22 3c be
       -0.1442899 0.04528249 -0.025215298 -0.18372448
0003a0 3f 18 15 3e 63 68 73 bd 59 0d c6 bd 73 49 0c be
       0.1456003 -0.059425723 -0.096705146 -0.13699894
0003b0 d5 f6 0e be 46 f8 5a be aa 48 b4 3d b7 92 1c 3e
       -0.13961346 -0.21383771 0.08802922 0.15290342
0003c0 af 7b 78 3e 11 e5 1a 3e 90 34 6d 3c b6 e6 07 3d
       0.24265932 0.15126444 0.014477864 0.033179007
0003d0 65 d2 6d 3e 10 fe a0 bc 32 f1 8f bd 19 5a c1 be
       0.2322479 -0.019652396 -0.07028426 -0.37764052
0003e0 39 a6 92 3e 48 55 77 3d 4e ed 17 bc 3e 51 65 3c
       0.28642443 0.060384065 -0.009272886 0.01399642
0003f0 c3 83 33 3e fa fe 44 3e 91 eb 1c 3e 3c 0d d1 3d
       0.17530732 0.19237891 0.15324236 0.102076024

bias f4 [256]
000000 16 37 77 bc e3 91 ab bc e1 7a 06 bd b9 73 28 3c
       -0.015088817 -0.020943588 -0.03283203 0.010281497
000010 9d b4 2e 3b 61 97 fa 3b b6 7d 6f 3b 14 be a1 3c
       0.0026657947 0.0076474403 0.0036543435 0.019743957
000020 4a 31 8a bc b0 b2 9f ba 22 99 86 bc cc ec 86 bb
       -0.016869206 -0.001218399 -0.016430441 -0.004117584
000030 08 23 e4 3b fc 10 db b9 cd 05 cc bc f8 03 28 3c
       0.006962184 -0.0004178359 -0.02490511 0.0102548525
000040 be b9 48 ba 47 4f 4a 3b 40 9a 61 3c e2 e3 e6 3b
       -0.0007657072 0.0030870007 0.013769686 0.0070462087
000050 32 46 ac 3c 15 f0 60 bc 41 58 84 3c 28 44 d9 bb
       0.021029565 -0.013729115 0.016155364 -0.0066304393
000060 ba 05 1c bc 46 c5 8a bc 9d 05 89 3b 1e 89 cb 3b
       -0.00952285 -0.01693977 0.0041815774 0.006211414
000070 97 b5 f3 3b e0 16 35 bb 85 8c 33 3c 2d 7d 2f 3c
       0.0074374187 -0.0027632043 0.010958795 0.010710997
000080 e3 51 9a 3b 58 e4 28 3c 5a f6 c4 3b b9 c3 b6 3b
       0.0047094687 0.010308348 0.0060108127 0.005577531
000090 99 18 2f bb bd 70 3f bb dd 32 81 3a 54 8c 08 bd
       -0.0026717542 -0.0029211484 0.0009857077 -0.033336952
0000a0 4d 2a a1 3c f7 65 b7 3a 29 40 a6 3b 06 24 75 bb
       0.01967349 0.001399218 0.0050735665 -0.0037405505
0000b0 1d 7e ba bc 99 43 98 3c 99 ac 12 bb 5d 07 11 3b
       -0.022765214 0.01858692 -0.0022380708 0.0022129633
0000c0 5e fa 09 3c 68 f3 c6 3a 03 d5 88 3b 34 ba 5e 3b
       0.008421509 0.0015178742 0.0041757836 0.0033985497
0000d0 92 8e 2a bd e4 98 2c bc 02 1d 99 bb b5 19 d5 bb
       -0.041639872 -0.010534499 -0.0046726475 -0.0065033087
0000e0 be e9 87 bc 77 5a 40 3c c4 3b 57 bc 17 dd c7 bc
       -0.01659095 0.0117403185 -0.013136808 -0.024397416
0000f0 0d c6 72 3c 47 69 d3 3b f9 c4 e0 3b da 3a cb 3b
       0.014817727 0.006451759 0.0068594185 0.006202084
000100 e8 27 1d bc c4 f7 9d bc f2 bc 46 bc d3 76 13 3c
       -0.009592034 -0.019283183 -0.012130009 0.009000498
000110 ee 7c 2c 3c 7b cc 68 3c f1 c5 ae bb d8 cb 5d 3c
       0.010527832 0.014208908 -0.005333655 0.01353737
000120 64 b0 09 bb 0f 17 54 bc 97 c3 d5 3c d8 a4 29 bc
       -0.0021009678 -0.012944951 0.026094241 -0.010354243
000130 cd cb e4 3b 71 8e a5 bc 6f 7b 96 bb 60 44 1a 3c
       0.0069823028 -0.020209523 -0.004592351 0.009415716
000140 e1 ba 23 3c 50 7f b1 bc 04 8b d3 bb d5 91 bb 3c
       0.009993286 -0.021667153 -0.006455781 0.022896687
000150 57 b5 fa 3c 51 30 a0 3c 40 9b 70 3c 99 01 f7 bb
       0.030604048 0.019554289 0.014685452 -0.0075380323
000160 39 5e 38 3d 59 0f 9d 3c 11 5a 09 3d 71 3f 5e 3c
       0.045011733 0.019172357 0.03353316 0.01356493
000170 99 e1 62 bc 81 9a 46 3b 8d 7d 8d 3c 8c be e3 bb
       -0.013847732 0.0030304494 0.017271781 -0.006950205
000180 f5 45 21 bc 08 33 28 bc b2 62 56 3c 1f 88 ec bb
       -0.009843339 -0.010266073 0.013085054 -0.0072183753
000190 cf 25 df 3b 87 cd b1 bb d5 ce 4d 3b bf 16 04 3c
       0.006809927 -0.005426112 0.00314038 0.008062064
0001a0 46 c2 ef 3b af af b4 bb 4b 7b 62 3b a9 ab d9 bc
       0.0073168604 -0.005514107 0.0034558352 -0.026571112
0001b0 42 ff 0b bc 5d 5b bc 3c ca 75 4b bc 2b e8 50 3c
       -0.008544745 0.022992784 -0.01241822 0.012750666
0001c0 19 c7 33 bb d3 1c d5 bb 81 04 c5 3c ad 9b 2f 3c
       -0.0027431904 -0.0065036803 0.02405 0.010718268
0001d0 f4 f6 78 3a e7 6e 42 bd 32 65 18 bb bc 84 2f 3b
       0.0009497248 -0.047469046 -0.0023253676 0.0026781997
0001e0 e2 0e 34 bb e0 53 aa 3b dd ae 67 bb 39 e2 be 3b
       -0.002747469 0.005197987 -0.003535203 0.0058253077
0001f0 82 1a b4 3b 57 3a 7c 3b 22 63 c5 bc d5 87 c9 3c
       0.005496324 0.0038486922 -0.024095122 0.024600903
000200 1b 17 92 3b ba b7 13 bc c0 cd da ba 53 ca f3 bc
       0.004458321 -0.009015972 -0.0016693398 -0.029759562
000210 05 63 1d 3b 45 23 96 3a 62 58 e6 bc 92 99 eb 3a
       0.002401532 0.0011454603 -0.028118316 0.0017974845
000220 ee 16 a6 bc fb 10 ac 3b 21 7f 9b 3c 41 80 6b 3c
       -0.020274606 0.0052510477 0.018981518 0.01437384
000230 a1 04 df ba 72 d6 a1 3b 58 7c 33 bb 71 eb de 3b
       -0.0017014929 0.004938894 -0.0027387347 0.006802969
000240 c8 3b 89 bc be 1b 97 3b 8b 33 00 3a 89 cc 95 bb
       -0.016752139 0.0046114614 0.0004890493 -0.0045715016
000250 a8 09 7c 3c 24 69 0f 3d 15 26 be 3a 45 ce 11 bc
       0.015383162 0.03501238 0.0014507199 -0.008899276
000260 8f 8a 03 bc 9e 75 f0 3b 2f b0 d3 bc e6 20 66 bc
       -0.00802864 0.00733824 -0.025840847 -0.01404593
000270 a7 81 0b 3b 5f 1a 03 bc 7d 30 16 3c fe 66 8b bb
       0.0021286996 -0.008001893 0.009166834 -0.004254221
000280 1f 68 94 bb 94 18 85 bc ed 33 2e bc d0 28 47 ba
       -0.0045290138 -0.016247071 -0.010632497 -0.0007597329
000290 a4 a7 0c 3c f7 23 5f 3c 5f 99 e9 3b d9 4c 37 bc
       0.0085848905 0.0136194145 0.007128879 -0.0111877555
0002a0 42 80 b8 bb 9d 8d 68 3b 5c e9 3a bc 7b 39 9f 3c
       -0.005630524 0.0035484799 -0.011408176 0.019436589
0002b0 45 8b 49 3c 5a fa 79 bc ee 25 67 3c 9e b7 0f bc
       0.012301271 -0.015257442 0.014108164 -0.008771805
0002c0 00 38 1f 3c bf 8c bd bc aa 29 a4 3a a8 a4 a0 3c
       0.009717941 -0.023138402 0.0012524624 0.019609764
0002d0 65 15 84 3c 96 4f 66 3c 9d 64 0f 3b 1c 3a 5d 3c
       0.016123483 0.014057061 0.0021880039 0.013502624
0002e0 c7 ca 9d 3c c4 c0 3d 3c 87 64 8c ba b7 6d db bb
       0.01926173 0.011581603 -0.0010711112 -0.0066964286
0002f0 12 6a 10 3b 0a e5 bb 3a 54 7b 5c 3a bb 4f ac 3b
       0.002203588 0.0014335227 0.00084107113 0.005258528
000300 00 bb 33 bc e6 39 80 bc d7 5a 5d bc 0a a5 97 bc
       -0.010969877 -0.015652608 -0.013510427 -0.018511314
000310 4e 79 64 bb ee 54 9a 3a 26 fe 09 3c 5b 62 c0 3b
       -0.0034862342 0.0011774579 0.00842241 0.0058711
000320 88 68 d0 bc 01 5f 75 3c 12 d4 f7 3c 58 e2 51 bc
       -0.02544047 0.014976264 0.03025249 -0.012810312
000330 cb 74 9b 3b 13 e8 b5 bc 79 ad bb 3b c6 60 cc b8
       0.0047441474 -0.022205388 0.0057274667 -9.7455035e-05
000340 12 06 3a 3c bd 47 44 bc 37 cd d6 3a d5 49 db bb
       0.011353986 -0.011979994 0.0016388063 -0.006692151
000350 c0 f1 cd bc 2a 3c 37 3c b3 8e 96 bc c5 0d ef ba
       -0.02513969 0.011183778 -0.018378591 -0.0018238357
000360 47 8b b3 bc 56 2d 78 3c 41 7c db 3a 9e cf c7 3c
       -0.021916999 0.015147528 0.0016745405 0.024390992
000370 ad 8f 92 3b 32 ff 9a 3c 38 18 c2 bb 21 38 cf bc
       0.004472694 0.018920515 -0.0059232973 -0.025295319
000380 4c c4 16 3d 81 74 ab 3c bb 48 36 bb 01 ce 19 bb
       0.036808297 0.020929577 -0.0027814347 -0.0023468735
000390 ec be 9b ba 18 c9 f3 bb 91 80 0b 3c a7 74 e8 ba
       -0.0011882461 -0.0074397437 0.008514539 -0.001773496
0003a0 40 84 4e 3b 3f f9 4e 3c 53 14 ee bc b5 2c 99 3c
       0.0031511933 0.012632667 -0.029062426 0.018698076
0003b0 92 55 e7 bb cd 1d 0e bc 00 5b 39 3c d7 11 11 3c
       -0.0070597613 -0.008674097 0.0113132 0.008854351
0003c0 90 aa f2 ba a8 4d 5b bc e5 9d 04 bb 12 08 8a 3c
       -0.0018513966 -0.013385214 -0.0020235714 0.016849551
0003d0 d1 3f 6c bb ec 62 81 bc 61 4e d0 3a 6f 6b 04 3c
       -0.003604878 -0.01579424 0.0015892499 0.008082255
0003e0 f2 93 c8 3a 2c c7 fa bc b0 86 e0 3c 1a 47 cc bc
       0.001530288 -0.03061255 0.027407974 -0.024936248
0003f0 fb 3e 85 bb 14 14 0d bb 44 fe 74 bb 19 e7 08 bc
       -0.0040663457 -0.002152686 -0.0037383 -0.008355879

weight f4 [128, 256]
000000 ad 6c 2b bd bb 75 b2 3c e8 d9 f2 3c 80 78 2f 3d
       -0.04185169 0.021784654 0.029644921 0.042839527
000010 8b 58 1b 3d ae 9d 7b bd 8f ee 18 3d 34 05 dc bc
       0.037926238 -0.061429672 0.037336882 -0.02685795
000020 ca a5 e8 3c 91 13 8c bd 89 64 3b bb 91 13 9d 3d
       0.028399367 -0.068396695 -0.002859386 0.076697476
000030 2c 27 a6 bd 8f 8d 7b 3d 8f b4 c9 3a 81 83 10 3e
       -0.0811294 0.061414298 0.0015388894 0.14112665
000040 14 45 60 bd bc 6e 42 3e 0d 99 07 be 2c 73 26 3b
       -0.054753378 0.18987554 -0.13241978 0.0025398238
000050 01 b8 0f be e8 af f0 3d 4d e0 a0 3d 34 ac 56 3d
       -0.14035036 0.117523015 0.07855282 0.05241032
000060 65 50 b8 3c 0c ca 1b be a6 93 ca 3c 77 9e e2 3d
       0.022499273 -0.15213794 0.024728607 0.11065381
000070 a7 f8 4f bd 80 fb ab 3c e2 6d ea 3d 98 ee d8 3d
       -0.050774243 0.020993948 0.1144674 0.10592383
000080 39 24 17 bd e9 69 fd bc 24 55 6f bd 8d 60 1b 3c
       -0.03689978 -0.030934291 -0.058430806 0.009483469
000090 07 ae 3c bd 37 5e 05 be 72 00 0d 3c cc 8a af bd
       -0.046064403 -0.13024221 0.008606063 -0.08571395
0000a0 30 c3 18 3e 70 dc 88 bd b1 01 a0 bd 21 a6 6d 3d
       0.14918208 -0.0668267 -0.078128226 0.05801976
0000b0 5f 5e 6a 3d 69 34 36 3e 63 a5 35 3e 2e c8 5e 3d
       0.057218906 0.1779343 0.17738871 0.054390125
0000c0 d7 5c 54 3c ee 48 3e be cf 1e 85 bd 3c 79 a9 bd
       0.012961588 -0.18582508 -0.06500017 -0.08275077
0000d0 7c af 38 bd 22 cf be 3d cf 1b f9 3c 19 c2 84 bd
       -0.04508923 0.09316851 0.030408768 -0.06482334
0000e0 45 d8 1e 3d 33 76 8c 3d 89 d7 69 3d d1 dd 2e 3e
       0.03878047 0.06858482 0.057090316 0.17076804
0000f0 24 a7 07 bd a7 e2 f5 bd f6 d4 88 3d fa 94 1d 3d
       -0.033118382 -0.12006121 0.06681244 0.038472153
000100 3b 11 0d 3d 3c 62 90 3d 99 12 21 3d f5 1f c0 bd
       0.03444026 0.07049987 0.039324377 -0.09381095
000110 7a 16 bb bd 5d af f5 bc 5e 23 5f bd 2d 66 80 3d
       -0.091351464 -0.029990846 -0.05447709 0.062694885
000120 f5 34 01 3e 85 f3 1e bd 3a e4 a5 bd 61 70 40 3e
       0.12617858 -0.038806457 -0.081001714 0.18792869
000130 1a 1f 58 3d 12 b2 40 bd 6c 0c c3 bd 14 a6 60 3d
       0.052764036 -0.04704482 -0.09523854 0.054845884
000140 74 9e b8 3c c7 71 11 bd d0 e9 80 bd 39 59 93 bd
       0.022536494 -0.035508897 -0.06294596 -0.07194752
000150 d5 c5 51 3d ec a1 2d be 76 87 18 be d5 0b d9 bb
       0.051214058 -0.169563 -0.14895424 -0.006623725
000160 17 32 2d bd 02 dd 05 3e ad 56 d8 bc 5e bf 99 3c
       -0.042284098 0.13072589 -0.026408518 0.018768009
000170 89 72 27 be 34 05 36 bc eb b1 f6 bc ba c8 60 3e
       -0.16352285 -0.011109639 -0.030114135 0.21951571
000180 cc aa 11 3d cc c5 b5 3c ab d2 90 bd ab c3 fe 3c
       0.035563275 0.022189043 -0.07071432 0.031099161
000190 b2 5b b4 bc e8 5c 62 3d cd 76 01 3d a5 2b de bd
       -0.02201638 0.055264384 0.031607438 -0.10848168
0001a0 27 37 5b bc c3 77 8a bc 8a 80 04 3d 8d 2c c1 3c
       -0.013379849 -0.01690281 0.032349147 0.023580814
0001b0 2b 1d d7 3d 6e e2 91 bc 69 a0 39 3d 1f 81 05 be
       0.1050361 -0.017808165 0.045318995 -0.13037537
0001c0 ff e2 0d bd 7e a2 87 3d 92 55 82 bd ed d2 22 bd
       -0.03464031 0.0662279 -0.063639775 -0.039751936
0001d0 dd cb 5a bd 39 e0 c6 3c 70 18 02 3d d9 d4 ec 3c
       -0.053417075 0.02427684 0.031761587 0.028910087
0001e0 e1 0c ab bd b4 8f ee 3d 27 db 0b bb c7 29 c0 3a
       -0.08352066 0.11648503 -0.0021340342 0.0014660888
0001f0 2a 46 36 bd f8 76 84 3c 32 c0 d5 bd e6 fa e9 bd
       -0.044500507 0.01617001 -0.10437049 -0.11424808
000200 95 9e fb 3c bb c9 4f bc a7 62 14 3d a3 87 ce 3d
       0.030715266 -0.012682374 0.036226895 0.100844644
000210 58 4e 95 bd 86 df 68 3d 68 cd 34 bd a8 38 be 3d
       -0.072903335 0.056853794 -0.044141203 0.0928815
000220 0e ea 8b bd 10 e9 8c 3d a3 37 7a 3d 39 af 89 3c
       -0.06831752 0.06880391 0.061088216 0.016807185
000230 d7 49 2e bd 7d 0e ee bc 60 47 36 bd f5 39 be bd
       -0.042550888 -0.029059643 -0.044501662 -0.09288398
000240 57 90 b6 3c 0f be e5 3d c7 39 05 3d 96 e2 5e bd
       0.022285623 0.112178914 0.032525804 -0.054415308
000250 fb ec 9f bd 07 63 0c 3d 65 a0 a0 3c c5 81 96 3d
       -0.07808872 0.034274127 0.019607732 0.0734897
000260 22 35 01 bd 24 9b 64 bd c8 8d dc 3c e2 1a 14 3e
       -0.031544812 -0.055812016 0.026923075 0.1446338
000270 d8 01 90 bc 5d ea 0d be 5e cc f7 bd 16 71 3e bd
       -0.017579004 -0.13858934 -0.12099527 -0.046494566
000280 1c 70 fd 3d c9 91 9c 3c ec c0 ab 3d dc f2 44 3d
       0.12374899 0.019112485 0.08386406 0.04808317
000290 3e 63 41 bd 19 ac bd 3d 60 85 91 3d e0 f4 76 bc
       -0.047213785 0.09261341 0.071055174 -0.015073031
0002a0 99 8d b0 3d 42 d0 43 3e c1 7d 3d 3d 4c 8d 12 be
       0.086207576 0.19122413 0.046262506 -0.14311713
0002b0 70 9b d0 3d 39 39 9e 3d bf b5 82 3d da f5 65 bd
       0.10185897 0.07725758 0.063823216 -0.056142665
0002c0 ce 0e 75 3d 53 09 68 3d 23 99 c1 bc 52 48 7c bd
       0.059828572 0.056649517 -0.023632592 -0.061592408
0002d0 84 6d b1 3d 70 5a 4a 3e 00 18 06 3b 0b 6b cc 3c
       0.086634666 0.19761062 0.0020461082 0.024953386
0002e0 74 79 2e 3e 72 cc 86 3c ad 21 87 3e ec 7e ac ba
       0.17038518 0.016454909 0.2639288 -0.0013160384
0002f0 9b ec 73 bd 1f ef ff bc fc c0 fb 3b aa 40 01 bd
       -0.059551816 -0.031241952 0.0076829176 -0.03155581
000300 7c a6 b3 3d ce 18 0e 3e 65 b1 c3 3b f5 13 ee 3d
       0.08771989 0.1387665 0.005972075 0.116249
000310 13 3d e4 bd ca 7f 37 3e 98 0d 17 be 4c 1f 78 3d
       -0.111444615 0.17919841 -0.1475128 0.060576722
000320 89 09 b3 3c 19 d3 1a 3c 14 51 ef 3c 87 bf 9f bc
       0.021855133 0.009449744 0.029213466 -0.019500507
000330 82 51 d8 3c b4 a9 37 3d 96 15 b3 bc 5d 07 25 3d
       0.026406053 0.044839576 -0.021860879 0.040290225
000340 be 86 b1 bd e0 7e 22 bd e4 03 be bd 84 40 08 bb
       -0.08668278 -0.03967178 -0.09278086 -0.0020790407
000350 7b e5 39 bd f1 f7 ae bd 07 41 93 bc 56 e7 db 39
       -0.045384865 -0.08543385 -0.017975343 0.00041943294
000360 9f 30 84 3c f8 56 38 3e 92 99 aa ba 10 6c 6a bd
       0.016136466 0.18001926 -0.0013015738 -0.057231963
000370 11 06 10 be a6 da 56 3c d8 f8 4b bd ec 6d c2 bd
       -0.14064814 0.013113653 -0.049797863 -0.09493622
000380 18 ac a9 3d d7 d6 bf 3b d5 03 51 bd 35 01 ee 3d
       0.082847774 0.0058544683 -0.051029045 0.11621324
000390 fd 40 2a 3d 2c b1 7b 3d ff 88 a7 bc 6c 5e b6 3b
       0.041565884 0.06144826 -0.020451067 0.005565455
0003a0 49 ba f2 bc 17 0b fd bd 41 d0 f8 3c 6a ea 6c bd
       -0.029629843 -0.12355631 0.03037274 -0.057840742
0003b0 1c be a2 ba ce 8b d9 3d c7 ba 8e 3a e1 9f f6 3c
       -0.0012416276 0.10622369 0.0010889404 0.030105533
0003c0 bf 34 c6 bc 9e 8a 7e bc fd 73 26 bd 27 84 b8 bd
       -0.024195073 -0.015535979 -0.04063796 -0.09009581
0003d0 9a 42 ed bd 89 1b 05 3d f5 19 c4 bd eb 43 5d 3d
       -0.11584969 0.032496963 -0.095752634 0.05401985
0003e0 99 9a 4d bd b3 91 30 bb de b7 96 bd 2b 87 cd 3b
       -0.050196264 -0.0026942312 -0.07359289 0.006272217
0003f0 aa b2 0f be 2e 86 0f be f1 b4 87 3c 6b e4 fd 3b
       -0.14032999 -0.14016029 0.016565772 0.007748177

bias f4 [128]
000000 a0 df cb 3c 77 bd 59 3c 50 44 ac 3a 7e 36 09 3b
       0.024886906 0.013289801 0.0013142917 0.002093702
000010 fb a3 1b bd 08 e4 1d bc ed d2 93 3c 4f 6e f4 3c
       -0.03799818 -0.009636886 0.018044913 0.029837755
000020 6b af 87 bc 88 aa bf bb 52 84 1b bd 20 b6 9f 3b
       -0.016563138 -0.0058491863 -0.037967987 0.004874006
000030 1a 1c e0 bb 89 eb 88 bc 98 63 87 bc eb 3a 19 bc
       -0.0068392875 -0.016713874 -0.016526982 -0.009352426
000040 1f b4 7e 3b 03 12 82 bc 03 d7 47 bc 5e fa 06 3c
       0.0038864685 -0.01587773 -0.012197259 0.008238403
000050 40 dd 85 bd e2 ec b7 3c e4 97 39 3c 9f fe 36 3d
       -0.06536341 0.022451822 0.011327717 0.04467642
000060 f8 91 a9 bc 1e 41 b2 3a ec 46 2a 3d f8 69 f0 ba
       -0.020699486 0.0013599729 0.041571543 -0.0018342128
000070 ad 86 7b 3d 5c b7 0e bb 7b 1b 4f 3c 3f ba 5a 3c
       0.061407734 -0.0021776771 0.012640829 0.013350069
000080 4c 54 20 bb 26 db 6a bd 62 1b b9 3c 68 50 f3 bc
       -0.0024464307 -0.057337902 0.022596065 -0.029701427
000090 a2 53 02 3d e6 30 d5 3c 8b 92 79 3a dc 63 f1 b9
       0.03181804 0.026024293 0.0009520433 -0.00046041503
0000a0 38 f4 65 3c 15 55 2f bd 94 a2 b9 bc a5 00 34 bc
       0.014035277 -0.04280575 -0.022660531 -0.010986482
0000b0 0f fc cb 3b 0e f0 2f 3d af d4 9f 3b 7b fb 12 bc
       0.006225116 0.042953543 0.004877649 -0.00897109
0000c0 39 1f 99 ba 80 82 8e ba ba c6 a5 3c f8 9b ea 3a
       -0.0011682279 -0.0010872632 0.020236362 0.0017899266
0000d0 3c a1 e1 b9 5d 2f d2 bb b3 2f 36 bc 22 21 7b 3c
       -0.00043035473 -0.0064143375 -0.011119771 0.015327724
0000e0 f2 20 00 bc 5c 6e 23 3c a1 06 21 bd 64 32 c2 bb
       -0.007820355 0.009975042 -0.039312962 -0.005926417
0000f0 3b 81 6e 3c a1 59 a2 3d b6 cb b3 3b c0 2b 57 bd
       0.014557178 0.079272516 0.0054869307 -0.052531958
000100 97 1e b9 bc 5e b9 39 3d c2 95 9c 3c de e3 7c 3b
       -0.022597594 0.045342796 0.019114379 0.0038587968
000110 c8 52 dd 3c 16 3b 04 bc c7 41 89 bc d6 6b 6c bd
       0.027017012 -0.008070728 -0.016754998 -0.057720028
000120 24 6e 96 bc e4 b6 a5 bc a5 63 99 bc a9 a0 6d bc
       -0.018363066 -0.02022881 -0.018724272 -0.014503636
000130 e8 a1 ab bc eb 0d 2e bb cd a5 c3 3c 81 06 5c bc
       -0.020951226 -0.0026558589 0.02388277 -0.013429285
000140 43 df c8 3c 29 ae c7 3a 1d 0e 0d bd c3 4d 28 3d
       0.024520522 0.0015234399 -0.034437288 0.041089784
000150 49 26 31 3c ad a0 75 bd 42 40 ac 3c b9 5b c6 bc
       0.010812351 -0.059967685 0.021026734 -0.024213659
000160 d0 8f 61 3b 74 da a5 bc 02 a8 80 3c f8 ef b8 bc
       0.0034417994 -0.020245768 0.015705112 -0.022575364
000170 cc 8d 04 bd 43 7c 3b 3b 2d 42 eb bc 14 2a a2 bc
       -0.03236179 0.0028608001 -0.028718079 -0.019795455
000180 c3 55 01 3c 63 87 7e 3b ad c2 26 bc 49 e7 f7 bb
       0.007893982 0.003883802 -0.01017825 -0.007565413
000190 3d 03 15 3b 8c 7a 34 3d 5a ca 77 bd 78 a5 0c 3d
       0.0022737526 0.044062182 -0.060495712 0.03433749
0001a0 ae 73 c8 bc 9c d1 c2 3c c0 b2 8c bc d0 d1 0d bd
       -0.024469223 0.02378159 -0.017175078 -0.03462392
0001b0 42 a7 4b bd 49 a0 6c bc eb 0d 84 3b b5 d4 07 bb
       -0.049720056 -0.014442512 0.0040299795 -0.0020726149
0001c0 6d 46 07 bd bb 0c 8e 3b af 01 e9 ba 9d 75 f9 ba
       -0.033026148 0.0043350137 -0.0017776991 -0.0019032244
0001d0 da b5 78 bb af 96 b9 ba 23 bd 54 bd c6 68 76 bc
       -0.003795019 -0.0014159287 -0.051938187 -0.015039628
0001e0 cb 71 c7 3c b3 2b 41 3c b3 57 39 bc 15 e8 2e bd
       0.024346253 0.011790204 -0.011312413 -0.0427018
0001f0 0c 94 b6 bc 97 57 c8 3c b3 f5 5d bc 1b 65 e7 3b
       -0.022287391 0.024455829 -0.013547349 0.0070616133

weight f4 [14, 128]
000000 5a 80 94 bb 84 d8 3a bc 94 21 92 3c 79 97 80 bb
       -0.0045319023 -0.01140416 0.017838277 -0.003924307
000010 6e d0 f8 3c 30 d8 b1 3b 7e d1 38 bd 77 d4 11 bc
       0.030372825 0.005427383 -0.045121662 -0.008900753
000020 39 e8 6c bc 85 23 40 bd ba fa 84 bc 46 22 6a 3c
       -0.014459663 -0.046908874 -0.016232837 0.014290398
000030 4f 96 8f 3c a0 c0 ea 3c 47 f4 a9 3a bb 43 23 bc
       0.017527727 0.028656304 0.0012966477 -0.009964879
000040 be 5f 70 3c c3 29 9a bc 34 49 82 3d 07 c5 98 bc
       0.014671264 -0.018818742 0.06361619 -0.018648637
000050 95 8b 0e 3d 79 0a 14 bc 4a 35 74 3c 4f ab 0f bd
       0.034801085 -0.0090357 0.014905283 -0.035075482
000060 fb 60 3f 3d a6 1c 1c bc c6 d2 b7 bc df 4e ea 3b
       0.046723347 -0.009528315 -0.022439372 0.0071505154
000070 ea e0 88 bd ec b7 10 3c 02 2b 01 3c a8 e0 23 bd
       -0.06683524 0.008832913 0.007883789 -0.04000917
000080 1d 24 42 3c 28 f9 49 3d 7a 3c c7 3c 65 07 83 bc
       0.01184943 0.04930988 0.02432083 -0.015994737
000090 f2 80 a6 bc 8c 4d fe bb 68 fd 4b bb 9b e3 01 bc
       -0.020325158 -0.007760709 -0.0031126384 -0.0079278005
0000a0 39 05 aa bc 33 96 93 3c e1 47 b2 3c f4 24 46 bd
       -0.020754443 0.018015957 0.02176279 -0.048375085
0000b0 74 ed 8c bb 18 c4 31 bd d2 ac cf b9 17 7a 00 3a
       -0.0043007676 -0.0433999 -0.00039610878 0.00049010053
0000c0 b9 e7 b3 3c be 0b 94 bb a6 93 8e 3b a9 da 62 3d
       0.02196108 -0.0045180013 0.004351097 0.05538431
0000d0 37 09 7b 3c 30 7e 7f 3c 7e 0c a2 3b 75 f4 b7 3c
       0.015322021 0.01559405 0.004945337 0.022455433
0000e0 05 59 d0 ba b2 47 99 3c 55 f0 1b 3d c4 eb 97 b8
       -0.001589567 0.018710945 0.038070995 -7.244156e-05
0000f0 3f f0 91 bb 64 27 24 bd 5d 1f 01 bc ac cc e2 3c
       -0.0044536884 -0.04007663 -0.007881013 0.027685486
000100 d1 0c dc b9 06 b2 ae bc 8d e4 81 3c e3 26 f1 ba
       -0.0004197122 -0.021325123 0.015856052 -0.001839843
000110 d5 77 24 bd 90 99 0e 3c c5 d5 15 3c 9e fa 1b 3d
       -0.040153343 0.008703604 0.009145205 0.038080804
000120 80 47 8e 3c 8a 74 63 bc 5f e8 8f 3d c6 1a 21 3d
       0.017368078 -0.013882766 0.07026743 0.039332174
000130 a5 d9 94 3c 81 3d 8a ba 98 3f c8 bc 9f 39 1b 3c
       0.018170187 -0.0010546894 -0.024444386 0.009474187
000140 39 69 98 3c 42 75 30 bc 4a 35 b5 3c 93 da 09 bd
       0.018604862 -0.010770144 0.022120137 -0.033655714
000150 82 8f 28 bc 7a ce 41 3d 3b c1 39 3c a7 20 f6 3c
       -0.010288121 0.047316052 0.011337574 0.030044867
000160 3e e8 12 3b d5 c9 9c 3c fc f4 9c 3c 28 8c 84 3d
       0.002241626 0.01913921 0.019159786 0.06472045
000170 52 0e 1a 3c 4a 5d 09 3d 06 8e 3f 3d 94 7b 34 bb
       0.009402828 0.033536233 0.046766303 -0.0027539479
000180 d4 f3 02 3d 9e ab c7 bc 03 05 74 bb 80 ce d2 bb
       0.031970814 -0.024373826 -0.0037234433 -0.006433308
000190 2c 66 e7 3b 83 37 11 bd 78 7b ca 3c a4 91 ff bb
       0.0070617404 -0.03545333 0.024717078 -0.007799344
0001a0 22 13 4b 3c e9 aa 49 3c a4 b8 4b bb b8 87 72 3c
       0.012394698 0.012308815 -0.0031085396 0.014802866
0001b0 72 01 6c 3d b0 c7 11 3d b9 6b 91 3c 77 91 8a bd
       0.057618566 0.035590827 0.017751561 -0.067660265
0001c0 d2 72 1a 3c 29 92 39 3b b0 e4 d0 39 d2 b1 bc bb
       0.009426789 0.0028315878 0.00039843237 -0.0057585025
0001d0 39 3d bc 3b 7a 57 ac 3c d1 4e 85 3c c1 8f 33 bc
       0.005744603 0.021037806 0.016272934 -0.010959567
0001e0 cc 19 da bb 69 38 0c 3c a4 16 cf 3c 60 32 76 3d
       -0.0066559073 0.008558371 0.02527935 0.060106635
0001f0 93 8a c9 b9 c5 5f a2 bc ae c8 30 3b 98 d1 16 3c
       -0.00038440953 -0.019821057 0.0026975083 0.0092052445
000200 68 82 0f 3d c9 3e f5 bc 0f 5b 34 bc 7e f2 72 3d
       0.035036474 -0.029937165 -0.011008038 0.05931329
000210 3d 2a 1b 3b 00 c4 7a bd 25 7b 7c bc 13 63 9e 3c
       0.00236763 -0.061222076 -0.015410219 0.019334352
000220 c1 bb fc bc 97 fa 27 bd 0f 43 53 3c e9 91 2b 3d
       -0.030851247 -0.041010465 0.012894406 0.041887198
000230 42 18 7f bc 12 c5 0d 3d a5 c8 6d bd dc 57 c9 ba
       -0.015569748 0.03461177 -0.058052678 -0.0015361267
000240 90 5e 1c bd 32 55 60 bc e4 b9 60 3b d8 e7 0d bd
       -0.03817612 -0.013692187 0.0034290487 -0.03464493
000250 36 dd da bb 99 3d 8e 3c f2 85 d1 3c 07 39 81 3c
       -0.0066792024 0.017363356 0.025576565 0.015774263
000260 a2 26 9f bd f7 28 fd bb fa c5 0e bc 63 5d a2 bb
       -0.077710405 -0.0077258307 -0.0087141935 -0.00495498
000270 dd 97 45 3d 6d 7a 1e bd 3a f9 19 3d 20 87 c0 bc
       0.04824053 -0.038690973 0.037591197 -0.023501933
000280 3e 00 46 3d 61 61 c7 bc 39 6e 0f 3c 90 1e 9a 3b
       0.048340075 -0.024338426 0.0087543065 0.0047033504
000290 35 50 04 3d 90 68 fd bb b3 64 b8 bc 91 90 0d 3d
       0.032303054 -0.007733412 -0.022508955 0.034561697
0002a0 d8 67 c4 3c f2 00 8d bb dc 9c 05 bd b6 08 b5 bc
       0.023975298 -0.004303091 -0.032620296 -0.02209888
0002b0 66 54 97 3c 71 f0 3b bc c2 96 55 bc 45 27 a2 3d
       0.018472861 -0.0114709 -0.013036432 0.07917646
0002c0 87 6d 41 bc 0f b5 88 bc e6 c7 3f 3d 05 82 68 bb
       -0.0118058985 -0.016687898 0.046821497 -0.0035477888
0002d0 88 76 a5 3d e0 c4 0f bc 16 c4 6b ba e5 49 f3 bc
       0.08079249 -0.008774966 -0.00089937577 -0.029698322
0002e0 7c 5e 69 bc 6e aa 22 bd 9b 6a 7f bc c4 b1 18 bd
       -0.014243718 -0.039713316 -0.015589382 -0.037278906
0002f0 35 9c 65 bb 69 99 ea 3c 04 cd 19 3c a6 03 8e 3c
       -0.0035035734 0.028637605 0.009387258 0.017335724
000300 c6 64 07 bd 96 d2 96 bb 49 1f 37 bd 5c 6e 80 3c
       -0.03305509 -0.0046027405 -0.04470757 0.015677623
000310 3b c3 06 3d d1 96 a8 bd 81 fa 99 bd d7 54 05 bd
       0.03290103 -0.08231891 -0.07518483 -0.032551613
000320 05 8e 4b bd f9 28 19 bc 7c 21 ac 3c c5 f0 0a bd
       -0.049695987 -0.009348148 0.02101206 -0.033921022
000330 1e b6 0a bd 5f 35 2f 3b 5d f5 90 3d 8c aa 88 bd
       -0.033865087 0.0026734693 0.07078049 -0.06673154
000340 68 96 97 bc f0 c1 a1 3c e3 ce 92 bc cb 80 3d 3b
       -0.018504336 0.019745797 -0.017920917 0.0028915878
000350 aa dd 6f bb e3 d1 84 bc 49 07 07 3d c4 b6 77 bd
       -0.0036600628 -0.016213363 0.032965932 -0.060477033
000360 0b d6 1b 3c dc 1a 68 3b d6 3a 23 ba 0f 94 84 bd
       0.009511481 0.00354164 -0.0006226724 -0.064735524
000370 da d4 06 bd e9 5c d3 bb 47 ff 86 3c 9c 43 90 bd
       -0.032917835 -0.0064502847 0.016479148 -0.070441455
000380 49 3e f2 bc b1 f2 d0 bc 03 13 fe 3c 8f 2a 47 3c
       -0.029570716 -0.02550635 0.031014925 0.012156143
000390 b1 d8 e0 3c 60 5a 88 3b 1c ab be bb 1b 0e 0c 3d
       0.027447077 0.004161164 -0.0058187377 0.03419314
0003a0 ce d9 06 bd e2 03 f0 bc ea b0 64 3c c1 0e 70 bd
       -0.03292256 -0.029298726 0.013958195 -0.05860782
0003b0 6e 5e 3d bd 34 ff d3 3c 9e 1f 3c 3d 08 e8 48 bc
       -0.046232633 0.025878526 0.04592859 -0.012262352
0003c0 2c 4a a2 bc e8 a8 6f bd d7 6b 18 bd 8f 45 45 bd
       -0.019810759 -0.05851069 -0.03721222 -0.04816204
0003d0 36 71 b7 3b fa 5d 98 bc 96 cd ec bc 35 cd 28 3c
       0.0055982126 -0.018599499 -0.028906625 0.010302831
0003e0 53 9b 9a ba 3d 89 2a bd 1f 69 ac bb a8 28 02 bd
       -0.0011795558 -0.041634787 -0.005261555 -0.031777054
0003f0 f3 40 56 bd de 6a 05 3c c8 09 2e bc 01 57 62 bc
       -0.052308034 0.008143155 -0.010622449 -0.013814689

bias f4 [14]
000000 25 f4 1d bd 96 8c cd 3b 18 e0 e0 bc 18 ca 8c 3c
       -0.038562912 0.0062728627 -0.027450606 0.01718621
000010 a7 56 ee 3c 6b c6 51 3d 3a c0 3c bc 0a 73 88 bd
       0.029094053 0.051214617 -0.01152044 -0.06662567
000020 64 f4 00 3b 66 6c b3 bc 0f 81 24 3c 51 31 a4 3b
       0.0019676918 -0.021902274 0.010040536 0.005010762
000030 1e 0a e7 3c e6 74 16 3c
       0.028203066 0.009183144

weight f4 [64, 13]
000000 97 60 b9 be 0a cc 28 3f 4d 00 d6 3d 8d 43 35 3e
       -0.36206505 0.6593634 0.10449276 0.1770155
000010 72 9f 92 3c 00 22 88 be c5 4a 62 3e de f4 9a bd
       0.017898295 -0.2658844 0.22098835 -0.07566236
000020 97 4a b3 3b f7 10 05 be 46 5a a1 3e d2 08 c6 be
       0.0054715383 -0.12994753 0.31514186 -0.38678604
000030 6e 96 b4 3c 7e 09 3b 3f 79 fe 6d be 3b 32 c7 3e
       0.022044387 0.7306136 -0.23241605 0.3890551
000040 d8 fa 82 3d f2 bf ee 3d 35 cf 20 3e 4c e7 68 bd
       0.06395501 0.116577044 0.15704043 -0.056861207
000050 3f 1b 4d 3e 5a 51 1a be c8 48 8b be 98 8d 9b 3d
       0.20029925 -0.15070096 -0.27203965 0.07595366
000060 6e 51 81 3e 88 a5 c0 3d e0 78 9d 3e 2e ff 67 be
       0.25257438 0.094065726 0.30756283 -0.22655937
000070 da bb 3e 3f 08 7c a3 3c 3a 46 ca 3d 3e 39 e5 3c
       0.7450539 0.019956604 0.09876676 0.027981397
000080 05 fa 96 be 69 21 99 3d 4a 94 ce bd 5d 76 b6 be
       -0.29487625 0.074770756 -0.10086878 -0.3563718
000090 08 d1 88 bc 2e 40 50 3e 86 3e 04 3e de 88 01 be
       -0.016701236 0.20336983 0.12914476 -0.12649867
0000a0 65 67 bc be e7 f9 9f bd 09 f6 43 be fc 16 34 bd
       -0.36797634 -0.07811337 -0.19136824 -0.043967232
0000b0 e8 cb b6 3d e9 48 04 bf dd 87 48 be ae 8d be bc
       0.08925611 -0.5167375 -0.19583078 -0.023260918
0000c0 66 2e 2c 3e 4e 78 c3 be e7 71 0e bf 2e 24 a4 3d
       0.16814575 -0.38177723 -0.5564255 0.08014713
0000d0 7c 11 0f be 3d 4e ad be 97 b7 8e 3e b7 7f 86 be
       -0.13971514 -0.33848754 0.27874443 -0.26269314
0000e0 b2 fc 99 be 0f ad 2a 3e 41 d9 73 3e 15 2f 3d bc
       -0.30075604 0.16667579 0.23813345 -0.01154687
0000f0 35 72 e4 3d 92 a6 3b 3e 01 a3 02 3f fd 08 ae 3d
       0.11154596 0.1832526 0.51029974 0.08497808
000100 bb d2 ef be 86 d7 f7 3d 2f d5 46 be 82 9d b8 3e
       -0.46840462 0.12101655 -0.1941726 0.3605767
000110 f1 6f 86 be f8 96 d4 bd f9 d9 d3 be 82 19 bc 3e
       -0.2625728 -0.103803575 -0.41377237 0.3673821
000120 72 c6 ea be dd cd 10 3d 48 81 19 3e bc 61 e7 3d
       -0.45854527 0.035352577 0.14990723 0.11297938
000130 68 c6 2b 3e b0 e0 d7 3e bf 5c 07 be 5a 32 07 3f
       0.16774905 0.4216361 -0.13218974 0.52811205
000140 25 12 09 bf bd 90 a7 3d 48 4e 9a bd fd 1c 1c 3e
       -0.5354331 0.081819035 -0.07534462 0.15245433
000150 1d f1 43 bf e7 c7 59 3d 29 33 52 be b1 7f 4b 3e
       -0.76539785 0.053169157 -0.20527329 0.19872929
000160 a3 4a 03 be 85 26 5f 3e 35 fe 8e be 5b b8 ad be
       -0.1282144 0.21792038 -0.2792832 -0.33929715
000170 37 22 29 3d f8 4a 09 be 64 e9 00 be 0d a7 f1 3e
       0.041292395 -0.13407505 -0.12589031 0.47197762
000180 76 49 08 bc 75 eb 16 3f fc ec 7a 3e f2 18 8e 3e
       -0.008318296 0.5895303 0.24504465 0.27753407
000190 b9 cf fd be 0d da e0 be 3c 52 f8 be 54 42 a7 be
       -0.49572542 -0.4391636 -0.4850024 -0.32667792
0001a0 77 75 43 be e9 9f a3 3e b1 1d b2 be fd e2 51 3e
       -0.19087778 0.3195794 -0.34788278 0.20496745
0001b0 21 58 88 3d 6a bc b1 3e fd 1a a0 3e ef 99 a9 3e
       0.06657434 0.3471406 0.3127059 0.33125255
0001c0 b4 90 42 be 6f bb f3 3e 6b cf 40 be 41 2e e0 3d
       -0.19000512 0.47603938 -0.18829124 0.10946322
0001d0 af 5b 50 3e e2 d0 12 3d 2f b2 e2 be b4 e8 19 3e
       0.20347475 0.035843737 -0.44276568 0.15030175
0001e0 2a 20 22 bf 69 de 58 3e 54 b2 d1 3c c0 89 d8 3e
       -0.6333033 0.21178593 0.025597729 0.42292595
0001f0 54 f7 cf 3e 92 ec 69 be a9 97 98 be e5 33 d3 3e
       0.40618384 -0.2284415 -0.29803208 0.4125053
000200 3d d7 84 3c 3e a0 21 bd d9 4b e0 bd 40 88 ae be
       0.016215915 -0.03945946 -0.10951967 -0.34088326
000210 d9 5e 1d 3e 39 28 a1 bd 93 5c 86 3e 37 ce a7 3e
       0.15368213 -0.07869 0.26242504 0.32774517
000220 45 a6 93 3e 33 2b 94 be 94 ee 15 bf b3 10 0c be
       0.2883779 -0.28939208 -0.58567166 -0.13678245
000230 fb 01 43 bf c8 6a 27 bf a1 da 13 be 85 78 b0 3e
       -0.76174897 -0.6539731 -0.14438869 0.3446695
000240 fa ee db bc 36 17 e8 bd c4 f3 9a be be 1b 0d 3d
       -0.026847351 -0.11332552 -0.30264103 0.034450285
000250 ae 3d 2c 3e f3 66 69 3f dc b3 90 bc b9 b9 e0 3e
       0.16820404 0.91172713 -0.017663889 0.43891695
000260 64 ab 3f bb a2 d5 16 bf 03 36 4a bf da df 29 be
       -0.0029246444 -0.5891973 -0.78988665 -0.16589299
000270 12 4f e9 3d 40 ce 02 bf 9e 4c 0c 3e 39 ce 6a bc
       0.113920346 -0.5109596 0.13701102 -0.014331394
000280 73 e0 54 bd 60 88 9d be dd 47 a5 be 22 a3 4a 3d
       -0.051971864 -0.30768108 -0.3228139 0.04947198
000290 40 dd 9e 3e 77 c1 1e 3c 13 c3 02 3f 3c 86 c0 be
       0.31028175 0.00968968 0.5107891 -0.37602413
0002a0 57 da 85 bd 0f f1 2c bd 75 09 0a 3e 75 a5 6c be
       -0.06535786 -0.04222208 0.1348017 -0.23109992
0002b0 15 f6 d8 be f9 1d 68 3e fb 35 1c bf c7 d1 ca bd
       -0.42375246 0.22667684 -0.6101987 -0.09903293
0002c0 8d c7 4d be ca b9 44 3e b7 5d 00 3d 65 25 ae be
       -0.20095654 0.19211498 0.031339373 -0.34012905
0002d0 44 59 a4 be b4 79 ee bd 08 33 8d be 4b 31 0a 3c
       -0.32099354 -0.11644307 -0.27577996 0.008434604
0002e0 b9 08 e2 be 8e af cb 3d aa 5b a3 be 8d 0b 8d 3d
       -0.4414728 0.09945594 -0.31905872 0.06886969
0002f0 7f 44 0d 3e 6e 82 b9 be bd 41 bf be 28 38 cd 3c
       0.1379566 -0.36232322 -0.37354842 0.025051191
000300 44 49 76 3d 13 21 85 be 57 a6 00 bf b0 a7 cb 3e
       0.060128465 -0.26001796 -0.50253814 0.39776373
000310 20 ce 1c be 83 72 a8 3e 75 8b f5 3d 72 15 1f be
       -0.15313005 0.32899866 0.1198949 -0.15535524
000320 30 20 1a 3e ec dd c1 be b5 59 92 be 0d 6d d1 be
       0.15051341 -0.37864625 -0.28584066 -0.40903512
000330 62 be db be 32 58 80 bb 6e 92 89 3e 7c 4a 3a 3c
       -0.42918688 -0.0039167637 0.2686953 0.0113702975
000340 1b 38 1e be 53 e3 48 3e c4 9d a6 bd 51 03 93 3e
       -0.1545109 0.19617967 -0.0813556 0.28713468
000350 8a 3e 59 be 26 d2 c3 bd f2 85 55 bf ed 91 53 3e
       -0.21215263 -0.09561567 -0.8340751 0.20661135
000360 e4 73 73 bf 35 03 4e 3f be 65 10 3e 5f 99 56 3f
       -0.9509871 0.80473644 0.14101312 0.83827776
000370 af eb 84 3c 4a c6 a0 bd e4 4a 9e 3d 13 5c 8d 3e
       0.016225664 -0.07850321 0.07729128 0.2760931
000380 49 6e 41 3e 19 79 c8 be 30 c9 c0 bd ee e1 1b bf
       0.18889727 -0.3915489 -0.094133735 -0.60891616
000390 58 fa 09 bf 3e dc 02 be f3 e1 9a 3c 87 2f 94 3e
       -0.5389762 -0.12779328 0.01890657 0.2894251
0003a0 7d 61 23 3f 8b cf 3c 3e 5c bb 9d bc 87 58 e5 3e
       0.6382063 0.18438546 -0.019254379 0.44794104
0003b0 04 83 15 ba 40 e4 d6 bd ba ee cb 3d a6 f6 1e bd
       -0.0005703422 -0.10492754 0.09957643 -0.03880944
0003c0 ad b9 18 bf b3 91 cf 3d d8 57 9e bc 4f d4 96 3e
       -0.5965832 0.10135212 -0.019328997 0.29458854
0003d0 5d e9 b5 3e bb 44 df 3e b5 07 aa 3d dd a1 10 3e
       0.35529605 0.43607125 0.08302251 0.14124246
0003e0 e1 4a 82 3e fb 47 60 bd fc 75 f5 3d 70 6f e8 be
       0.25447753 -0.054756146 0.11985394 -0.4539752
0003f0 f4 d8 91 3d 80 f5 06 bf 6e 79 5b be 81 bd 82 be
       0.07121459 -0.52718353 -0.2143304 -0.25535205

bias f4 [64]
000000 00 00 00 00 00 00 00 00 00 00 00 00 00 00 00 00
       0.0 0.0 0.0 0.0
000010 be 6d f1 bc 77 61 db bc 59 4b ad bb a5 a0 c0 3d
       -0.029471274 -0.026779873 -0.005288523 0.094056405
000020 c8 8f 66 3c 7f 18 bb 3a 59 7c bb 3d 24 7f 75 3d
       0.014072366 0.0014274268 0.09154577 0.059935704
000030 00 00 00 00 42 a1 2e bb fd 49 e4 bb 00 00 00 00
       0.0 -0.002664641 -0.006966828 0.0
000040 be 6a 10 be 7d b0 8f bd 37 2c b8 36 5a 17 9e bd
       -0.14103219 -0.07016084 5.4887746e-06 -0.07719298
000050 83 8e 0f bc f7 a4 57 bd fa 2d 77 bd 93 85 cb bd
       -0.008762005 -0.052647557 -0.06034658 -0.09937587
000060 bc 70 2b 3c 14 8d fa 3d 9f fc 1e 3d 00 00 00 00
       0.01046389 0.1223394 0.038815137 0.0
000070 7c 33 0a bc 3b 0e cd 3d 18 c2 02 3e 79 17 8c 3c
       -0.008435126 0.1001248 0.12769353 0.017101036
000080 09 d4 d6 36 4f 53 73 3d 55 3e d7 3d f3 58 0a bc
       6.402381e-06 0.05940562 0.10509936 -0.008444059
000090 00 00 00 00 62 5f 34 be 60 57 4f 3c 00 00 00 00
       0.0 -0.1761451 0.012655109 0.0
0000a0 17 fd d7 bc c7 d6 c1 3d 58 a4 88 b9 68 ec 4d bd
       -0.0263658 0.09464794 -0.00026062387 -0.050274283
0000b0 0b 4a 1d 37 eb fb 7d bd 9c c2 58 bd 09 78 03 3e
       9.375169e-06 -0.062007826 -0.05291997 0.12838759
0000c0 b0 eb 6d bc a6 6a 84 39 24 4a ff 3d 00 00 00 00
       -0.014521524 0.0002525646 0.12465313 0.0
0000d0 b5 3c 08 3d 00 00 00 00 00 00 00 00 12 03 9e 3c
       0.03326102 0.0 0.0 0.019288573
0000e0 00 00 00 00 00 00 00 00 1f cb ae 3b 22 bd da 3c
       0.0 0.0 0.0053342725 0.026701514
0000f0 42 a7 3a 3e 09 a5 8c 3c 00 00 00 00 00 00 00 00
       0.18227866 0.017168539 0.0 0.0
