src/GraspNode/models/model_button_0117-2.pt (torch, 456119 bytes, 15 tensors)

weight f4 [64, 13]
000000 a1 b9 83 3c 40 a1 a6 3e 08 77 ce 3a 25 28 eb bd
       0.016079726 0.325449 0.0015752027 -0.11482266
000010 ee b5 d0 be 09 68 d5 3e c8 b2 8e be 0e c3 de bc
       -0.407638 0.41680935 -0.27870774 -0.027192619
000020 9f 12 be 3e 99 80 54 be 34 01 85 3e 1d 31 8d be
       0.37123582 -0.20752181 0.2597748 -0.27576533
000030 8a 68 0b bf 85 9f 02 bf 9a 75 c1 bc a8 17 b5 be
       -0.5445639 -0.5102466 -0.023615647 -0.3536961
000040 6e 7e 69 3e d8 98 ee 3d c5 56 97 3e a8 1a 19 3d
       0.22802135 0.116502464 0.29558387 0.037378937
000050 0b 51 a1 bd ba 1e c6 3e 7a 21 97 3e 2d 4d 31 bd
       -0.07876786 0.38695318 0.29517728 -0.04328649
000060 a9 0b 2d 3e be 1d a8 be 4d 2b fa bc 23 cf ac bc
       0.16898979 -0.3283519 -0.030538226 -0.021094864
000070 7b d0 af 3d 50 cf 59 3e c4 e8 fc be de a6 a4 be
       0.08584686 0.2127049 -0.49396336 -0.3215856
000080 27 fc 28 3d 41 2c c5 bd 9e ca 6a 3e ac 71 14 be
       0.041256096 -0.096275814 0.22928855 -0.14496487
000090 7e 65 32 3e 81 a4 e1 3e ee 28 02 3f e8 e7 85 3d
       0.17421529 0.4407082 0.50843704 0.06538373
0000a0 66 cd 08 bf a2 57 9f 3e 72 64 c8 3e 03 35 06 3e
       -0.53438413 0.31121546 0.39139134 0.1310616
0000b0 91 84 2f bd 0b 49 b0 bd 24 f0 a2 be a2 90 ca bd
       -0.042851035 -0.08607682 -0.31823838 -0.09890868
0000c0 5a dc 96 3e 64 00 d3 3e d3 f8 9b be d2 a5 30 3c
       0.2946499 0.41211236 -0.30463275 0.010781722
0000d0 f7 d8 07 3f 23 eb 35 bd 36 47 79 3e c4 6a a8 be
       0.5306544 -0.044413697 0.24343571 -0.32893956
0000e0 97 7b 9d 3c 24 b2 7b be 70 43 bb bd a0 3b a4 3e
       0.019223971 -0.24579674 -0.09143722 0.3207674
0000f0 3b e6 9a 3d f5 b6 9e be 5a 83 e6 bb 2f 2e ab 3e
       0.07563444 -0.3099896 -0.0070347013 0.33433673
000100 f6 94 db 3e fa 4a 82 3e 66 46 e0 3e 51 31 75 be
       0.42887086 0.25447828 0.4380371 -0.23944594
000110 fa 06 a9 bd 4a 35 9d bc 59 2f 4e bf b0 72 23 3d
       -0.08253284 -0.01919045 -0.80540997 0.039904296
000120 fc 49 cb ba 6f 75 2f be 0e 39 76 be cf f8 4b be
       -0.001550972 -0.17134641 -0.24045202 -0.19919132
000130 1c ca 58 3e 8a 2f 63 3e 70 71 93 3e 37 f3 0d 3e
       0.21170849 0.22186103 0.28797483 0.1386231
000140 d9 f7 ae 3e 7f 8e 58 3e ce 25 88 3e 60 c8 58 3e
       0.34173468 0.21148108 0.26591343 0.21170187
000150 71 39 c6 be 24 b1 c6 3e 08 ba b2 be 1a 43 82 3d
       -0.387157 0.38807023 -0.34907556 0.06360455
000160 28 df 5f 3e 18 71 c3 3e ae da f8 bc 54 e9 f4 3e
       0.21862471 0.3817222 -0.030377712 0.47834265
000170 7e 99 5a bd 48 fa 13 bf c2 b4 da 3e f6 21 bf bd
       -0.053369038 -0.57803774 0.42716032 -0.093326494
000180 15 37 be 3d f8 84 87 bd b0 8a 32 bd 25 28 a5 bd
       0.0928785 -0.06617159 -0.043589294 -0.080642976
000190 26 cc 1d be 7d 55 82 3e 8b 80 34 39 72 06 0c bf
       -0.15409908 0.25455847 0.00017214024 -0.54697335
0001a0 bf af bb bd f4 0d de be 33 71 f6 3e 04 9f 5b 3e
       -0.0916438 -0.4337002 0.4813324 0.21447378
0001b0 84 12 b5 bd 19 b4 46 bd 3e f3 49 3e 13 5f 08 3f
       -0.08841422 -0.0485116 0.19721696 0.5327007
0001c0 82 05 1a 3d 6f 71 a7 3c 59 9a a9 3e f1 d9 72 3e
       0.03760291 0.020439832 0.3312557 0.2371595
0001d0 30 2d 20 3e 9b d0 6f 3e 1c b5 13 3d 29 4b e2 3e
       0.15642238 0.2341942 0.03606139 0.44197968
0001e0 d7 cb de 3c cd 2a 23 3f 72 2f 83 bd 10 43 68 bb
       0.027196808 0.63737184 -0.06405534 -0.0035440363
0001f0 c8 87 e8 3d ef d8 8b 3e 33 65 2c 3e 7f d2 9f be
       0.11354023 0.27313945 0.1683548 -0.31215283
000200 86 f0 b4 3e 99 b3 d0 3d f9 e5 a4 3e 31 fe da 3e
       0.35339755 0.101905055 0.32206705 0.42772058
000210 53 12 22 3e da af 77 bd 08 89 9a 3e 99 e1 bc 3e
       0.15827303 -0.06047044 0.30182672 0.36890867
000220 61 2d 9f bd ee ee ea bd 2a 12 89 3e d9 88 ba 3e
       -0.07772327 -0.114713535 0.2677167 0.3643253
000230 4e 4c bb 3e 33 71 97 3e e4 14 e5 bd bf c0 b4 3b
       0.36581653 0.29578552 -0.11185625 0.005516141
000240 00 2e 75 3e c6 26 33 3f d5 10 ed be 43 71 24 3d
       0.23943329 0.6998104 -0.46301904 0.040147077
000250 ed c3 63 bc 5c dd fb 3d 25 ba df 3c a0 8d 0a be
       -0.013901693 0.1229808 0.02731044 -0.13530588
000260 7e 7d 8a 3e 5b a9 8e bd 53 3a 7b 3e 0f dc 81 3e
       0.27048868 -0.06965896 0.24533968 0.25363204
000270 b2 b3 bb 3e cf 7f ec 3c e3 99 2f 3e 86 11 08 be
       0.36660534 0.028869538 0.17148547 -0.13287935
000280 0d f3 80 3e 8f 38 a5 be 45 d4 c7 be 05 e8 05 bf
       0.25185433 -0.32269713 -0.39029136 -0.5230716
000290 27 d2 68 be 8c 51 bc 3e f8 4e e2 bd e6 3f b1 3d
       -0.22736417 0.36780965 -0.11050218 0.08654766
0002a0 c8 62 ed 3d 03 3c 94 3e 54 54 66 be 2d d7 82 3e
       0.11591107 0.28952035 -0.22493106 0.2555479
0002b0 84 82 0a be 4a 0e a4 3d fc 88 34 bf 1b 11 86 3e
       -0.1352635 0.08010538 -0.7052152 0.26184925
0002c0 54 fa 36 3d 63 c6 58 be 72 cd 1b bd a5 08 61 3e
       0.044672325 -0.21169429 -0.038037725 0.21975954
0002d0 73 27 06 bf b8 2b 95 bd 24 c6 c0 3e 5a ac f5 3c
       -0.52403945 -0.07283729 0.3765117 0.02998941
0002e0 1e 57 10 be 7f ce 64 3e 54 82 25 3f 0b 82 95 3e
       -0.14095733 0.22344397 0.6465199 0.29200777
0002f0 43 ba 94 3d 1a 0d 1a 3e 80 d3 96 be bf 90 7d 3e
       0.07262089 0.1504406 -0.29458237 0.24762248
000300 36 f5 25 3e 6f 74 16 3e 91 c2 cf 3e de 3d 1e 3e
       0.16206822 0.14692853 0.4057813 0.15453288
000310 a7 23 0f be 65 a9 26 3e ae 6c 17 3e 44 45 06 3d
       -0.13978444 0.16275556 0.14787552 0.0327809
000320 71 cd 08 3f bd 5b e6 3d 43 f9 11 be 3f 7d a0 be
       0.5343848 0.112479664 -0.14255242 -0.31345555
000330 58 c0 4a be d8 a8 a4 be 87 ec d3 bc 68 2c cb 3e
       -0.19799936 -0.32160068 -0.025869621 0.39682317
000340 92 a2 13 be a8 cc 14 be 6f c0 81 bd 2e 45 32 3f
       -0.14417484 -0.14531195 -0.06335532 0.6963681
000350 61 81 26 be 3f 42 49 3e 63 77 7e 3e 82 9f 01 3e
       -0.16260292 0.19654177 0.2485023 0.12658504
000360 78 ae c1 be 04 ec 33 3e ef 95 a0 be ce 10 07 be
       -0.37828422 0.17570502 -0.3136439 -0.13190004
000370 fe a6 1a be cc f2 59 3e b2 40 89 3e 7d f7 03 be
       -0.15102765 0.21284026 0.2680717 -0.12887378
000380 9d 98 5f be 59 4b 09 3f 27 b7 dd bd ba 65 d5 bc
       -0.21835561 0.53630596 -0.10825949 -0.026049484
000390 6a 8d 17 bf dd 0d 3a 3e 1b 49 86 bd 02 51 75 be
       -0.59200156 0.18169351 -0.065569125 -0.23956683
0003a0 11 a4 1c bd 30 af 13 3e 3b ee 0d be bf 1a 6e be
       -0.038242403 0.14422297 -0.13860409 -0.2325239
0003b0 63 b3 9d bb c5 5b 97 3e a0 85 8d 3e 19 32 d6 be
       -0.0048126443 0.29562202 0.2764101 -0.41835096
0003c0 cf 9e 97 3e 0e 8c 00 bf ea 82 9e be dc ae 42 bd
       0.2961335 -0.50213706 -0.30959255 -0.04753004
0003d0 ba ba 7a be 31 24 9d be 1e 03 45 3e d1 df 07 be
       -0.24485293 -0.30691674 0.1923947 -0.13268973
0003e0 ea 69 2e be eb 1f fe 3e fa 86 1b 3b 4c 55 97 be
       -0.1703259 0.49633726 0.0023731575 -0.29557264
0003f0 c2 ac c6 be 37 8c ef 3e bf fc 02 bf 9b 08 5e 3d
       -0.3880368 0.46786663 -0.5116691 0.054207426

bias f4 [64]
000000 b9 67 55 bc fe d7 ef bc 30 f1 8e bc e1 32 c0 bc
       -0.013025218 -0.029277798 -0.017448992 -0.023461761
000010 d9 ee 17 3d 27 6e b9 3c 00 00 00 00 0c 2e cd 3b
       0.037093017 0.022635533 0.0 0.0062615927
000020 17 dc 74 bc ff fc ea bc 00 00 00 00 00 00 00 00
       -0.014945052 -0.028685091 0.0 0.0
000030 80 86 72 bd 4b 87 20 3d 07 21 6a 3c 3c f3 0b 3d
       -0.0592103 0.039191525 0.014290101 0.034167513
000040 55 0d ad 3a ef 36 d5 bc e9 50 55 3d c3 8a c7 3b
       0.0013202826 -0.026027171 0.052079115 0.0060895397
000050 a1 e1 af bc dc ab 85 3c 55 dc 53 bd fe df 21 3c
       -0.021469893 0.0163173 -0.051723797 0.009880064
000060 f8 78 cb ba 00 00 00 00 00 00 00 00 ea 0c 71 bd
       -0.0015523722 0.0 0.0 -0.058850206
000070 e9 d7 cc bb 00 00 00 00 bf f2 e1 38 87 45 1a bd
       -0.0062513244 0.0 0.00010774051 -0.037663963
000080 e9 d1 4e bb 26 39 88 bb 1a 02 91 3d 9c f8 9c 3c
       -0.0031558222 -0.0041572032 0.07080479 0.019161515
000090 00 db 07 bd 00 00 00 00 e5 f7 ea bc 67 d2 e4 3c
       -0.03316784 0.0 -0.028682658 0.027932359
0000a0 00 00 00 00 23 25 92 3c 0e 77 10 bd 4b 3e 24 3d
       0.0 0.017839974 -0.03526979 0.04009847
0000b0 00 00 00 00 07 92 cf 3c c4 84 69 3d 00 00 00 00
       0.0 0.025338186 0.05701138 0.0
0000c0 c5 12 55 3b 00 00 00 00 59 e7 b8 3b 00 00 00 00
       0.0032512408 0.0 0.005642813 0.0
0000d0 00 00 00 00 ca 55 1f 3b 66 04 2e 3d c0 f2 52 bc
       0.0 0.002431261 0.042484663 -0.012875259
0000e0 00 00 00 00 0d 5d 8f bb 5d 14 6c bc 56 20 3a 3d
       0.0 -0.004375106 -0.014409152 0.045440994
0000f0 71 9b d8 bb 3d 44 97 bd e8 ab 9f 3c 02 d9 55 3d
       -0.006610327 -0.07386062 0.019491151 0.052208908

weight f4 [256, 64]
000000 63 61 ce 3d f2 37 a7 bd e4 a0 b7 3c c1 b5 1f 3e
       0.10077169 -0.081649676 0.022415586 0.15596677
000010 50 83 13 3c c9 4a da 3d 83 be fd 3c 90 69 37 3d
       0.009003475 0.106587954 0.030974632 0.044778407
000020 27 16 28 3e 45 84 10 3d 21 b2 62 3c 4f e0 70 3e
       0.164147 0.035282392 0.013836415 0.23523067
000030 c2 01 3d bd 2a 3f 99 3d 92 0a 00 3e 5f f0 ae bd
       -0.046144255 0.07482751 0.12504032 -0.08541941
000040 f4 44 1d 3e 3a d5 26 be 77 15 36 bd 51 07 f5 3c
       0.15358335 -0.16292277 -0.044454064 0.029910715
000050 61 28 67 bc 05 0a 14 bc aa fe 81 3d 9e 93 6a bc
       -0.014108748 -0.009035592 0.063474014 -0.014317421
000060 aa e6 f4 bc 4b 5c ac 3e 39 6e f6 bd 49 c9 f4 3d
       -0.029895145 0.33664164 -0.12032742 0.119524546
000070 b6 08 ab 3d 9e 17 00 be 07 f5 4a bd 28 9b d8 bd
       0.08351271 -0.12509009 -0.049550083 -0.10576469
000080 f4 ff 9c 3e 28 b3 83 bd 3a 17 5f 3d 99 76 b6 3d
       0.30664027 -0.06430656 0.05446551 0.089093395
000090 81 94 23 bd 57 55 f9 bd a9 c0 26 3d a6 37 5b 3e
       -0.039936546 -0.121744804 0.04071108 0.21407947
0000a0 51 da b0 3d 42 2c 0e 3e b0 cb 3c be 17 15 9c 3e
       0.086353905 0.1388407 -0.18437076 0.3048484
0000b0 7d 5d 98 bd 20 f5 25 be 3d fb 0e bd e5 89 b7 3d
       -0.074397065 -0.16206789 -0.03490757 0.08961848
0000c0 6f b9 1d 3e df 29 47 be fe 27 62 bd dd cf 59 be
       0.15402769 -0.19449566 -0.05521392 -0.212707
0000d0 87 84 b2 3c 0d a0 8c bd cd 95 c9 bd 71 e5 96 3d
       0.02179171 -0.06866465 -0.09843025 0.07367981
0000e0 1b a5 1b 3e 11 66 2c be 07 55 57 3e 2b 69 f9 bd
       0.15199701 -0.1683581 0.21028529 -0.12178262
0000f0 a6 bf 08 3d a4 2d 34 be fd 45 c5 3d 0f 67 a9 bd
       0.033385895 -0.17595536 0.0963249 -0.0827161
000100 78 53 45 3c b1 94 1e bb fa 17 34 bd 7c ac 38 3e
       0.012043826 -0.0024197514 -0.04396818 0.18034548
000110 6b 6f 71 3d 06 55 9e bd 3c a7 f6 3d f6 46 0c 3e
       0.058944147 -0.07731061 0.12043616 0.13698944
000120 a1 87 a4 bd 0e 05 c6 3b 57 47 25 3b 1f db 06 be
       -0.08033682 0.006043083 0.0025219524 -0.13169526
000130 6c 3b 7a 3c e8 05 10 be 23 ab 7b be bb 98 4a 3e
       0.015272956 -0.14064753 -0.24577002 0.19784825
000140 c4 13 2a be 13 6e 14 bd e1 35 09 be 2a 12 f9 3d
       -0.16609102 -0.036237787 -0.1339946 0.12161668
000150 ea 58 90 bd a7 83 27 3e 81 e2 23 3e ad b0 53 3e
       -0.07048209 0.16358815 0.16004373 0.20672865
000160 8d 29 f9 3d 0d f3 4c bd c9 b5 21 bd 9e 5a 3f be
       0.12166128 -0.05003648 -0.039480004 -0.18686911
000170 e8 2c b2 3d ee 35 b5 3c 94 de de 3b 90 9b 09 3e
       0.086999714 0.022120442 0.0068014357 0.13438249
000180 54 c7 38 3e ab 31 9a 3d a2 66 c0 bd 91 49 da 3e
       0.18044788 0.07529005 -0.09394576 0.42634252
000190 5c e6 9a bd fa 79 8d bd 54 e1 22 be 1a 9a d9 bc
       -0.07563469 -0.06908031 -0.15906268 -0.02656274
0001a0 3c a1 5d 3b 1e 47 04 3d 2e d2 2d 3d fb e2 fa bc
       0.0033818027 0.032294385 0.04243677 -0.03062581
0001b0 af 93 65 3d cd 52 03 be a9 39 5c be c1 86 50 3d
       0.056049045 -0.12824555 -0.2150637 0.05090976
0001c0 2a fd 37 be 78 87 f8 bd 7d 58 6d 3d 7c 0f 98 3b
       -0.17967668 -0.121352136 0.057945717 0.0046405178
0001d0 d4 a8 d3 3d c7 90 49 3c bd 57 dd 3c b2 9a 22 3e
       0.10334936 0.012302584 0.027019376 0.15879324
0001e0 9d ee 79 be e1 e9 32 3e 90 a9 3d 3e 22 ed 1c bd
       -0.2440743 0.1747203 0.18521714 -0.038312085
0001f0 c1 05 48 3d ab 56 35 be b5 aa dc bd 5b 03 31 be
       0.048833612 -0.17708842 -0.10774747 -0.17286436
000200 63 5e 9f 3d 56 ae 21 be c4 2a 0d be c4 61 18 3e
       0.07781675 -0.1578916 -0.13785845 0.14881045
000210 d9 cb ca bd 70 b5 e4 3d 16 91 4d 3d 10 83 87 be
       -0.09902162 0.11167419 0.050187193 -0.2646718
000220 c2 b0 08 bd db aa 6b be b9 f0 6e be 3a 5d 11 3d
       -0.033371694 -0.23014395 -0.23334016 0.0354893
000230 af 6c 20 bd f9 19 5a bd 02 cb 62 3d d0 c4 18 3e
       -0.03916615 -0.053247426 0.055369385 0.14918828
000240 9e 04 9b bd d5 b8 30 3e a3 1a 15 be 5a 5d c4 3d
       -0.0756924 0.17258008 -0.14560942 0.09588118
000250 4d ef 20 3e 49 a0 21 3d b1 73 2e bd 87 20 be 3e
       0.15716286 0.0394595 -0.0425908 0.3713419
000260 27 e3 e5 3b 5c 16 98 3d 23 2c 31 be f7 d0 83 be
       0.007015604 0.0742614 -0.17301993 -0.25745365
000270 37 e3 99 3c e7 90 c8 bc 7c c8 cb 3d 1b d5 cb bc
       0.018785102 -0.024483157 0.09950349 -0.02488189
000280 7f 8c c9 3d 63 f0 42 be 82 0e b8 3c dc 21 31 be
       0.09841251 -0.19037013 0.022467855 -0.17298073
000290 78 97 5f bb c5 30 45 be 9c c8 5d 3e 82 48 e8 bc
       -0.0034117382 -0.19256885 0.21658558 -0.028354887
0002a0 b7 3c 81 3d 55 e2 04 be 31 0a cf 3d db a2 1c be
       0.063104086 -0.12976964 0.10109366 -0.152965
0002b0 ad 6a 0d be 37 6b 21 be ac 87 1d 3a e2 56 47 3d
       -0.13810225 -0.15763555 0.00060092914 0.048666842
0002c0 1e 7c 15 3e e7 24 2a be b4 17 20 3d dc 73 73 3d
       0.14598128 -0.1661564 0.039085105 0.059436664
0002d0 f4 a5 fe 3c 63 62 6d bd 9d c5 42 be af 10 1c be
       0.031084992 -0.057955157 -0.19020696 -0.1524074
0002e0 58 42 95 3d a9 dc 3c bd c9 81 e3 3d 3d bf 25 3d
       0.07288045 -0.046108875 0.11108739 0.040465582
0002f0 3b 03 ed bd 23 99 16 3d 7d b6 83 bc 38 e0 0a be
       -0.11572882 0.036767136 -0.016078228 -0.13562095
000300 86 47 ff bd d2 ff 99 bd 17 9e 3e bd 01 aa 96 3d
       -0.12464814 -0.07519497 -0.046537485 0.073566444
000310 f4 5e 24 bc db 10 52 3e 68 d2 3a 3e 96 f5 b8 3d
       -0.010032404 0.20514242 0.18244326 0.09031217
000320 46 1b 1c 3e b5 2d db bd a7 24 8b bc a5 12 d1 3c
       0.15244779 -0.10702077 -0.01698525 0.025521586
000330 e4 86 66 3d de a0 bf bd 97 5a 06 3e 89 8d ba 3c
       0.056280985 -0.09356855 0.13120495 0.022772567
000340 03 24 ba bd b8 94 62 3d 07 d9 4e bc d9 17 ad bd
       -0.090889 0.05531761 -0.012624986 -0.08451814
000350 63 77 8a bd 72 75 08 3e 2f 77 bb bc c8 dc 94 3e
       -0.067610525 0.13326052 -0.02288398 0.29074693
000360 ec 0c 01 3d bf 6a 74 bb ab 38 45 3d 01 96 1a 3c
       0.031506464 -0.003729507 0.048149746 0.009435178
000370 b0 13 d2 be dd db 8a bd 87 40 b6 3b 21 3a 01 bd
       -0.41030645 -0.06780217 0.0055618915 -0.031549577
000380 87 71 3b bd 14 86 3c 3d 40 ac 96 bc 0e ce 61 bc
       -0.045762565 0.046026304 -0.018392682 -0.013782037
000390 14 c0 11 be 31 70 21 3d 44 09 fe bc 14 62 49 be
       -0.14233428 0.039413635 -0.031010278 -0.1966632
0003a0 f8 15 0f 3e e5 c4 86 bd e6 11 d2 bd 6d 98 26 be
       0.13973224 -0.065805234 -0.1025732 -0.16269083
0003b0 1c f9 14 be c6 83 dc bd e4 6c 50 3d fe 94 22 3e
       -0.14548153 -0.10767321 0.050885096 0.15877149
0003c0 80 54 08 3e ca e2 14 3e dc 33 a9 3c 1f b9 df 3c
       0.13313484 0.14539638 0.020654611 0.027309952
0003d0 ac d4 73 3e 01 d4 61 bc a3 f7 78 bd 26 02 bc be
       0.23811597 -0.013783456 -0.06078304 -0.3672039
0003e0 58 a7 95 3e f7 3b 5f 3d ec 27 79 bc a1 84 9f 3c
       0.29229236 0.054500546 -0.015207272 0.019472422
0003f0 b5 82 59 3e 19 25 45 3e 49 e9 16 3e 1d e7 d3 3d
       0.21241267 0.19252433 0.14737429 0.10346816

bias f4 [256]
000000 72 7e 2d bc 73 95 92 bc 25 4e fd bc f3 96 90 3b
       -0.010589229 -0.017893529 -0.030921051 0.004412526
000010 b3 ca c5 3c 2b 64 63 3c 6c 2a 62 3c 3c 32 3c 3c
       0.024144506 0.013878862 0.0138040595 0.011486586
000020 ee 6c 84 3c 28 97 3e 3c c6 82 a8 bc 93 e1 82 bb
       0.016165223 0.011632718 -0.02057017 -0.0039941757
000030 38 c6 94 3c 95 d3 32 3c e0 a2 5f bc 27 49 69 3a
       0.018160924 0.010914703 -0.013649672 0.0008899145
000040 fc c2 fb 3a bf 0f b0 3b bb 22 25 3c 2e d9 de 3b
       0.001920789 0.005372971 0.010079081 0.006800792
000050 06 0b 84 3c ab aa 3e bc 75 2b 45 ba bc fa 06 bd
       0.016118538 -0.01163737 -0.0007521429 -0.032953963
000060 6c c6 65 3c 83 c6 9a bc a7 5c 6b bc 87 e4 09 3c
       0.014024358 -0.018893486 -0.014365352 0.008416302
000070 75 4e dd 39 95 d5 bd 3b 8c 10 0f bc ca e9 95 3c
       0.0004221086 0.005793283 -0.008731972 0.018299956
000080 93 a3 aa 3b d4 61 4f 3c 71 64 97 3c d5 6a 61 3c
       0.005207488 0.012657601 0.018480511 0.013758381
000090 d2 98 00 bc cc 18 0f bb 9f 6f 11 3a 54 0f fb 3c
       -0.007848935 -0.0021834848 0.0005547944 0.030646957
0000a0 e3 6b c5 3c 02 5b b2 3b d6 91 2c 3c 35 26 cd bc
       0.024099296 0.005442978 0.010532817 -0.025042633
0000b0 ad 55 b9 bc 95 c7 87 3c e2 01 ab bb 0c ee d3 bc
       -0.022623861 0.01657466 -0.0052187303 -0.025870346
0000c0 18 c5 de bb 8e 65 cc 3b ca b7 5c 3c 7e 72 c3 bb
       -0.0067983977 0.006237692 0.013471553 -0.0059645763
0000d0 3e 50 b0 bc 07 74 bf bb 7f 13 49 bc 86 c2 0a bc
       -0.021522637 -0.005842689 -0.012272715 -0.00846923
0000e0 a0 0a 3e ba 38 fe dc ba 1f c7 e1 bc 18 87 ca bc
       -0.0007249508 -0.0016860431 -0.027560769 -0.02472262
0000f0 99 33 4a 3c b3 29 19 bb fc 73 aa bb f3 93 46 3c
       0.012341403 -0.0023370802 -0.0052018147 0.012120235
000100 82 b4 03 bc 9f a4 50 bc 7f 59 fb 3a 7d 79 34 3c
       -0.008038642 -0.012734561 0.0019176452 0.011015293
000110 2c c3 66 3c d6 a7 0f 3c d1 f3 a4 bc 57 a3 df 3c
       0.014084619 0.008768043 -0.020135792 0.027299566
000120 65 4b fc bb a4 39 72 bb c5 02 d7 3c 14 9a eb bb
       -0.0076994174 -0.0036960626 0.026246438 -0.0071899984
000130 2c 1c 1e 3b b4 dd 91 bc 76 55 b5 3a a0 71 1c 3c
       0.0024125678 -0.017805912 0.0013834673 0.009548575
000140 fa 1e d6 3b 19 fa 93 bc 2e 5c aa 3a 8f 04 81 3c
       0.0065344544 -0.018063592 0.0012997442 0.015749244
000150 eb 40 8e 3c d1 f0 89 3c b6 55 5d 3b 4e 1a ee bb
       0.01736494 0.016838463 0.0033773012 -0.0072663194
000160 4c 92 ab 3c e1 69 96 3c 94 25 27 3a 26 ea 53 3b
       0.020943783 0.018361034 0.0006376144 0.0032335608
000170 39 3c 02 bc 35 a2 c4 3b dd 0c bf 3c 2a 95 53 bc
       -0.0079489285 0.006000782 0.023321563 -0.012913981
000180 9a 66 83 bb 48 d2 ef bb d4 95 4c 3c 0c 94 ab bb
       -0.004010034 -0.0073187687 0.012486894 -0.0052361544
000190 1e 48 a5 3c d6 2e 5f 3b 2f 5d d8 3b af 65 64 3c
       0.02017599 0.0034055016 0.006602905 0.013940259
0001a0 05 98 8a 3c 6c 9e 25 3c 1b fd 87 bb 5e 70 ba bc
       0.016918192 0.0101085715 -0.0041500456 -0.022758659
0001b0 4b e9 90 bb 9e d7 ef 3c 37 50 c1 bc e1 02 0a 3c
       -0.004422342 0.029277619 -0.02359782 0.008423538
0001c0 8d 91 29 bc 2f 39 4c bc 46 a6 e5 3c 9c 01 fc bb
       -0.010349643 -0.0124648055 0.028033387 -0.0076906215
0001d0 8c 9d a6 bb c7 e4 e8 bc 9d 99 5f bb 90 26 2b 3c
       -0.005084699 -0.028429402 -0.003411866 0.010446206
0001e0 9e c1 ee 3c 41 0f 45 3c 24 4a 1e bc 66 0f f6 3b
       0.029145058 0.012027563 -0.009661231 0.00750916
0001f0 42 05 67 bc fb 1f d9 ba a9 4a 56 bc 44 15 aa 3c
       -0.014100375 -0.0016565317 -0.013079324 0.020762093
000200 1a 85 b5 3c 46 45 86 bb 41 88 1f 3a 1c d9 99 bc
       0.022158194 -0.0040976135 0.0006085672 -0.018780284
000210 da ed cf b9 7f 2a b3 bb d8 2b c3 bc 5f 13 72 3c
       -0.0003965933 -0.0054677124 -0.023824617 0.014775126
000220 88 5e 04 3c 3c 2f 2a 3c 8c 64 a6 ba 2b de e1 3c
       0.008079179 0.010387238 -0.001269476 0.027571758
000230 de 87 ce 3c 4b 17 6a bb 46 82 80 3a eb 1a 41 3a
       0.02521127 -0.003571945 0.000980445 0.0007366377
000240 15 bb dd ba d7 7f 73 bb 54 2a 97 3b dd b4 49 3a
       -0.0016916717 -0.0037155056 0.0046132 0.0007694492
000250 1d 6c 43 3b 06 82 b1 3c bb f7 35 3c f4 fd 81 bb
       0.002981908 0.021668445 0.011106427 -0.003967041
000260 52 79 fc bb 16 57 b8 3b 94 44 c9 bc 8a a2 39 bc
       -0.007704892 0.005625616 -0.024568833 -0.011330256
000270 20 39 bb 3b d8 89 48 bb 90 60 40 3c e0 bd bb bb
       0.005713597 -0.003059974 0.011741772 -0.005729422
000280 e6 53 b4 bb 16 28 a8 bb 5b 9d e2 ba 69 25 ec ba
       -0.0055031655 -0.0051317317 -0.0017289327 -0.001801652
000290 69 4d 80 bc f9 86 a5 3c ec 1a 64 3b 08 89 21 bc
       -0.015661912 0.020205962 0.0034806086 -0.009859331
0002a0 d4 99 6d 39 ce 76 8e bc 76 15 fe bb 0a a4 87 3c
       0.00022659387 -0.017390635 -0.007754023 0.016557712
0002b0 3e 95 e6 3c 82 74 00 bc d1 36 a0 3c 52 ad f2 bb
       0.028147336 -0.007840278 0.019557388 -0.0074059153
0002c0 05 60 00 3c ec de a8 39 72 86 88 bb 69 41 81 3c
       0.007835393 0.00032209547 -0.0041664178 0.01577826
0002d0 86 99 84 3c 04 9d ac 3b df 4d 29 3c 3c c5 5c 3c
       0.016186487 0.005267741 0.010333507 0.013474759
0002e0 f6 1d 4e 3c b5 50 a4 3c a9 72 a9 bc 93 8e 8e bc
       0.012580385 0.020058015 -0.020684557 -0.017401969
0002f0 25 16 1b 3b a7 19 19 3c 76 03 93 3c 76 96 bd bb
       0.0023664322 0.009344495 0.017945986 -0.0057857586
000300 23 32 d2 bc 9c 95 55 bc 9a 5f c4 bb 30 27 70 bb
       -0.025658673 -0.013036158 -0.005992842 -0.0036644451
000310 20 d1 51 3c 92 a5 bd 3a 71 cf a0 3b 3c a1 38 3c
       0.012806207 0.00144689 0.0049075414 0.01126891
000320 a8 3a c9 bc 2f c0 9a 3c 97 50 f3 3c 74 bb 10 bc
       -0.024564102 0.018890468 0.029701514 -0.008833755
000330 35 98 c8 3b 77 1e 8f bc 58 73 22 3c 3a 43 c7 bb
       0.00612166 -0.017470581 0.009915195 -0.006081012
000340 8c 81 11 3c 34 23 e6 bb 6d e4 a7 bb a9 5e cc 3a
       0.008880984 -0.0070232395 -0.005123666 0.0015592176
000350 37 bc 02 3b 93 d0 45 3c 53 43 18 bc 8e b4 a1 3c
       0.001994861 0.012073654 -0.009293395 0.019739415
000360 00 81 68 bc 46 e3 99 3b 5c 3a 30 bc bc 5d 87 3c
       -0.014190912 0.0046962826 -0.010756101 0.016524188
000370 a0 5a 98 3c db b7 1d 3c 63 bb c6 3b 8d 6c ad bc
       0.0185979 0.009626354 0.0060648187 -0.021169925
000380 dc 06 b2 3b 85 b7 c4 3c c7 1e 9a 3b 47 4d b8 bb
       0.0054329466 0.02401329 0.004703376 -0.0056244466
000390 21 c7 82 bb de 25 dc 3b c2 e5 8e 3c 3f ad a5 3b
       -0.003991023 0.0067183813 0.017443541 0.005056053
0003a0 bc c8 fc 3b db 5c b4 3c 29 a5 62 bd a9 7e 8f 3c
       0.007714359 0.022016933 -0.05533329 0.017516451
0003b0 e2 a2 7a bb 18 af b9 b9 57 96 7c 3b 00 14 80 3c
       -0.0038244058 -0.00035416405 0.0038541758 0.015634537
0003c0 5d 92 1d bc 28 50 b5 3c 04 f3 1f bc 7c 2f a6 3c
       -0.009617415 0.022132948 -0.009762529 0.020286314
0003d0 7d 9f 4a 3c 53 b3 4e bc f4 bb 24 3b af 6e 30 3b
       0.0123671265 -0.012615996 0.0025136443 0.0026921441
0003e0 79 7f 13 bc 5e 8e cf bc a0 95 7a 3c 12 e0 86 bc
       -0.00900256 -0.02533644 0.015294462 -0.016464267
0003f0 32 77 2e bc 8a 32 0b 3c a3 62 5a ba a0 fd 62 bc
       -0.010648536 0.008495936 -0.0008330738 -0.013854414

weight f4 [128, 256]
000000 2c cc 99 bb 38 4b 28 bd 55 4d b9 bc 41 0b 2f 3a
       -0.0046935286 -0.04108736 -0.022619883 0.0006677397
000010 df 3a 0a 3d 43 15 3c bb 75 c9 94 3c 94 e3 09 3d
       0.03374755 -0.0028699196 0.018162468 0.0336643
000020 89 9e bc 3d 39 9d 5d bc 06 73 8d bc 3b 36 50 3d
       0.09209926 -0.013526254 -0.017266762 0.05083297
000030 b4 48 79 3a d8 5e ab 3d d5 a1 ee bb e1 5c 57 3e
       0.000950943 0.083676994 -0.0072824755 0.21031524
000040 50 86 c5 bb 68 65 fd 3d 5d 41 e5 bd cd 5c 67 3d
       -0.006027974 0.12372857 -0.11194108 0.056484986
000050 04 4f 6a bd 58 27 e2 3b f1 7c 54 3e 03 fd 13 bc
       -0.05720426 0.006901663 0.20750786 -0.009032491
000060 65 e9 8d bd dc 7b eb bd 3c b8 4b 3d 35 0c 13 3e
       -0.06929282 -0.11498234 0.049736246 0.14360125
000070 e6 51 e8 bd 68 3d dc 3d 9d 2c 80 3d d4 39 07 3e
       -0.11343746 0.107539 0.06258509 0.13205653
000080 fc f5 9b bd 3d cb 33 3c 01 ad 02 bd 16 a4 97 3d
       -0.07615277 0.010973749 -0.03190327 0.07404344
000090 56 7e 03 3d c3 df 20 bd eb 37 3e bd 18 3b 40 bd
       0.032102905 -0.039275896 -0.046440046 -0.046931356
0000a0 15 7a 66 3d 6c 8f a1 bd ab 0d b3 bd 9a 4a 0f 3d
       0.05626877 -0.07888684 -0.08742841 0.034983255
0000b0 c2 8a ad 3c b1 aa b7 3d ec 67 19 3e 7f e1 b1 3c
       0.021184329 0.08968104 0.1498105 0.02171397
0000c0 db 81 8d 3d f7 4a a9 bd e1 47 e0 3b c4 c7 1c 3d
       0.069095336 -0.082662515 0.006844506 0.03827645
0000d0 ca 08 21 bd 8a 4b 0b 3d 31 e8 86 3c 84 b8 bc bd
       -0.039315023 0.034007587 0.01646814 -0.09214881
0000e0 4f d4 b9 3c fd 59 01 3e 78 e6 0e 3d 57 9f f4 bc
       0.022684244 0.12631984 0.03488776 -0.029861135
0000f0 ca be 4b 3d 2f 38 0c bc 73 28 85 3d 55 b2 8a 3b
       0.049742498 -0.008558317 0.06501856 0.0042326846
000100 5d 4b a5 bc 12 bf 50 3d a3 b1 b1 3c 71 07 55 bd
       -0.020177538 0.05096347 0.02169115 -0.05200905
000110 9d be e1 bd 80 4b 29 bc 78 6c 03 bd de 90 0a 3e
       -0.11022685 -0.010332942 -0.032085866 0.13531825
000120 40 a5 89 3d 29 16 ab 3b 79 25 86 3c f0 f9 74 3d
       0.06720972 0.0052211476 0.01637529 0.05980867
000130 1b 30 33 3d 64 b9 07 39 d7 f1 4d 3c 05 4d 2c 3d
       0.04374705 0.00012943667 0.012569866 0.04206564
000140 7c e9 63 bd 91 8d 2f bd b2 b0 b5 bc 90 6b 05 be
       -0.05564259 -0.042859618 -0.022178981 -0.13029313
000150 9a c2 f0 3d 2b f4 62 bc 44 08 e0 bc 32 0d 7c 3c
       0.11755867 -0.0138521595 -0.027347691 0.015384005
000160 b5 d9 ca 3c 97 60 0d 3e 8d 20 ae bd fc 0f 34 3d
       0.024762014 0.13806377 -0.08502302 0.043960556
000170 4a 0c 30 be 73 0c a3 bc f0 aa e1 3c 42 33 e3 3d
       -0.17192188 -0.019903397 0.02754733 0.11093761
000180 ed a9 1f 3d b7 f9 12 3d a0 9b 3f bd 29 4f 25 bd
       0.038980413 0.035882678 -0.046779275 -0.040358696
000190 62 0e 34 3d 5f 99 0b bd 38 e3 dd 3c 3c 52 f0 bc
       0.04395903 -0.034081813 0.027085885 -0.029336087
0001a0 5d fb 68 bc 72 e2 ba 3c 5b 5a e4 3c ba 5f 28 3d
       -0.014220086 0.022813056 0.027875116 0.041106917
0001b0 af 18 2b bd 7f 3c b0 3c 74 48 59 3c de 01 13 bd
       -0.041771587 0.021513222 0.013261903 -0.035890453
0001c0 2f f4 e9 bd 13 1f 15 3e 9c 01 67 bd d1 89 ca bd
       -0.114235274 0.14562635 -0.05639802 -0.09889568
0001d0 ae 87 61 bd db db 11 3d 07 a9 79 bb 3a 49 3f bd
       -0.055061035 0.03561006 -0.0038095133 -0.046700694
0001e0 27 bc aa 3c 03 36 6d 3d df 54 f9 bb 35 4e cf bc
       0.020841671 0.057912838 -0.0076089944 -0.025305847
0001f0 56 ac 18 3c df 4d 80 bb 87 34 ca bd dc 1a 6e 3d
       0.009318432 -0.003915533 -0.098733 0.058131084
000200 67 3a 28 3c da a0 e3 3c 12 f2 6b bc 91 a9 a8 3d
       0.01026783 0.027786661 -0.014400976 0.08235467
000210 ab a9 c6 bd 8f b0 58 3d e7 76 8e bd 05 51 9b 3d
       -0.0970033 0.052902754 -0.069562726 0.075838126
000220 57 f1 89 bc 29 91 83 3d 4d 24 3e 3c da 42 ba 3d
       -0.016838713 0.064241715 0.0116053345 0.09094782
000230 2b 36 ab bc b0 ef 8d bd e9 08 22 ba bc 12 1c bd
       -0.020899853 -0.069304824 -0.0006181137 -0.038103804
000240 19 88 44 bd 86 67 03 3e 82 a7 95 bc 21 47 e9 bc
       -0.047981355 0.1283246 -0.01826835 -0.0284763
000250 de fb 59 bc ff df 6c bc d4 35 d8 bc 9f 29 bb bc
       -0.013304679 -0.014457702 -0.026392855 -0.022846995
000260 16 78 11 3d 84 37 3c bd ce 08 a2 3c 35 28 16 3d
       0.035514913 -0.04595138 0.019779589 0.03665944
000270 8a c0 a0 3d 98 ed ab bc d5 74 3b bd 29 94 20 bd
       0.07849224 -0.020987317 -0.045765717 -0.039203797
000280 ad e8 9a 3c ac 57 eb 3c cf f4 84 3d 08 84 4c 3d
       0.018909777 0.028728329 0.06492006 0.049930602
000290 f1 83 62 3c 1f 26 19 3d ea 94 eb 3d 14 6a fb bc
       0.013825403 0.03738987 0.115030125 -0.03069023
0002a0 85 32 a3 bc 1a be fe 3d 00 dd 79 bc ea f8 02 be
       -0.01992155 0.12438603 -0.015250444 -0.12790266
0002b0 7a dd 90 3d e0 0c d9 3d 85 5c c3 3d 04 4c 73 b9
       0.07073493 0.10598159 0.09539131 -0.00023202604
0002c0 a7 0b 17 3d 6b 4c 74 3d 0c 32 b8 3c a2 c0 2a 3c
       0.036876347 0.05964319 0.022484802 0.010421904
0002d0 a9 14 20 3c 7d bd 2a 3e 89 41 82 bd 96 7e 45 3b
       0.009770551 0.16673847 -0.06360156 0.0030135266
0002e0 fb 06 e8 3d c4 12 e3 3c 82 a4 48 3e ae 15 23 bd
       0.113294564 0.02771891 0.19594005 -0.039815597
0002f0 b3 5d 01 3d 96 22 c4 3d e2 ba 7a 3d 5d 0a cc bb
       0.0315835 0.09576909 0.06121338 -0.0062268213
000300 7d ca 02 3e e3 32 bc 3d e3 2c 1b bd 38 30 c6 3d
       0.12772556 0.09189393 -0.037884604 0.09677166
000310 cf 9f d3 bc 30 50 3a 3e f3 2a c4 bd 58 84 f2 3d
       -0.025833039 0.18194652 -0.095785044 0.11841649
000320 03 72 97 bd 07 85 04 bd 6d 18 fc 3c 5d a1 ce bc
       -0.07394793 -0.032353427 0.030773366 -0.025223428
000330 bc 1f 0a 3d f7 f6 b5 bd d3 62 83 bb 1c 07 90 3c
       0.03372167 -0.088849954 -0.0040095835 0.017581515
000340 7a cb 3f 3c 9d 4b d4 bd f8 64 63 3b ca bd 62 bd
       0.011706227 -0.103659846 0.0034697633 -0.05535678
000350 f5 8e 5d bb 70 fe 4c 3c 56 68 e5 3b 84 c1 87 3d
       -0.0033807133 0.0125118345 0.007000963 0.06628707
000360 8f 7e 5c 3d 1f b1 21 3e 0a ff 6c bd 62 5c ae 3c
       0.053831633 0.15790223 -0.05786041 0.021284286
000370 19 ab 24 3b 89 7b 12 bd cb b8 2a bd 0f bc ab bd
       0.0025126396 -0.035762344 -0.04168014 -0.08385479
000380 9c 05 99 3d 23 4c a6 ba 8e ac ee 3d e7 6d 08 3e
       0.07471773 -0.0012687485 0.11654006 0.13323174
000390 9d e7 3f 39 df 6a 05 3d 51 11 c2 bc 82 a7 fc 3d
       0.00018301462 0.032572623 -0.023689898 0.12336637
0003a0 dc 72 83 bd 57 1a 20 be e2 11 ba bc 38 64 bd 3b
       -0.06418392 -0.15635048 -0.022713605 0.0057797693
0003b0 5a 80 c3 3c 98 0a e0 bc c2 33 00 3e 14 ac ae 3a
       0.023864914 -0.027348801 0.12519744 0.001332643
0003c0 0a 8e b8 bd ca 2f 11 3d 2a b6 0b be 40 13 b7 bd
       -0.09011467 0.035445966 -0.13643709 -0.089392185
0003d0 47 1b e1 bd b2 6e d6 bb d4 49 d4 bd ea 6a f3 bc
       -0.10991531 -0.0065439576 -0.10365644 -0.029714067
0003e0 db 09 36 bd 0e 6b 46 bd c4 e3 ff bd e2 5e ec 3c
       -0.044442993 -0.04844194 -0.12494615 0.028853837
0003f0 c0 0b 24 bd 71 88 b4 bc 61 f7 86 3d ff b9 12 3c
       -0.04005027 -0.022037717 0.065901525 0.008955478

bias f4 [128]
000000 97 a4 e9 bc 8e c3 9d 3c 5e 15 42 bc 27 a6 b3 bb
       -0.028520865 0.019258287 -0.011845915 -0.0054824534
000010 6e ed 41 3c a0 ac ec 3c 38 53 c9 bc d4 57 36 3c
       0.011836393 0.028890908 -0.024575815 0.011129338
000020 b8 52 d6 3b 7c ce b3 3c b5 f6 be bb 02 9e 7e 3c
       0.0065406226 0.021949045 -0.0058277496 0.015540602
000030 c1 08 1a 3c 68 71 3d 3b 25 be e5 3b a4 e6 5f bc
       0.009401501 0.0028906707 0.0070111924 -0.013665829
000040 aa d7 ec 3b 1e 50 97 bc 45 a2 af 3b b1 41 26 3d
       0.0072278576 -0.01847082 0.00535992 0.040589992
000050 29 b1 cb bc 5d de a8 bb 2c 0b ed 3c 90 db 6d bc
       -0.02486475 -0.005153461 0.028935991 -0.01451768
000060 c6 a0 86 3b 02 f4 44 bc c9 39 f3 3c 4a 56 4d 3c
       0.004108521 -0.012021067 0.02969064 0.01253278
000070 b1 2e cf 3b 45 50 36 bb f4 8e 4b bd 4d 9e ce 3a
       0.0063227047 -0.002781884 -0.049696878 0.001576373
000080 02 7a bb bb fc 82 a1 3c 65 94 37 bd b1 ab 85 3b
       -0.0057213316 0.019715779 -0.044819254 0.004079305
000090 50 34 ba 3c f9 70 2e bb 8b c5 a8 3c 75 d7 8a bc
       0.022730023 -0.002661763 0.020602008 -0.016948441
0000a0 78 97 51 bb 71 92 8d bc c2 2d d9 bc 16 be 02 3d
       -0.0031981152 -0.017281743 -0.026511077 0.03191956
0000b0 0e 51 42 3c 27 a5 c4 3c ea dc 33 bc 92 81 4b 3c
       0.011860145 0.024004532 -0.010977963 0.012421029
0000c0 7a 91 23 3c 68 81 03 3c c2 f4 15 3c a9 97 22 bd
       0.009983415 0.008026458 0.009152593 -0.039695416
0000d0 28 8f dd bb 8c e3 88 3a 25 29 94 ba 44 b4 d4 3b
       -0.0067614503 0.0010443791 -0.0011303766 0.006491216
0000e0 66 68 6b bc a3 52 43 3c 14 a2 02 bd a8 e1 02 3c
       -0.014368152 0.011921558 -0.03189285 0.007988371
0000f0 c5 e5 42 3b f1 9f c1 3c aa 5c c6 bc 21 d4 2b bd
       0.0029739004 0.023635836 -0.024214108 -0.04195035
000100 ab 88 14 3a ec c9 b0 3b c3 77 70 3c 49 48 12 bc
       0.0005666117 0.0053951647 0.014676991 -0.008928367
000110 5c 35 e2 3b a8 88 40 3c f1 03 cf bb e1 71 31 bc
       0.0069033336 0.011751331 -0.0063176085 -0.0108303735
000120 94 ad 7b 3c 3e 0e 46 3c 9b 2b ef 3b ca 69 a4 3c
       0.0153612085 0.012088357 0.0072988993 0.020069975
000130 09 b0 c4 3b f0 9f b6 bc b4 16 2e bc 26 e9 0d bd
       0.0060024303 -0.022293061 -0.01062553 -0.034646176
000140 86 87 80 3c 1c 3e dd 3c ae 7a 8d ba 40 da 2e 3d
       0.015689623 0.027007155 -0.0010794008 0.04268861
000150 b9 5e 9d bb dd 8c 9c bc 57 9a 70 bc b1 ed df bc
       -0.0048025516 -0.019110138 -0.014685235 -0.02733502
000160 6b 4d 90 bc 55 03 0c bd 94 c8 2d bc 81 73 fe bc
       -0.01761504 -0.034182865 -0.010606904 -0.031060936
000170 fc 72 0a bd 3d 1f 0e 3d 64 85 1d 3c 65 13 30 bc
       -0.033801064 0.03469776 0.009614322 -0.0107468115
000180 6a fb 49 3c 05 61 9d 3c d3 7f b2 3c 30 c9 05 bc
       0.012328008 0.019211302 0.021789467 -0.008165643
000190 da ba 22 bc 06 62 14 3d 1b ac ae bb 73 b5 c0 bb
       -0.009932244 0.036226295 -0.005330575 -0.0058810054
0001a0 1b 1a 89 3b ba fc 82 bc 5a 27 9e 3c 2c ef 85 bc
       0.00418402 -0.01598965 0.019305874 -0.016349398
0001b0 b7 41 92 bc 81 0d c2 bc 8a 95 96 bb 4d 0f 12 3d
       -0.0178536 -0.02368808 -0.004595463 0.035659123
0001c0 be 07 1d bb 7c 0e f3 ba 99 2f 5f 3c 5b a4 df 3c
       -0.0023960914 -0.0018543745 0.013622188 0.02730005
0001d0 81 f0 27 bd 1c 1e 01 bc 9a 99 91 bc fb 76 c8 bc
       -0.041000847 -0.007880714 -0.017773438 -0.024470797
0001e0 89 e8 a3 bc 31 f8 8e 3b ff 7f 09 3c 86 66 00 39
       -0.020008342 0.004363083 0.008392333 0.00012245224
0001f0 24 47 70 bc 0e 9f 76 3c 95 cc c5 3c 3f e9 1a bc
       -0.014665399 0.01505257 0.024145404 -0.009455024

weight f4 [14, 128]
000000 74 bc a0 3c fb f5 e3 3b 2f 25 90 bb 6f aa 5f 3b
       0.019621111 0.0069568134 -0.004398964 0.0034128686
000010 bd 28 99 bc 6e 9a dd bc 60 10 8a bd 17 40 8b 3c
       -0.018696183 -0.027051177 -0.067414045 0.016998334
000020 fb 23 6d bb 92 12 79 bd cb 6e 25 bc 05 6e d8 3c
       -0.0036184776 -0.060808726 -0.010097216 0.026419649
000030 88 53 b8 3a 42 11 3d 3b bc 3c a6 bc a6 c9 9c bc
       0.001406298 0.0028849398 -0.020292632 -0.019139122
000040 66 d8 12 3d 8a f3 94 bc bd a3 30 3d 4e 6a 55 bd
       0.035850905 -0.018182535 0.043124903 -0.052103333
000050 ba 53 4b 3d 84 88 e8 3a 88 a9 e8 3c e8 7c 9f 3b
       0.049640395 0.001774088 0.028401151 0.004867185
000060 ab de ff 3b 24 98 37 bd bc 06 f5 bc 8a 13 10 3c
       0.0078085265 -0.044822827 -0.029910438 0.008793721
000070 33 57 7c bc 11 d3 49 3c 67 39 f0 3c de 8f 52 3b
       -0.015401649 0.012318389 0.029324247 0.0032129209
000080 f8 a8 17 3d d1 43 dd bb 7d c0 1c 3d 20 52 a7 3b
       0.037026376 -0.006752469 0.03826951 0.0051062256
000090 25 2e eb bc 60 cf 9c bb f2 ca 1e bd 10 e5 0e bd
       -0.028708527 -0.004785463 -0.038767762 -0.03488642
0000a0 f1 3e a3 bc 39 78 ac 3b 0d 2a e3 ba 44 c8 e3 bc
       -0.019927474 0.005263355 -0.0017331258 -0.027805455
0000b0 56 cf 32 3c f5 a7 92 b7 21 35 f6 3b bf bb f2 bb
       0.010913691 -1.7482767e-05 0.0075136577 -0.007407635
0000c0 aa fc 35 3c 56 88 c6 3b 58 0b ca 3c 30 b9 4b 3d
       0.011107603 0.006058733 0.024663612 0.049737155
0000d0 4d be 42 ba d2 c1 12 3c d4 75 4f ba be 2c 3a 3c
       -0.000742887 0.008957343 -0.0007913981 0.011363206
0000e0 73 10 2e bc eb 4e 3e 39 91 34 35 3d 52 57 83 bc
       -0.010624039 0.00018149211 0.044239584 -0.016032849
0000f0 7b 6a 57 3b be 84 56 bd 87 aa c2 bc 7d 2b 39 3d
       0.0032869864 -0.052372687 -0.023762954 0.04520749
000100 19 46 03 3b bb 66 60 bc 5a 6e 84 bb 27 9d a3 bc
       0.0020030795 -0.013696368 -0.0040414752 -0.019972397
000110 6b dc aa bc 1f 9c 13 bd ed dd 29 bc 79 fc 47 bb
       -0.020857057 -0.03603756 -0.010367853 -0.0030515476
000120 99 4e f8 bb a7 ec e3 bc 3a dc 6c 3d 25 1b ab 3c
       -0.007577729 -0.027822806 0.057827212 0.020886967
000130 6c d5 2b 3c 2f 3d 02 3c a9 b4 1e 3c f1 aa 80 3d
       0.010487895 0.007949158 0.009686627 0.062826045
000140 fa 67 cf 3b 0a c1 91 bc 79 93 ab b9 06 3b 23 bd
       0.0063295336 -0.017792244 -0.00032725537 -0.03985121
000150 69 d4 fe 3c 29 e7 04 3d 2b 98 8f 3c d8 15 1f 3d
       0.031107144 0.032447014 0.017528614 0.03883919
000160 29 e9 f6 bb 99 45 b7 3c 3f e0 c9 3c 07 31 8d 3d
       -0.007535119 0.022372054 0.024643062 0.06894117
000170 2a ff 0e 3d 12 76 f4 3c a1 3d 70 3d a5 bb ff bb
       0.034911312 0.029841457 0.058652524 -0.0078043514
000180 d5 be b2 38 4c 1f a5 bc c1 b4 a7 3a de c8 b2 3c
       8.523247e-05 -0.020156525 0.0012794958 0.021824297
000190 0a 03 37 3a e2 78 31 bd 58 07 36 3c 0d 5e 7c 3c
       0.0006981349 -0.043328173 0.011110149 0.015403283
0001a0 6a 13 03 bd da 9e bf 3c 7b bc 46 ba 9e 72 23 3c
       -0.032000937 0.023391176 -0.00075811864 0.009976057
0001b0 c5 88 4d bc af 8c f0 3b 03 ac 0c 3b 01 26 84 bd
       -0.012544815 0.0073409895 0.0021464832 -0.06452561
0001c0 c2 4d e6 3b 76 0e 7d 3c e0 a4 14 bb c5 eb cf bb
       0.0070283124 0.015445342 -0.002268128 -0.0063452446
0001d0 25 2f 05 3d ee f2 41 3c d2 22 2a 3b fb 88 76 3c
       0.032515664 0.011837704 0.0025960696 0.015047307
0001e0 74 e5 02 3c d0 99 cc 3b 31 eb 4f 3d 2b 7e 22 3d
       0.007989276 0.006243922 0.050761405 0.039671104
0001f0 58 f8 a6 bc 43 07 7f bc e9 89 89 3b c4 f6 06 3d
       -0.020382091 -0.015565696 0.0041973484 0.032950178
000200 01 24 cb 3c 77 35 96 bd 9c cd af bc 28 c8 5a bc
       0.024797441 -0.07334416 -0.021460347 -0.013353385
000210 64 33 ed 3c 27 74 80 ba db d4 1d 39 c7 37 7d 3d
       0.028955169 -0.0009800241 0.00015051982 0.06182077
000220 4b 41 23 bd ba d3 07 3d 57 1f 88 3d 10 b4 40 3d
       -0.03985719 0.033160903 0.066466026 0.04704672
000230 eb d8 9a bc c3 da 93 3c cd b7 4b bd f8 03 47 bc
       -0.018902263 0.01804865 -0.049735833 -0.012146942
000240 5d b0 8a bb 82 ec a2 bb d8 14 16 ba 3e e3 55 3b
       -0.00423245 -0.0049720416 -0.0005725152 0.0032636668
000250 fd 58 8a bc d3 68 1e 3d b4 7f 63 3c 1d 04 83 3d
       -0.016888136 0.038674187 0.013885427 0.06397269
000260 42 58 58 bd 17 8d 9a ba 92 00 30 bd 1d b6 e8 3c
       -0.052818544 -0.0011791316 -0.042969294 0.02840715
000270 74 ce 4b 3c a2 dd b7 3c 4f 6a 24 3d fa d7 09 bd
       0.012439359 0.02244455 0.040140446 -0.033653237
000280 6c 74 53 3d f0 3a 9e b8 a6 0a 19 bd 4a 17 2a 3c
       0.0516247 -7.545005e-05 -0.03736367 0.010381529
000290 93 00 21 3c ed 4f 49 bd dd 71 2c bd 96 30 02 ba
       0.009826797 -0.04914849 -0.042100776 -0.00049663463
0002a0 32 1d b5 3c a3 95 72 bc b2 4d a8 bc 18 11 17 3d
       0.022108648 -0.014806184 -0.02054486 0.036881536
0002b0 2a 0a 03 3c 4a cf 25 3b ea 0f 7d bc 0f 9a b8 3c
       0.007998029 0.0025300556 -0.015445689 0.022534398
0002c0 8e 79 b5 3c 56 b0 64 bd fe fc 06 bc 89 59 07 bc
       0.022152688 -0.05583223 -0.008239029 -0.008261093
0002d0 80 4e 40 bd 81 ce 86 bc 30 3d 33 3d b1 80 65 bd
       -0.046949863 -0.01645589 0.043759525 -0.056030933
0002e0 35 02 fd bc 60 5f 96 3c 77 06 ef bb a1 f3 ee bc
       -0.030884841 0.018356025 -0.007294472 -0.029168906
0002f0 b4 54 d3 bc e9 8f 4f 3c d0 03 3f bd b4 3d e3 bc
       -0.025797226 0.012668588 -0.046634495 -0.027739383
000300 67 ef 73 bc 0d 02 f6 bb 35 8e 41 3c 4b 8b dc 3c
       -0.014888621 -0.0075075687 0.01181369 0.026921889
000310 2e 68 0d 3c 17 8e a1 bd 40 c1 af 3d 8f 8b cf bb
       0.008630795 -0.078884296 0.085817814 -0.0063337754
000320 1d 3b b3 bc f8 aa 0e bd f8 c1 62 3b fc f0 2b 3d
       -0.021878773 -0.034831017 0.0034600478 0.041977867
000330 f7 9d 2d bd 19 9b 6b bc c6 10 88 bc bd ad 06 bd
       -0.042386975 -0.01438024 -0.01660956 -0.032880533
000340 36 9d d2 3b 3c 32 37 bc f8 18 1a 3b 3b 8c bb 3c
       0.0064274324 -0.01118141 0.0023513418 0.022894016
000350 75 11 6c bd e2 d9 ed bc a0 d9 0c 3d 69 cd 5c 3c
       -0.057633836 -0.029034559 0.03438723 0.013476708
000360 60 17 2d bc e0 8f 31 bc 21 f7 df bc 0d b3 72 bd
       -0.010564655 -0.010837525 -0.02733952 -0.059252787
000370 c4 95 63 bc 72 f6 b6 bc a6 a7 e2 bc 7a e8 f2 bc
       -0.013890687 -0.022334311 -0.027667832 -0.02965187
000380 61 2b a1 ba 18 3a 9d 3c 86 ef 14 bb 21 24 69 bd
       -0.0012296253 0.01919274 -0.0022725775 -0.05691922
000390 65 da 18 3d 57 40 bf 3b eb 5f e3 3c 79 32 61 ba
       0.037317652 0.0058365273 0.027755698 -0.000859059
0003a0 d7 44 9d 3b 8e 3c a0 bd dc 22 30 3c 3e ae 2c bc
       0.004799466 -0.0782405 0.010750499 -0.010539589
0003b0 ad 2a c5 bc 16 83 33 3d eb 74 be 3c af 92 17 3d
       -0.024068201 0.043826185 0.02324911 0.037005123
0003c0 06 2d 78 bc 46 dc 49 bd 58 4d e0 bb 85 b0 56 bd
       -0.015147453 -0.049282335 -0.0068451576 -0.052414436
0003d0 f8 da 88 bb 03 37 35 bd 8a d6 5f bc 52 ba 12 bb
       -0.0041764937 -0.044241916 -0.01366199 -0.0022388888
0003e0 1b ab dc bc 72 7f 28 bd 5c 9e 9d 3b 1b a3 28 bd
       -0.026937058 -0.041137166 0.0048101377 -0.041171174
0003f0 ee 4a 3f bd f0 bf f4 3b 97 2a 81 3c af 4a 12 3b
       -0.046702318 0.00746917 0.015767379 0.0022322347

bias f4 [14]
000000 e1 ad 19 bd 2d 6a 45 bc 4e b6 0a bd f5 8e e7 bb
       -0.03751934 -0.01204924 -0.033865266 -0.0070666024
000010 b7 15 57 ba df c1 8d bc 04 3f 75 bc 92 a8 08 3d
       -0.0008204835 -0.017304359 -0.014968637 0.033363886
000020 1f f7 16 3c d7 99 ea b9 f9 6e 9e 3c c7 ac e8 3c
       0.009214192 -0.00044746578 0.019340025 0.0284027
000030 0f 7b 12 3d 7e 09 11 3d
       0.03576189 0.035409443

weight f4 [64, 13]
000000 97 60 b9 be 0a cc 28 3f 4d 00 d6 3d 8d 43 35 3e
       -0.36206505 0.6593634 0.10449276 0.1770155
000010 72 9f 92 3c 00 22 88 be c5 4a 62 3e de f4 9a bd
       0.017898295 -0.2658844 0.22098835 -0.07566236
000020 97 4a b3 3b f7 10 05 be 46 5a a1 3e d2 08 c6 be
       0.0054715383 -0.12994753 0.31514186 -0.38678604
000030 6e 96 b4 3c 7e 09 3b 3f 79 fe 6d be 3b 32 c7 3e
       0.022044387 0.7306136 -0.23241605 0.3890551
000040 d8 fa 82 3d f2 bf ee 3d 35 cf 20 3e 4c e7 68 bd
       0.06395501 0.116577044 0.15704043 -0.056861207
000050 3f 1b 4d 3e 5a 51 1a be c8 48 8b be 98 8d 9b 3d
       0.20029925 -0.15070096 -0.27203965 0.07595366
000060 6e 51 81 3e 88 a5 c0 3d e0 78 9d 3e 2e ff 67 be
       0.25257438 0.094065726 0.30756283 -0.22655937
000070 da bb 3e 3f 08 7c a3 3c 3a 46 ca 3d 3e 39 e5 3c
       0.7450539 0.019956604 0.09876676 0.027981397
000080 05 fa 96 be 69 21 99 3d 4a 94 ce bd 5d 76 b6 be
       -0.29487625 0.074770756 -0.10086878 -0.3563718
000090 08 d1 88 bc 2e 40 50 3e 86 3e 04 3e de 88 01 be
       -0.016701236 0.20336983 0.12914476 -0.12649867
0000a0 65 67 bc be e7 f9 9f bd 09 f6 43 be fc 16 34 bd
       -0.36797634 -0.07811337 -0.19136824 -0.043967232
0000b0 e8 cb b6 3d e9 48 04 bf dd 87 48 be ae 8d be bc
       0.08925611 -0.5167375 -0.19583078 -0.023260918
0000c0 66 2e 2c 3e 4e 78 c3 be e7 71 0e bf 2e 24 a4 3d
       0.16814575 -0.38177723 -0.5564255 0.08014713
0000d0 0c 1d 39 bd 15 b6 9c be 04 4f a1 3e ce ba ac be
       -0.045193717 -0.30607668 0.31505597 -0.3373627
0000e0 bc d7 bc be bc 31 41 3e 50 c7 9b 3e 5d 80 9a bd
       -0.36883342 0.18866628 0.304255 -0.075440146
0000f0 3f 25 aa 3d 0b 98 19 3e 72 e0 c4 3e 3e 00 0b bc
       0.083078854 0.14999406 0.38452488 -0.008483944
000100 18 45 1d bf da cc 70 3e 5d 50 e9 bd 2d ac de 3e
       -0.61433554 0.23515645 -0.11392281 0.43490735
000110 f9 d3 4c be 6c 5f 1d be dd da bf be b8 41 fd 3e
       -0.20002736 -0.15368432 -0.37471667 0.49464202
000120 05 5e 19 bf 98 ae cb 3d ce 14 88 3d ac dd 0b 3e
       -0.5990909 0.099454105 0.06644593 0.1365878
000130 3d 23 04 bd b4 f6 a4 3e 48 c1 ec bd cf 89 01 3f
       -0.03226017 0.3221947 -0.11560303 0.50600904
000140 1b a5 0a bf b0 3a 1a 3e 54 6d 82 be f5 c8 11 3e
       -0.5415818 0.1506145 -0.25474036 0.14236815
000150 c6 b2 2e be e3 14 5b 3e f6 dd ef 3d 45 dd 3a 3e
       -0.17060384 0.21394686 0.117122576 0.1824847
000160 b5 1a 45 be 15 3c df be 58 63 4f bd b9 b6 4a be
       -0.19248469 -0.43600526 -0.05063185 -0.19796266
000170 da 80 f5 bc 94 1b f3 bd 7e 6a 8c be d3 0a ef 3e
       -0.029968668 -0.118704945 -0.27424997 0.46687946
000180 bc 04 c9 3d fe c8 a5 3f 23 2e 32 3e fc 94 37 3e
       0.09815356 1.2951963 0.17400412 0.17927927
000190 90 58 0d bf 9c 1f b3 3e ce 31 e7 bd 43 0b b5 be
       -0.5521326 0.34985054 -0.11288796 -0.35360155
0001a0 52 ff 33 be b7 59 a9 3e 52 31 ad be 7d f7 75 3e
       -0.17577866 0.3307626 -0.3382669 0.2402019
0001b0 6f fa 06 3d c1 da 83 3e 5d 6d ac 3e 49 c0 a1 3e
       0.032953676 0.25752833 0.33677188 0.31592014
0001c0 21 2e 29 be 7c ce eb 3e 0e a4 52 be 3e 37 10 3d
       -0.16521503 0.46055973 -0.20570394 0.035208933
0001d0 b9 d6 61 3e c0 44 50 3d 13 74 b0 be 5a 5e 5d 3e
       0.22054566 0.050846815 -0.34463558 0.21618024
0001e0 f4 3b be be 31 0d 8b 3e 06 a2 da 3d 18 d7 80 3f
       -0.37155116 0.27158502 0.10675435 1.0065641
0001f0 be 10 0b 3e ac 92 c1 bc 8a d2 1d bf 46 ca 0b 3f
       0.13580605 -0.023629509 -0.6164938 0.5460552
000200 35 77 4d bd 15 b1 86 3e 05 00 73 3d 29 f1 b7 be
       -0.050162513 0.26306978 0.05932619 -0.35926178
000210 30 a5 06 3e 7b d2 97 bd b9 52 65 3e 72 78 88 3e
       0.13148952 -0.07413193 0.22394837 0.26654392
000220 16 2b c3 3e 8d 72 46 be 70 2a 06 bf e1 16 38 be
       0.3811881 -0.19379635 -0.52408504 -0.17977478
000230 78 2a 02 be 21 d3 03 bf 86 0c 9b be 23 d0 bd 3e
       -0.12711513 -0.5149403 -0.30282992 0.37072858
000240 60 30 07 bc 9b 44 1f be 52 46 57 be ae a0 9a 3d
       -0.00825128 -0.15553515 -0.21022919 0.075501785
000250 30 c6 26 3e 2f 65 6b 3f 2e 35 9c 3b 2f 7a 22 3f
       0.1628654 0.9195127 0.0047670817 0.6346769
000260 d4 49 f8 3c 96 c4 a3 3e 92 2d fa be ed 14 21 3d
       0.030308641 0.3198592 -0.48862892 0.039326597
000270 12 4f e9 3d 40 ce 02 bf 9e 4c 0c 3e 39 ce 6a bc
       0.113920346 -0.5109596 0.13701102 -0.014331394
000280 73 e0 54 bd 60 88 9d be dd 47 a5 be 22 a3 4a 3d
       -0.051971864 -0.30768108 -0.3228139 0.04947198
000290 40 dd 9e 3e 77 c1 1e 3c 13 c3 02 3f 3c 86 c0 be
       0.31028175 0.00968968 0.5107891 -0.37602413
0002a0 57 da 85 bd 16 1a 51 bd c6 e5 fc 3d 2d 55 78 be
       -0.06535786 -0.051050268 0.12348513 -0.24251242
0002b0 fe 4f de be 22 0c 5e 3e 82 11 1a bf ef f9 d1 bd
       -0.43420404 0.21684316 -0.60182965 -0.10252749
0002c0 93 bf 49 be cb 51 46 3e 29 c8 1c 3d a1 d3 ae be
       -0.19701986 0.19367139 0.038276825 -0.34145835
0002d0 40 9d a6 be 01 d5 e4 bd a7 ba 98 be 96 aa 5f bc
       -0.32541847 -0.1117344 -0.29829904 -0.013651511
0002e0 da 5a ed be 36 55 a5 3d 35 19 98 be 60 1d 18 3d
       -0.46358377 0.08072893 -0.2970673 0.03713739
0002f0 7a 12 e5 3d 9c 92 ad be 09 74 be be 50 cc 43 3d
       0.11185165 -0.33900917 -0.37197903 0.04780227
000300 ce 69 95 3d 52 e0 8f be 46 c8 fa be b0 a7 cb 3e
       0.07295571 -0.2810083 -0.48980922 0.39776373
000310 20 ce 1c be 83 72 a8 3e 75 8b f5 3d 72 15 1f be
       -0.15313005 0.32899866 0.1198949 -0.15535524
000320 30 20 1a 3e ec dd c1 be b5 59 92 be 0d 6d d1 be
       0.15051341 -0.37864625 -0.28584066 -0.40903512
000330 62 be db be 32 58 80 bb 6e 92 89 3e 7c 4a 3a 3c
       -0.42918688 -0.0039167637 0.2686953 0.0113702975
000340 dd e8 db bc 35 99 61 3e de b1 27 bd 15 b8 99 3e
       -0.026844436 0.220311 -0.04094111 0.30023256
000350 d1 b2 81 be 81 e0 70 bd 19 72 6f be 1c 58 a7 3e
       -0.2533174 -0.058807854 -0.23383369 0.3268441
000360 85 16 c9 be 32 be 1a 3f 9f 16 0a be 9f 0a 18 3e
       -0.39274994 0.60446465 -0.13485192 0.14847802
000370 72 59 8f bd 01 93 9d be f4 5c fd bb fb 06 22 3e
       -0.06999482 -0.30776218 -0.007732028 0.15822975
000380 f0 d8 ea 3d 0b 7e e8 be 36 bc cf bd ae 05 76 bf
       0.11467159 -0.45408663 -0.1014332 -0.96102417
000390 8e c6 8f be 75 73 ee 3e 6b c2 43 3d 15 71 66 be
       -0.28081173 0.46572462 0.047792833 -0.22504075
0003a0 a5 f8 92 3e d2 36 cc bd 1e 6d 9a bc aa f7 e4 3e
       0.28705326 -0.09971394 -0.01885086 0.44720203
0003b0 69 a5 07 bb ab e5 dc bd bc 59 cc 3d ce 96 25 bd
       -0.0020697957 -0.10785993 0.09978053 -0.04042702
0003c0 d4 b7 18 bf f7 8f cf 3d 48 6e 9e bc 92 cd 96 3e
       -0.596555 0.10134881 -0.019339696 0.29453713
0003d0 b1 e4 b5 3e ed 4d df 3e 4e 11 aa 3d e7 34 be 3d
       0.3552604 0.4361414 0.08304082 0.09287434
0003e0 eb 2e 5b 3e 0b fd 5b bd e7 77 19 3e 32 0d eb be
       0.21404617 -0.053708117 0.14987145 -0.45908505
0003f0 a3 f4 d7 ba d2 09 5f bf 27 ac dc 3d 9a 4f b6 3c
       -0.0016476106 -0.8712436 0.10775023 0.022254754

bias f4 [64]
000000 00 00 00 00 00 00 00 00 00 00 00 00 00 00 00 00
       0.0 0.0 0.0 0.0
000010 06 4a 1e 3c 1c 16 58 3d ed f3 3a bc 7b 03 d5 3d
       0.009661203 0.05275546 -0.0114106955 0.104010545
000020 50 8b d1 3c 63 6b 30 3e 7f 7f ec 3d 39 56 7d 3d
       0.025579125 0.17228465 0.115477555 0.061849806
000030 00 00 00 00 83 0b 20 bc 55 c9 01 bd 00 00 00 00
       0.0 -0.00976837 -0.031686146 0.0
000040 e4 7c 45 bd 32 22 17 be 66 55 7f 38 26 75 de bd
       -0.048214808 -0.14759138 6.087627e-05 -0.10862188
000050 74 92 6d 3d 48 78 1f 3c cd 7b 43 bd 58 48 cf bd
       0.058000997 0.009733267 -0.047725488 -0.1012122
000060 32 55 2f bd 64 6f dc 3c fc e2 59 bd 00 00 00 00
       -0.042805858 0.026908584 -0.053194985 0.0
000070 2f e2 2e 3d 01 1a d8 3d f0 84 0b 3e 2b 76 01 bd
       0.042696174 0.10551835 0.1362493 -0.031606834
000080 62 ce 9d bd 6c 9d 8a bc fa 78 fd 3d 47 a4 06 3e
       -0.0770538 -0.016920768 0.1237659 0.13148604
000090 00 00 00 00 b1 2c 99 bd e0 26 67 bc 00 00 00 00
       0.0 -0.07479227 -0.01410839 0.0
0000a0 19 3b f2 3d 05 b9 32 bc f0 6a 0f 3b 4c ab a5 3d
       0.11827678 -0.01090837 0.0021883808 0.08089313
0000b0 3b 0d 97 bc fb 69 f1 bd a9 75 9c bd 86 74 2f 3c
       -0.018438926 -0.11787792 -0.076396294 0.010708934
0000c0 29 13 77 bb f3 a9 a5 3a fd e5 ff 3d 00 00 00 00
       -0.003770063 0.001263915 0.12495039 0.0
0000d0 de 36 9b 3c 58 25 b0 3a 00 00 00 00 ce 70 77 3c
       0.018947061 0.0013438864 0.0 0.015102578
0000e0 00 00 00 00 00 00 00 00 7a cb e5 3d 17 bc 87 3d
       0.0 0.0 0.11220451 0.06627672
0000f0 50 e3 42 bb be 62 ac 3d 2a 88 cb bc d6 d4 cb bb
       -0.002973754 0.08417271 -0.024845202 -0.0062204404
