src/GraspNode/models/model_button_0118.pt (torch, 456183 bytes, 15 tensors)

weight f4 [64, 13]
00000000: ce27 8dbd 2624 9b3e 24d2 27bc 37c0 0ebe
00000010: b822 f7be 91a0 8d3e 26d9 adbd 58f6 793c
00000020: 06e8 a43e 0c3e 48be 8b25 723e 5158 acbd
00000030: d68f bbbe 84f8 fbbe 8e0d ddbc 9794 b6be
00000040: 59d2 543e e472 013e 1038 983e a4f8 373d
00000050: f63e 2fbd 1173 d23e ec6c 9a3e 0a04 bdbe
00000060: 82ca 883e 9c2d 34be 7032 e93b e0b7 06bb
00000070: 2561 d23d c593 763e d4e3 eebe a1c6 9fbe
00000080: c001 b93c c6ca fabd 10fa 5b3e 1dad 2ebe
00000090: 3ab0 0b3e d246 793e 11e6 113f 65e3 983d
000000a0: a880 0abf 0c3b 9b3e f1a7 bf3e 1d29 093e
000000b0: d269 3fbd 0871 e0bd 68e0 a5be aa9e 5dbe
000000c0: 9314 a43e 6293 ab3e 459f 5cbe 65e8 2b3e
000000d0: 48ed 073f 3ee5 18bd 7b4e 7c3e 5fdd a2be
000000e0: 6816 7b3c dea6 6ebe 31fd e3bd 765e 993e
000000f0: 25f5 6bbb 3f97 9ebe d718 f33d 53c1 d03e
00000100: 45ca f03e 2ece 893e f668 e23e 0708 72be
00000110: 71f7 b1bd 2092 36be 49c2 1fbf 72c1 e13d
00000120: 6483 96bd 3ae3 1fbe 3da4 83be d576 43be
00000130: c60d 763e 2c24 be3e 7071 933e 37f3 0d3e
00000140: d9f7 ae3e 7f8e 583e ce25 883e 60c8 583e
00000150: 7139 c6be 24b1 c63e 08ba b2be 1a43 823d
00000160: 28df 5f3e 1871 c33e aeda f8bc 7340 e03e
00000170: 001e 85bd 55f9 13bf 6a44 d43e 7617 3abe
00000180: c730 083e 41e2 40bd 9e1e f4bc 8ba1 90bd
00000190: a11d 15be 3642 1a3e 2f6d 3a3e bd2a c9be
000001a0: 0b05 74bd a1b4 dcbe d931 f93e 55a8 e53d
000001b0: d966 b2bd 975f 1dbd 2db7 263e f17e fe3e
000001c0: 0eef 9dbc ad23 043d d67c 3d3e 7b1c 513e
000001d0: 3ab6 55bd 15b9 8b3e c90f 8c3d 842b f33e
000001e0: bf45 433d fe9e 1a3f e5c3 0d3b 65e1 1d3d
000001f0: 88b9 733d 8a1e 7c3e 38b6 053e d7c4 b6be
00000200: c6c4 ab3e be4a 4c3d f9e5 a43e 31fe da3e
00000210: 5312 223e daaf 77bd 0889 9a3e 99e1 bc3e
00000220: 612d 9fbd eeee eabd 2a12 893e d988 ba3e
00000230: 4e4c bb3e 3371 973e e414 e5bd bfc0 b43b
00000240: 002e 753e c626 333f d510 edbe 4371 243d
00000250: edc3 63bc 5cdd fb3d 25ba df3c a08d 0abe
00000260: 7e7d 8a3e 5ba9 8ebd 533a 7b3e 0fdc 813e
00000270: e326 df3e 8704 563d 69af 483e 6541 cabd
00000280: 176b 5e3e 504b 99be 5dda 92be 1c22 24bf
00000290: 688b 28be 78ed a93e 5752 f93b 0aea 29be
000002a0: a47e 183d c9eb 6a3e 7c3f 8cbe 19db 523e
000002b0: 6c32 10be a3bf ce3d 1a4c 31bf 8a4a 593e
000002c0: 6e2a ee3d 717c e1bd 3db5 ed3b da67 823e
000002d0: 0b24 dbbe c54f a0bd 76c8 a93e bfcb ae3c
000002e0: 54c4 16be a8ee 5c3e 5f3c 1b3f 5afa b23e
000002f0: 0ba5 a83d d612 523e 7e9d 7ebe c263 773e
00000300: 6473 023e 1375 093e 505d b23e 7949 a9bc
00000310: 3e8a 8cbe 908d 033d e272 abbc a62a 5ebd
00000320: be1f 0d3f 1547 4ebd d815 b0bd baf9 0cbf
00000330: f274 87bd e15d e7be 56a8 713c 9908 c13e
00000340: cd79 f9bd ecc4 0ebe 7e4a 7cbd 3e81 3c3f
00000350: 9966 23be 9e9e 453e 1b08 8b3e e3fb 033e
00000360: e77a acbe 00ca 123e 4686 d7bd cb91 54be
00000370: 4bec 5abe 23ad 793e 8b86 5f3e 7eec 31be
00000380: 008e 8cbe dffd fa3e 8f55 05be e627 76be
00000390: d19c 07bf 44a4 0d3e 7a18 71bc 7780 56be
000003a0: 758c edbd 5b93 423e 0c6e 18be a31b 46be
000003b0: 07f5 853c e8df a33e b68f 8a3e b582 cbbe
000003c0: 7273 1c3f 2972 0cbf 2388 90be 67c9 bcbd
000003d0: 4bab aebe 22b5 cfbd b056 013e a489 25be
000003e0: 9dad 17be db86 023f e575 f2bb 8305 82be
000003f0: 3cda c7be 69b8 0b3f 9cd6 09bf 9f4b e1bb
-0.06892358 0.30301017 -0.0102429725 -0.13940512 -0.48268676 0.27661565 -0.084886834 0.015256487
0.3220827 -0.19554919 0.23647134 -0.084152825 -0.36633176 -0.4921304 -0.026984002 -0.3566024
0.20783366 0.12641484 0.29730272 0.044914857 -0.042784654 0.41103414 0.30161226 -0.36917144
0.26717 -0.17595524 0.0071166083 -0.0020556375 0.10272435 0.24079807 -0.46658194 -0.3120623
0.022583842 -0.12245707 0.2148211 -0.17058225 0.13641444 0.24343422 0.5699168 0.07465247
-0.54102564 0.30318487 0.37432817 0.1339459 -0.046731777 -0.10959059 -0.3239777 -0.21642557
0.32046947 0.33510882 -0.21545132 0.1678787 0.5309644 -0.037327997 0.24639313 -0.31809518
0.015325166 -0.23305842 -0.11132277 0.2995488 -0.0036004272 -0.30974767 0.11869972 0.40772495
0.4702932 0.26915115 0.44220704 -0.23635875 -0.08689774 -0.1782918 -0.6240583 0.11023225
-0.073492795 -0.15614024 -0.2571124 -0.190883 0.24028692 0.37136972 0.28797483 0.1386231
0.34173468 0.21148108 0.26591343 0.21170187 -0.387157 0.38807023 -0.34907556 0.06360455
0.21862471 0.3817222 -0.030377712 0.4379917 -0.06499863 -0.57802325 0.41458446 -0.18173012
0.13299857 -0.047090773 -0.029799756 -0.07062062 -0.14562084 0.1506432 0.18205713 -0.3929042
-0.05957512 -0.4310656 0.48670843 0.112137474 -0.08711023 -0.03842124 0.16280814 0.49706224
-0.01927903 0.032260586 0.18504652 0.2042102 -0.052175738 0.27289644 0.06838948 0.47494137
0.047673937 0.6039885 0.0021631655 0.03854503 0.05950311 0.24621025 0.13057792 -0.35697052
0.33548564 0.049875967 0.32206705 0.42772058 0.15827303 -0.06047044 0.30182672 0.36890867
-0.07772327 -0.114713535 0.2677167 0.3643253 0.36581653 0.29578552 -0.11185625 0.005516141
0.23943329 0.6998104 -0.46301904 0.040147077 -0.013901693 0.1229808 0.02731044 -0.13530588
0.27048868 -0.06965896 0.24533968 0.25363204 0.43584356 0.05225041 0.19598164 -0.09875754
0.21720539 -0.2994027 -0.28682223 -0.64114547 -0.1645943 0.33188987 0.0076086926 -0.16593185
0.03723015 0.22941507 -0.27392185 0.20591392 -0.14081734 0.100951456 -0.69256747 0.2121984
0.116291866 -0.110100634 0.0072542713 0.25469857 -0.42800936 -0.07827715 0.33160752 0.021337388
-0.1472333 0.21575415 0.60638994 0.34956628 0.082346044 0.20514998 -0.24864766 0.24159148
0.1273933 0.13423567 0.34836817 -0.020664917 -0.2744922 0.032117426 -0.020928804 -0.05423989
0.5512656 -0.050360758 -0.08597916 -0.5506855 -0.066141024 -0.4518881 0.014749607 0.37701872
-0.12181435 -0.13942307 -0.06159448 0.7363471 -0.15957107 0.19298789 0.2715462 0.12889056
-0.33687517 0.1433487 -0.105236575 -0.2075874 -0.21379201 0.24382453 0.21828668 -0.17375371
-0.27452087 0.49021813 -0.1302092 -0.24038658 -0.5297366 0.13832194 -0.014715308 -0.20947443
-0.11599056 0.19001524 -0.1488573 -0.1934648 0.01635219 0.32006764 0.27062768 -0.3974816
0.61113656 -0.54861695 -0.28228864 -0.09218102 -0.3411506 -0.1014197 0.12630725 -0.16165787
-0.14812322 0.50987023 -0.007399308 -0.2539483 -0.39033687 0.5457826 -0.5384309 -0.00687547

bias f4 [64]
00000000: 9575 45bd 0e3e 01bd 9e02 443c bd8c 06bd
00000010: 58a3 1f3d 15bf cc3c 0000 0000 a62e 7bbc
00000020: 6e34 44bc b257 8d3b 0000 0000 0000 0000
00000030: 04db febc d85f 04bc 16b5 c63b 35a0 c1bd
00000040: deb4 333c 8083 aabd dc50 963d 4d1b 863c
00000050: f9bf 8fbc 7b9f 3a3c 0c7f 94bd f93e 543c
00000060: 191e 67bc 0000 0000 0000 0000 dc89 77bd
00000070: 0000 0000 0000 0000 d1ed b938 81fc c5bc
00000080: 8734 5c3c c083 39ba 09ac 32bc 0000 0000
00000090: 1da2 8fbc 0000 0000 3b77 bbbd 5652 3c3c
000000a0: 0000 0000 5518 d0bc 0000 0000 3dc5 d63c
000000b0: 0000 0000 3f92 c63c 6745 603d 0000 0000
000000c0: 2ee2 a1ba 0000 0000 aacb d0bb 0000 0000
000000d0: 0000 0000 ebfe 79bb 948a 453d e41a 5ebb
000000e0: 0000 0000 3787 e83b 48c6 e33b d869 de3b
000000f0: 0628 cbbb 6aa9 9dbd 4ff1 d2b9 2a76 0b3d
-0.048207838 -0.03155332 0.011963515 -0.032849062 0.038974136 0.024993459 0.0 -0.015330946
-0.011975391 0.0043134326 0.0 0.0 -0.031110294 -0.008079492 0.0060640676 -0.09454385
0.010968415 -0.08325863 0.073396415 0.01637044 -0.017547594 0.011390562 -0.07250795 0.012954467
-0.014106297 0.0 0.0 -0.060434207 0.0 0.0 8.865784e-05 -0.024168255
0.013440258 -0.0007076822 -0.010905274 0.0 -0.017533356 0.0 -0.09153601 0.01149424
0.0 -0.025402227 0.0 0.026217097 0.0 0.024239657 0.054753687 0.0
-0.0012350732 0.0 -0.006371935 0.0 0.0 -0.0038146328 0.04822786 -0.003389054
0.0 0.007096197 0.006951127 0.00678752 -0.0061998395 -0.07698329 -0.0004023411 0.034048237

weight f4 [256, 64]
00000000: 3daa cd3d ddf2 25be c17f c73c cd38 273e
00000010: f321 04ba 3d37 dd3d d8f3 ec3c 6756 3f3d
00000020: b48f 123e 0c72 093d 771d 413c aec6 6e3e
00000030: d563 34bd 2d1e 9b3d 4757 fc3d a76d b3bd
00000040: 06ee 3e3e be17 2bbe 1383 2bbd 4bd0 f43c
00000050: 763d f3bc 676e 683c 5cc1 7a3d db41 2ebd
00000060: 7bc9 b0bc 9d4f ab3e 7b3b f2bd 88c7 e13d
00000070: eb04 ae3d 51fc fbbd 4a5a 53bd 9caf d3bd
00000080: 5c4a a13e f9ab 88bd b884 643d b9a2 ba3d
00000090: c731 9abc a787 fdbd a44d 1e3d f594 563e
000000a0: 03a8 ac3d 6949 0c3e cebe 3ebe be33 973e
000000b0: b18f 9cbd 2aa0 12be 447b e5bc 33bc bb3d
000000c0: 42cc 443e 7e43 49be 986b 57bd 7ce9 5bbe
000000d0: 024f c33c f56c 88bd fa49 c6bd c1b0 0c3e
000000e0: babe 1d3e 3267 2fbe b245 553e 0b3c f4bd
000000f0: 6ee9 c43d 0cab 36be af13 c13d 4b25 a7bd
00000100: 0b4d cc3b 191f 9f3b 8dde 06bd c986 463e
00000110: 4a32 9d3d e40d a5bd e9b1 fe3d a460 093e
00000120: 329f 6abd 2ffa 1e3c c14b d33b d3d5 02be
00000130: 4c13 7e3c e54d 13be 7535 77be 3098 523e
00000140: 9b37 3fbe 17f0 1fbd 9e88 15be 0183 043e
00000150: c423 26bd cd73 3c3e 5a4f 183e 26ba 633e
00000160: 563a 0e3e 0dde 3cbd c7ca 31bd c08d 5bbe
00000170: 9046 aa3d 020c 953c 51c3 2f3c 708d 083e
00000180: d35c 193e bc9d a23d 0c3d bcbd 9b47 d83e
00000190: d1c9 aebd 786f 85bd 2ac2 19be f890 08bd
000001a0: 6978 ef3b 3e9e 153d 61aa 3d3d 649c 3cbd
000001b0: 7ba8 753d a6c4 0dbe fd4f 81be c371 403d
000001c0: 1666 3fbe 0c7d f0bd d904 5d3d b95b 0c3c
000001d0: 689e cb3d 6b34 093c 2bd3 183d 6469 1e3e
000001e0: e5f3 7dbe 4d39 373e f9ac 413e 4956 2fbd
000001f0: bad3 b23d 88db 3cbe 4aa0 d4bd be35 2cbe
00000200: bc74 883d 7f5a 2abe 88a9 07be 05cc 0c3e
00000210: 8bd6 54bd cedd fd3d fb7f 153d 8ad0 7ebe
00000220: 3be5 0dbc 81c8 79be ebf4 7cbe f797 b23c
00000230: 276e 5ebd 9ff9 23bd 3396 253d 9142 123e
00000240: a84e 1bbe 1cd5 2c3e 678e 11be d6f1 dd3d
00000250: f008 f43d 6565 0d3e fffd 62bd 4160 a53e
00000260: bcf5 143a 191c 783d f127 23be a587 97be
00000270: 3d2a 053d fed9 30bc 26c0 af3d 0637 01bd
00000280: 86ac ef3d 731a 51be fbb5 183d f91d 23be
00000290: c3f1 97bc f734 53be 6864 503e d7e7 c8bc
000002a0: 6368 4a3d 3cd4 12be 0406 b33d 4857 18be
000002b0: d96e 1bbe e1a0 cdbd 9688 dabc f767 7f3d
000002c0: 9209 023e 1929 38be bdb5 583d bf62 3b3d
000002d0: 5164 373d d54f 35bd 53e3 33be 651e 10be
000002e0: 9e4a b13d e16c 75bd 6871 c73d b5ba 643d
000002f0: 1307 fcbc 14d0 cf3c 45da f3bc 948a febd
00000300: acdb febd 43d5 ccbd cc34 54bd d9c8 b33d
00000310: ebd1 89bb 59d2 4e3e cd61 3e3e 83c3 b53d
00000320: 873e 2f3e 2bd5 d3bd 774e 5dbc f38f ed3c
00000330: 2b96 6f3d 0151 c8bd cf79 083e 65ef c73c
00000340: 5ad2 fdbd 2f3b 503d d2be c1bb 17c0 93bd
00000350: 2002 fcbc c7b9 073e fba3 e0bc 4fbe 963e
00000360: 8886 c23c a411 84b9 91fa 363d 573a 863c
00000370: 74db d3be 23fb 91bd 351a 143c 6d9e 04bd
00000380: 6d4c 10bd b5cc 4a3d a7a3 b9bc 0f64 8dbc
00000390: b86f 0fbe 4bae 2f3d c23d f2bc fc67 3cbe
000003a0: 5da5 123e 873f 7fbd fbf2 cabd 53e7 22be
000003b0: b769 11be f74a 13be d884 8f3c 9905 1f3e
000003c0: 1995 153e 2f72 183e 7b8a 8a3c 3936 fc3c
000003d0: 4745 703e 8f68 8dbc a718 6ebd 9059 bbbe
000003e0: 40df 933e 3d89 6d3d 7d1d 41bc f73f 863c
000003f0: 8cb5 723e 3ae4 3e3e af78 1a3e d1a1 d73d
0.10042236 -0.16205926 0.02435291 0.16330262 -0.0005040459 0.108015515 0.028924868 0.04671326
0.14312631 0.03355603 0.01178681 0.23317978 -0.04404052 0.07574115 0.12321334 -0.08761149
0.18645486 -0.16708276 -0.04187305 0.029884478 -0.029692393 0.014186478 0.061219558 -0.042543273
-0.021580448 0.33459178 -0.11827751 0.11024386 0.08497032 -0.12303985 -0.05159978 -0.10336229
0.31502044 -0.06673426 0.055790633 0.09113068 -0.018822564 -0.12379389 0.038648263 0.2095526
0.08430483 0.13699879 -0.18627474 0.29531664 -0.076445945 -0.1431891 -0.02801288 0.091667555
0.19218543 -0.19654652 -0.052592844 -0.21475786 0.023841385 -0.06661407 -0.09682079 0.13739301
0.15404788 -0.1712921 0.20827368 -0.11925515 0.09614836 -0.17838687 0.094275825 -0.0816141
0.00623477 0.004856002 -0.032927085 0.19387354 0.076756075 -0.0805929 0.124362774 0.13415772
-0.057280727 0.009703203 0.0064482396 -0.1277688 0.01550753 -0.14385183 -0.24141486 0.20565867
-0.18673556 -0.039047327 -0.14602897 0.12940599 -0.040561453 0.1840355 0.1487402 0.22238979
0.13889441 -0.0461102 -0.043406274 -0.21440792 0.0831424 0.018194202 0.010727719 0.13335204
0.14976816 0.07940242 -0.09191331 0.4224213 -0.08534587 -0.065154016 -0.15015474 -0.033341378
0.007308055 0.036527865 0.046305064 -0.046047583 0.05997513 -0.13844547 -0.2525634 0.04698349
-0.18691286 -0.11742601 0.0539597 0.00856679 0.09942323 0.008374314 0.03731076 0.15469891
-0.2480007 0.17892952 0.1891364 -0.042806897 0.0873179 -0.1844312 -0.10382135 -0.16817376
0.0666289 -0.16636084 -0.13248265 0.13749702 -0.051962417 0.123958215 0.036499005 -0.24884239
-0.00866061 -0.24392892 -0.24702804 0.021800978 -0.05430427 -0.04003298 0.040426444 0.14283206
-0.15166724 0.1687817 -0.14214478 0.10837142 0.11915767 0.1380821 -0.05541801 0.32299998
0.0005682369 0.06057367 -0.15933205 -0.29595676 0.032510985 -0.010794161 0.08581571 -0.031546615
0.11702828 -0.20420246 0.037282925 -0.15929402 -0.018547898 -0.20625673 0.20350802 -0.024524612
0.049415957 -0.14338773 0.08741382 -0.14877045 -0.15179004 -0.10040451 -0.026676457 0.062355008
0.12698963 -0.17984428 0.052907694 0.04574847 0.044773404 -0.044265587 -0.17567186 -0.14074095
0.0865681 -0.05991829 0.097384274 0.05584212 -0.030765092 0.025367774 -0.029767165 -0.124287754
-0.12444243 -0.10001614 -0.051808164 0.08778543 -0.0042059324 0.20197429 0.18591996 0.088751815
0.17113696 -0.10343393 -0.013507477 0.028999304 0.05849282 -0.09781075 0.13327716 0.024406144
-0.12393637 0.050837692 -0.00591264 -0.072143726 -0.030762732 0.13254462 -0.027421942 0.2944207
0.02374579 -0.00025190145 0.044672552 0.01638524 -0.41378367 -0.07127979 0.009039451 -0.03237765
-0.035229135 0.04951163 -0.022661043 -0.017259626 -0.14007461 0.042890828 -0.029570464 -0.18399042
0.14320894 -0.062316444 -0.09909626 -0.15908556 -0.14200483 -0.14384066 0.0175194 0.15529479
0.14607657 0.14887308 0.016911736 0.030787574 0.23463927 -0.017261771 -0.05812898 -0.36591768
0.28881264 0.05799221 -0.011786816 0.016387923 0.23702067 0.18641749 0.150851 0.10528911

bias f4 [256]
00000000: cd13 4fbc 20d7 64bc 6fb8 36bd 5045 013c
00000010: 0f0e 6e3c 3f30 653b 6d67 093c 054c 003d
00000020: 898b 743c 0c98 c2ba a408 cfbc 0193 7b3b
00000030: 4c34 953c 534d 9a3b 1517 9bbc f442 603c
00000040: df31 1a39 ac10 643b b783 083c 774d a23c
00000050: 983b 9d3c 376d a4bc 351a 0d3c 39bc f6bc
00000060: d462 983b 2390 2cbc 44e5 643a f216 fdba
00000070: b539 693c 15e5 69ba 4cb7 4cbb b41d a63c
00000080: 68ea febb 7336 0d3c 867e 623c ef68 3a3c
00000090: 5d5a bfbc 25ef 30bc bd41 333c d965 e23c
000000a0: 68b9 be3c 9518 ac3b 5dbd 4e3c 88e8 e0bc
000000b0: 4045 e1bc 2bd3 1d3c d6f8 2abc ac2f eabc
000000c0: c93d f538 1eec b3bb 03b5 0d3c ed61 2bbb
000000d0: b7d0 b4bc f0de 2dbc cb3d 46bc 67ba 22bc
000000e0: 045f 97bb 9aaf 173a 2491 efbc ccfb a5bc
000000f0: 28a1 8e3c 7887 16bb 91c9 e1ba 6fda 783c
00000100: 1f2a 35bc 873c b8bb 04e7 b9bb d88d d73b
00000110: 336a 4a3c 6dfa 2d3b 8b04 86bc 3b55 df3c
00000120: bf8f 20bc 859a 41ba 33ff 063c 4afc d7bb
00000130: bc43 ce3b 407a b8bc 212c 2c3a 5498 873c
00000140: f122 da3b 0eb9 86bc bb3e 363a 14c5 a83b
00000150: 7ce0 273d e629 be3c f277 803c ee1f 0dbc
00000160: cf78 b43c 9d7d 433c 947e 99bc 384e 0f3a
00000170: dd50 b23a 3aea 663c 0ac2 f13c 2f75 97bc
00000180: 9013 0dbc 53c3 20bc eea9 093c aa4f c1bb
00000190: bb2c 323c 5850 8b3c 9aa1 af3a d991 803c
000001a0: 0a84 263c 3024 a5ba 6d8c 91bb bb0f f7bc
000001b0: c816 50bc 362a 9e3c 4a86 c1bb a57f 053c
000001c0: 8867 17bb 4f34 48ba 504b c33c 8e25 8bbc
000001d0: ec5c 52bb e009 0bbd 63d9 ddba 80f7 7d3c
000001e0: 8b68 d83c 5601 493b 2bd2 45bb 8101 053c
000001f0: f0ff 6d3b b1a6 113c 0e93 c4bc 3840 b73c
00000200: ba66 983c 34d2 663a 166b 3cba f1d8 90bc
00000210: 03f3 fcba 48a5 3bbc 6ce4 07bd e7c7 5a3c
00000220: a323 1fba 4502 e63b f6b3 68ba 090b f43c
00000230: 2e3e da3c 2f36 853c 93b7 1c3b 2c29 8fbb
00000240: 3aee 95bc 15ac 2dbc 0e00 443b d85d 063c
00000250: 2e14 00b9 f9bf 0c3d b424 f43a b88f 87bb
00000260: 2bf1 41bc 5dd0 803b 118e 6ebc ec68 73bc
00000270: 5201 1d3c 954a 44bc 03ed 443c 08d1 5abb
00000280: 6b6c 333b 98a4 e8bc 08a1 16bc b2d1 2e3b
00000290: 61f5 943c 46c5 763c 7815 373b 145c 56bc
000002a0: 716a 9ebb b8a1 37bc 884c 3abc 1653 213c
000002b0: ed57 ac3c 0e5b 92bc cf26 503c df57 e639
000002c0: 563e 653c 6f36 53bc 86c0 93bb 154f d63c
000002d0: 0c1c 2b3c 4b21 b53b 711b d63b 04a5 e13c
000002e0: ea4c 0cbd 66b6 273c 8769 40bc 8d94 15bc
000002f0: 6a6e b4bb f20c 253c a637 b73c 06e3 0abc
00000300: d94d 75bc 4615 b3bc f787 90bc c28d 3e3a
00000310: 7e01 a5ba be3c 3b3c 5c82 ce3a 1323 873c
00000320: 3dea 0bbd e11e 6c3c 73aa 8a3c 0de3 81bc
00000330: 32c8 a73b e4f6 c5ba dd77 353c 1308 11bc
00000340: b23b ad3c 48fd 88bc 9d4f ac3b 7448 ff3b
00000350: ae75 92bb d73d 253c 2074 efbb f008 3a3b
00000360: 02ad 8ebb 1fff 873b 4192 2fbc 8d80 f73c
00000370: 66c8 9a3c e3d4 ea3b 2d58 b23a e310 f1bc
00000380: a2cc f23c bd23 893c 801b 94b4 11ee 27bc
00000390: 8b27 2abc 06e0 04bc 51e2 843c ac21 39bb
000003a0: f3d4 553b 0e77 d93c 8e7d 18bd c053 ba3c
000003b0: 6ec6 23ba faf7 5b3b 99d3 093b 8c63 a73c
000003c0: 8b30 ddbb 6d36 143d ebb8 a2bb f11b 8c3c
000003d0: 0178 8e3b 3af8 37bc ad50 493c 57d4 d4ba
000003e0: ef7d 4cbb 80d0 9bbc f689 ba3c 9081 87bc
000003f0: c70c 1cbc 2c6a 4c3c 7894 9c39 4f63 01bc
-0.012638998 -0.013967305 -0.044609483 0.007890061 0.014529719 0.0034971384 0.008386475 0.031322498
0.014925846 -0.0014846339 -0.025272675 0.0038387182 0.018213414 0.004708925 -0.018931905 0.013687838
0.00014705163 0.0034799976 0.0083321845 0.019812329 0.019193456 -0.020071609 0.008612205 -0.030119048
0.004650453 -0.010532412 0.0008731673 -0.0019309206 0.01423495 -0.00089223805 -0.0031237183 0.020277835
-0.0077794082 0.008618939 0.013824111 0.011377557 -0.023358518 -0.010799204 0.010940966 0.027636455
0.023281768 0.005251954 0.01261839 -0.02745463 -0.027498841 0.009632866 -0.010435304 -0.028587185
0.00011694019 -0.005490794 0.008649114 -0.0026150898 -0.02207218 -0.0106122345 -0.0120996935 -0.009932137
-0.004619481 0.00057863595 -0.029244013 -0.020261668 0.01741083 -0.002296893 -0.0017226209 0.015188797
-0.011057406 -0.00562245 -0.005673291 0.0065781884 0.012354421 0.002654697 -0.016359588 0.02726232
-0.009799897 -0.0007385391 0.008239555 -0.0065913545 0.0062946957 -0.02251923 0.0006567855 0.016552128
0.0066569974 -0.016445663 0.00069520966 0.0051504467 0.04098557 0.023213338 0.015682194 -0.00861357
0.022030262 0.011931804 -0.018737115 0.00054666726 0.0013604421 0.01409393 0.02951147 -0.018488495
-0.008610621 -0.009812194 0.008402331 -0.0058993893 0.010874922 0.017006084 0.0013399601 0.015694546
0.0101633165 -0.0012599286 -0.004441789 -0.030158868 -0.012700744 0.019307237 -0.005905901 0.008148109
-0.002310248 -0.0007637189 0.023839623 -0.01698568 -0.0032098843 -0.033944964 -0.0016925748 0.015500903
0.026417037 0.0030670962 -0.0030185084 0.008118034 0.003631588 0.00888984 -0.023995902 0.02236949
0.018603671 0.00088051264 -0.0007187588 -0.01768157 -0.0019298497 -0.01145298 -0.033176824 0.0133533245
-0.0006070679 0.0070193135 -0.0008876914 0.029790418 0.026640978 0.016261188 0.002391313 -0.0043689217
-0.018302072 -0.01060011 0.002990726 0.008201085 -0.00012214549 0.034362767 0.0018626661 -0.0041370057
-0.011837284 0.003931089 -0.014560238 -0.014856558 0.009582834 -0.011980672 0.012019399 -0.0033388752
0.0027377855 -0.028398797 -0.009193666 0.002667528 0.018183412 0.015061682 0.002793638 -0.013083477
-0.004834466 -0.01120799 -0.011370786 0.009846469 0.02103802 -0.017865684 0.012704565 0.00043934488
0.013991913 -0.012891396 -0.0045090346 0.026160756 0.010443699 0.0055276505 0.006534033 0.027544506
-0.03425304 0.010236358 -0.01174391 -0.009129656 -0.0055063264 0.010073887 0.022365402 -0.008476978
-0.014972174 -0.02186073 -0.017642958 0.00072690484 -0.0012588946 0.011428056 0.0015755403 0.016496217
-0.034158934 0.014411659 0.01692698 -0.015855337 0.0051203007 -0.0015103486 0.011075941 -0.008852023
0.021146629 -0.016722336 0.005258514 0.0077906195 -0.004469595 0.010085545 -0.0073075444 0.0028386675
-0.00435412 0.004150286 -0.010716022 0.030212665 0.018894386 0.0071664914 0.0013606601 -0.029426998
0.029638592 0.016740674 -2.7587157e-07 -0.010249631 -0.010385404 -0.008110052 0.016221197 -0.002824883
0.0032628148 0.026546028 -0.037229113 0.022745013 -0.0006247525 0.0033564554 0.0021030663 0.02043321
-0.0067501715 0.036184717 -0.0049658916 0.017103167 0.0043478017 -0.011228615 0.012287301 -0.0016237599
-0.0031202992 -0.019020319 0.022770863 -0.016541272 -0.009524531 0.012476485 0.00029865257 -0.007897212

weight f4 [128, 256]
00000000: 0b02 aabb ac01 10bc 5cea 233d d38b eb3b
00000010: e90e 9d3c 7455 b4bd ae50 d1bb baa8 093d
00000020: f051 c33d 212c 87bd 7a95 1ebd 582d 00bd
00000030: 8c8e b0bd b186 ccbc b45d 69bd 8f01 463e
00000040: e1a1 233e 882c 0e3e 9de8 0dbe df4c 4c3d
00000050: 95a2 19be 0c19 91bd 48f1 733e 5644 fb3c
00000060: 1a2f e3bd e6d0 12be 6642 413d 3ee0 bb3d
00000070: 4f4f a0bd e843 4c3d 5f83 023e 0660 e03d
00000080: 7a6a d9bc 29c0 34bd 13fe 6e39 ee81 503d
00000090: dd70 223d 57ba f5bb 5b7f 37bc efb3 c2bd
000000a0: 9fe2 5f3d 78ff 5ebe f098 bfbc 71ad 123d
000000b0: c291 103d 0142 ba3d 409c 013e 0454 57bc
000000c0: db72 383d a000 30bd 2b46 7fbd c2df 3a3d
000000d0: 2ee8 76bc 8d65 b2bc e526 803d df88 f4bd
000000e0: 3dcf 843c e257 043e 6915 cbbc bc3c b73d
000000f0: f745 db3d 68ef d33b 89c1 573d f591 80bd
00000100: debb 85bd 60dc a43d 09e8 a83d 0917 80bd
00000110: e98f 30bc 96f7 a43a 2279 0b3c 1cad c53d
00000120: 1de7 c43c f034 513c 338f 243d 72a6 133d
00000130: 6a4d 0cbe d7af 613d 9c5d 7f3d b5b2 2f3d
00000140: 1b89 303c e55a c4bd aa9f 9bbc f45a 25be
00000150: 5c13 ee3d 3860 123d c236 60bd de1c d73d
00000160: 63f7 703d 95f8 1c3e c1a4 c0bd aedf 493d
00000170: 6867 17be 8886 003d 3c47 a83a 4865 0f3e
00000180: 3935 453c 7d6e 0c3d 89b1 00be 86b6 1d3d
00000190: fb36 7cbd 66a5 54bd 1c5e eb3d e943 a8bd
000001a0: 574e 2a3d b549 fd3c aecb 963d a513 b13d
000001b0: 5cac fcbb 2b85 113e 7a29 25bc 9f97 d73c
000001c0: 7db4 96bd 3d08 2b3e a88f 05bd 484e f0bd
000001d0: aaeb b93c 7210 923d 4c64 25bd 0e53 67bd
000001e0: 3468 3e3d b9e1 8d3d ab2a 9cbd 5174 22bd
000001f0: cbdc 98bb ea88 853d 2c61 a4bd 44ad 0c3e
00000200: 3a4b a23c 5e33 cb3c 916e b53d 5f45 2e3d
00000210: 6a41 16be fd35 8f3c 6b8b 9dbc 85d5 1e3d
00000220: f212 a3ba 68e8 363e 0243 d4bb 97fe ac3c
00000230: a3b1 bebb 8791 dfbc 6f9b fbbc 9d55 71bd
00000240: 0339 edbc e3a7 e93d 0bd9 0cbd cc5b 2d3d
00000250: d0ae 183d b26f 03bd 9041 a8bc a27c 543d
00000260: a062 663c c7cd 833c 283c b93d a46d 013e
00000270: 1e73 b83d f47c 01bd ca8f 4dbc d7b0 8dbd
00000280: a6d2 3a3c 707b b93d 87dc b63d 6cd1 bdbb
00000290: cec3 4b3d a9f8 5b3d 126b 063e 00b5 10be
000002a0: d2cc 023d bd4f 9a3d 3557 dabb 5703 2bbe
000002b0: fd4f 1e3e 66ac 5b3e 4a89 c73d ec5e 823c
000002c0: 552e 7f3d 0547 ad3d 0171 a5bc f29d 78bd
000002d0: b97e 68bd e761 653e c07c 72bd 3882 1bbc
000002e0: 93f9 043e b67c 2c3d 27c4 b13d f648 893c
000002f0: 506a 09bd 0887 773d 31e5 99bd fe7d 2c3c
00000300: 4671 cb3c 88c7 5c3d e493 c4bd 93a0 e73d
00000310: c670 c3bc 7e5d fd3d 3b7a 93bd 8f6c 563e
00000320: cb19 24be bb40 363d 1214 6ebc 5b3b 86bb
00000330: d879 963d 0a07 b1bc 538a c23d 4708 22be
00000340: 41e3 5d3c 0b95 3bbe 4897 ebbd d53d 71bd
00000350: c653 99bb a77a 983d cf52 a1bd c1ea a03d
00000360: 9a53 9abc 9823 ed3d 6fe4 21be 54fe 11bd
00000370: 6854 cdbc fdf9 493c be32 d6bd 8b1c 94bc
00000380: 7a63 353d 0d2b 453d 02ce ee3d fa7c 7a3d
00000390: 7ac1 1e3b 974d 8dbc 3e35 933c a2f0 333e
000003a0: 37c0 27be 6453 18be 5647 75bd 872f babc
000003b0: 2b19 a4bc bdaa 3e3d 6228 1f3e 2998 ea3c
000003c0: 2f81 80bd 54f2 ee3c 0a61 4bbd 6778 fbbd
000003d0: 90e1 bbbd a6c3 483d 089f 09be 74f6 b93b
000003e0: c5b4 a5bd aa71 b5bb 060e cd3b 032c f93d
000003f0: e645 ae3d 08d6 6dbd 8693 c23d 0a80 8a3b
-0.005188232 -0.008789461 0.040018424 0.007188299 0.019172149 -0.088053614 -0.0063877916 0.033608176
0.09537113 -0.06600214 -0.03871677 -0.031293243 -0.08620939 -0.02496657 -0.056974128 0.19336532
0.1597972 0.13884175 -0.13858266 0.049877997 -0.15003426 -0.070848554 0.2382251 0.030672234
-0.11092968 -0.14337501 0.047182463 0.0917363 -0.07827627 0.049869448 0.12745427 0.10955815
-0.02654003 -0.04412857 0.00022792099 0.05090516 0.039658416 -0.00749902 -0.0111997975 -0.09506976
0.054659482 -0.21777141 -0.023388356 0.035809938 0.035295255 0.090946205 0.12657261 -0.0131425895
0.04503141 -0.042969346 -0.062322777 0.04562355 -0.015070004 -0.021776939 0.062574185 -0.119401686
0.0162121 0.1292415 -0.024790483 0.08947131 0.10706704 0.0064677484 0.052674804 -0.06277839
-0.065299734 0.08049846 0.08247382 -0.062543936 -0.010776498 0.0012585993 0.008512767 0.096521586
0.024035985 0.012768969 0.040175628 0.036047406 -0.13701406 0.055099335 0.062345132 0.042895038
0.010774876 -0.09587649 -0.018997032 -0.16147977 0.11624786 0.035736293 -0.05473972 0.10503553
0.058829676 0.15329202 -0.09406424 0.049285583 -0.1478554 0.0313783 0.0012838612 0.1400348
0.012036615 0.034285057 -0.12567724 0.038504146 -0.06157587 -0.05191555 0.11492559 -0.08216078
0.041578617 0.030918935 0.073630676 0.08646325 -0.0077109765 0.14210956 -0.01008069 0.026317416
-0.07358644 0.16702361 -0.032607704 -0.11733681 0.022695381 0.07132043 -0.040378854 -0.05647569
0.046486095 0.06927819 -0.07625326 -0.03966171 -0.0046649924 0.06520255 -0.080263466 0.1373797
0.019811261 0.024804767 0.088589795 0.042546626 -0.14673391 0.017481798 -0.019231519 0.038777847
-0.0012441559 0.17862093 -0.0064777145 0.021117492 -0.005819516 -0.027291073 -0.030713765 -0.058919538
-0.02895785 0.11408975 -0.034386676 0.042323872 0.03727609 -0.032088943 -0.020539075 0.05187667
0.0140616 0.016089333 0.09044677 0.12639481 0.09006332 -0.031613305 -0.012546489 -0.06918495
0.011402762 0.09056747 0.08928781 -0.0057927873 0.04974728 0.053703938 0.13126782 -0.14131546
0.031933613 0.0753474 -0.006663228 -0.16700493 0.154602 0.21452484 0.09742983 0.015914403
0.062300045 0.084608115 -0.020195486 -0.060697503 -0.056761477 0.22400628 -0.059201002 -0.009491496
0.1298583 0.04211112 0.08679991 0.016758423 -0.033548653 0.06043151 -0.07514418 0.010528086
0.024834286 0.053901225 -0.095985204 0.11309924 -0.023857486 0.12371348 -0.07201048 0.2093985
-0.16025464 0.044495326 -0.014531152 -0.004096431 0.073474586 -0.021609802 0.094990395 -0.1582347
0.013542951 -0.18318574 -0.11503464 -0.05889686 -0.004679176 0.07445269 -0.078771226 0.07857276
-0.018838692 0.115790546 -0.15809797 -0.035642937 -0.025064662 0.012327668 -0.10458897 -0.018080017
0.04428432 0.04813676 0.116603866 0.061154343 0.0024224208 -0.017248912 0.017969724 0.17572263
-0.16381918 -0.14875561 -0.059882484 -0.02272774 -0.020031532 0.046549547 0.15542749 0.028637009
-0.0627464 0.029168285 -0.04965309 -0.12278824 -0.09173882 0.04901471 -0.13439572 0.0056751315
-0.0809112 -0.0055372315 0.0062577752 0.12166598 0.08509426 -0.058065444 0.09500794 0.004226689

bias f4 [128]
00000000: d4d4 32bd 1cc0 eb3c c134 d5bc f9da 8abc
00000010: cf49 243c b92e bd3c 02d6 1dbc bad1 093c
00000020: 50ff f6bc 29fa 15bc 73fa 143d eef6 713c
00000030: 1612 b8ba c3e7 82bd 309c c6bc 610b 8dbc
00000040: 2427 19ba f1ba 85b9 4df3 09bd 4906 3c3d
00000050: 26f9 46bd 0fd7 633c 042b d53c 4a74 afbb
00000060: 7563 8c3b 956a 64bc 2951 623d b333 033d
00000070: 242f ca3c 8dac aebc aa65 96bd bc03 c93c
00000080: b29a 08bd ed09 c63a e71b be3c 036b 35bc
00000090: 5e10 553d c608 ef3c c4fc 3bb9 e96b d0bc
000000a0: 841c ccb9 0bc3 943b d551 873c 05df 953c
000000b0: 81d5 813c 7589 9c3c 88a4 f43c 73d8 10bc
000000c0: c973 0b3c ed8b 7dba a045 023c e615 50bd
000000d0: 5bf8 623c eb88 fd3c c116 c8bc 9607 313c
000000e0: ac11 0ebc c930 b53b 097f 83bd 7cd8 113d
000000f0: ecab 2d3b e135 933c 0911 4abb f1ac 4abd
00000100: 05ab ba3b 7642 3fba 04d3 be3c 9186 bfbc
00000110: 40b4 3f3d 4793 1f3c 8ede e93a 68df b53c
00000120: 163b 45bb a213 d5bb 23bf 303c 896c ec3c
00000130: a90e cb3c 54a8 a4bc c892 6b3a d02e 5dbc
00000140: a95a b93c b51c a2bc 0274 2fbc 34ac ec3c
00000150: 03a3 8fbc 4f1b 25bd 10c4 dfbc 9966 34bd
00000160: dd93 333c e2c7 8ebc 67c1 5dbc 22f2 5bbc
00000170: a17b cbbc 21ad 0ebd af26 68bd ed39 003c
00000180: 68da 00bc c3ea 773b f712 0bbc 041f 853c
00000190: 379b 863c c59c 363d 1002 4b3b 5aea e23c
000001a0: e1ee 7bbc 7898 cebb 54b5 febc b8c4 15bd
000001b0: 6ad7 d33c 2b01 c0bc 9709 3fbb f313 463d
000001c0: 4e47 c3bc b899 a93b 0817 edbc 5401 ad3c
000001d0: ff03 45bd de70 fe3c d29d 863c a900 afbc
000001e0: a3af 8ebc f991 583c 60b8 87bd 1643 ebbc
000001f0: 08aa d7bc 5564 7c3d d931 a7ba d1c1 1b3c
-0.04366 0.028778128 -0.026026132 -0.016950117 0.010027363 0.023093568 -0.009633543 0.008411819
-0.03015104 -0.009153881 0.03637166 0.014768345 -0.0014043476 -0.06391861 -0.024244398 -0.01721734
-0.0005842319 -0.0002550702 -0.033679295 0.04590443 -0.04857745 0.013906254 0.026021488 -0.005354439
0.004284317 -0.013941427 0.05525318 0.032031726 0.024680682 -0.021322513 -0.0734361 0.024537914
-0.033350654 0.0015109159 0.023206664 -0.011072877 0.052017562 0.029178988 -0.00017927872 -0.02544208
-0.00038931158 0.0045398525 0.016518513 0.01829482 0.015848877 0.019108513 0.02986361 -0.008840668
0.008511492 -0.00096720346 0.00795117 -0.050802134 0.013853158 0.030949077 -0.024424912 0.010805031
-0.0086712055 0.0055294973 -0.064207144 0.035606846 0.0026500179 0.017970027 -0.0030832908 -0.049481336
0.0056966566 -0.0007295975 0.02329398 -0.023379596 0.04680276 0.0097397035 0.0017842816 0.022201255
-0.0030095032 -0.0065025846 0.010787758 0.028860347 0.024787264 -0.020099796 0.00089864107 -0.0134999305
0.022626238 -0.01978908 -0.010708811 0.028890707 -0.017533785 -0.040309247 -0.02731517 -0.044043157
0.010960546 -0.017429296 -0.01353488 -0.013424428 -0.024839224 -0.034833077 -0.056677517 0.007826311
-0.007864572 0.0037829138 -0.008488408 0.016250141 0.016431434 0.0445831 0.003097657 0.027699638
-0.015376777 -0.006304797 -0.031092323 -0.03656456 0.025859553 -0.023438057 -0.0029150003 0.04835887
-0.023837712 0.0051757954 -0.028941646 0.021118797 -0.048099514 0.031059679 0.016432676 -0.02136262
-0.017417734 0.013218396 -0.066269636 -0.028718513 -0.026326194 0.06161912 -0.0012755945 0.009506659

weight f4 [14, 128]
00000000: 3709 303c 4965 9d3c e80f cf38 fe59 9b3c
00000010: 79fa df3b 97cd 50bc 45c6 81bd 7925 363d
00000020: 8ac9 8abc 2782 a7bd de82 49bb 03f5 4e3c
00000030: 5fb2 613b 72ff 273d e384 1cbd 64b7 f1bc
00000040: 21f9 673c eb36 efbb 9d99 543d ebb2 60bd
00000050: 3090 0e3d 837e 06bb 087c 0c3d d807 98bb
00000060: f405 6a3a 3aba 71bd 5438 00bd be64 a83c
00000070: 54f4 d8bc c036 5dbb 9d3f 2e3d d8dd bebc
00000080: 7cd6 413d e790 713c 9cda 063d 017d c83b
00000090: ac23 1cbd 3be5 90bc 29d0 8fbc 36f6 7bbc
000000a0: 1861 b8bc 7faa 383c 38d9 eeba cc7c 29bd
000000b0: 1639 bc3c 7b96 59b9 2316 bb3c 3d42 edba
000000c0: 864e 4f3b 29c4 bc3b d7cc e23c 247b 6a3d
000000d0: 5f72 623b 0834 e93c a009 183b 42d5 a33a
000000e0: 0b5b 8dbc 3f99 023c 9d03 683d c210 1fbd
000000f0: 0626 aa3c 6800 53bc df54 23bc 3031 4a3d
00000100: 361c 03bb f0f2 88bc 80a3 6ebb 70aa 1bbd
00000110: a318 42bd 1425 5abb 99ec 57bc 74f7 2cbc
00000120: b773 04bc 0a00 663a 3e45 773d 5348 263d
00000130: ada2 c43c 46bc 2fbb 75ae 8c3c 0173 0a3d
00000140: 65a2 1d3d eddb 63bc 7354 413b 54ec 1cbd
00000150: 2378 ae3b 32d9 c03c 57b4 1e3d bf16 1d3d
00000160: 09c1 66bd f75f 673c dba2 b53b 6053 4a3c
00000170: 4f0a c13c cc4c 173d e600 8a3d 0c07 e7bc
00000180: 5c4e 883a 2c9b 0d3a 97e8 3e3c d2fa 3fbb
00000190: 0377 a33b f04a 2dbd 187a 02bc 94f6 e33b
000001a0: 2c23 fabc 1d34 943c daa5 bdbc fbaa 313c
000001b0: ad83 ffbb 697b 8b3c b660 663c ebde 92bd
000001c0: 76b5 be3c e69e 8d3c 112d 4e3b f74c 7d38
000001d0: d43c ee3c 9628 8eba 5274 08bd 71fb cfbc
000001e0: b818 353b 5314 b23b 6cd2 553d 6e60 043d
000001f0: d5e7 bebc 321d 29bd 4719 833a b027 ab3c
00000200: 2581 17bb 9afb 89bd 17d6 2cbd 3a32 953a
00000210: c219 14bc d92b 503d 3fc2 263d c134 3ebc
00000220: 8bf5 2fbd fa14 42bb 8c98 f2bb 1480 ca3c
00000230: 035f 873c 81d9 6cbb 0bb1 dbbc 02da b3bb
00000240: 9901 9c3c c7a3 ef3c f2e5 303c 4038 1a3b
00000250: 64fb 3abd 9068 4c3c 220c f23b c9af 873c
00000260: 1287 29bd f21d e13c ff1c c0b9 4b25 e03c
00000270: 116f 9a3a 1fdc 19bd d71c 9b3a 5555 52bd
00000280: 3a7c 0dbb c307 e33b 2d7b 61bc 7704 7ebc
00000290: c106 933c 5c64 003d be3b 95bd 7d46 7d3c
000002a0: 6aaa 7c3b 92c0 0dbc 002f 9bbb 452c 373d
000002b0: ec0a 1fbc cc98 a83c e76f 1e3c 4a7b 5b3b
000002c0: e227 8c3d 325b 81bd 9382 283d 4068 47bc
000002d0: fe18 03bd fb01 9cbc d829 c2bb 84f1 83bd
000002e0: 2698 37bd a835 473c d9eb 3cbc 669b da3b
000002f0: 6f31 0d3b 4c67 403d baa7 c2bc 91ec 0fbd
00000300: 9bb0 0d3d 0c31 4a3c 27d9 5bba a832 013b
00000310: 0d3a bb3c 120f aebc 4813 0d3d 8e87 413c
00000320: 8121 81bc dd9f edbc 224d 7ebc f1f2 69bc
00000330: 3e28 1fbd 61ba 21bd d64f 82bc d819 46b9
00000340: 4cb4 32bd bd7b 303d 7ed1 82bd 1e83 a13c
00000350: a0f6 81bd ee01 15bd b7de c4bc 119c bbbc
00000360: 5ef5 31bd 12a7 a13b 25c8 77bc 1230 24bd
00000370: 6266 d23a 3a84 c7bb 013e 89bc 37a8 02bd
00000380: 91c2 1abc 3ccd 43bc 7001 27bd 9d0f a7bb
00000390: b741 ca3d 3451 903c 179e 33bd 24ab 623d
000003a0: f550 35bc 4628 89bd 66ff a83c d467 31bd
000003b0: 5626 b0bc b6c5 9cbc 4c90 a6bc 3b4c c83c
000003c0: c648 f83c ac91 53bd c34c f5bc fab8 46bc
000003d0: 4f23 88bc 0cd1 69bd dde1 b7bc ca61 ea3a
000003e0: cd69 15bc dda2 26bd 6f5a cdbc 3b2f 62bd
000003f0: b83a 1ebc c090 af3c ebbd 7cba 8ecf cfbb
0.0107443845 0.019213336 9.873492e-05 0.01896381 0.0068352786 -0.012744329 -0.06336645 0.04446933
-0.016941804 -0.081791215 -0.003074817 0.0126316575 0.0034438593 0.041015096 -0.03821267 -0.029506393
0.014158518 -0.007300248 0.05190431 -0.05485813 0.034805477 -0.0020522184 0.034297973 -0.004639607
0.00089272787 -0.05901549 -0.03130372 0.02055585 -0.026483692 -0.0033754557 0.042541135 -0.023299143
0.04732369 0.01474402 0.032923326 0.0061184173 -0.038119957 -0.01768743 -0.017555313 -0.0153785255
-0.022507235 0.011271118 -0.0018222695 -0.04137878 0.02297644 -0.00020750791 0.022837704 -0.0018101406
0.0031632497 0.005760689 0.027685566 0.057246342 0.0034553034 0.028467193 0.0023199096 0.0012499469
-0.017255327 0.007971107 0.05664407 -0.03883434 0.020770084 -0.012878515 -0.009968965 0.049363315
-0.0020005829 -0.016717404 -0.0036413372 -0.03800434 -0.047386777 -0.003328626 -0.013178968 -0.010557044
-0.008084229 0.00087738095 0.06036877 0.040596317 0.024003351 -0.00268151 0.017173031 0.033801083
0.03848495 -0.013907415 0.0029499799 -0.038311318 0.00532438 0.023541067 0.038746204 0.03835177
-0.056336436 0.014122001 0.0055430955 0.01234898 0.023564486 0.036938474 0.067384526 -0.028201602
0.001039933 0.00054018456 0.011652133 -0.0029293788 0.0049885525 -0.042307794 -0.00796368 0.0069568846
-0.03053435 0.018091256 -0.023150373 0.010843988 -0.0077976794 0.01702662 0.014061144 -0.071714245
0.023279887 0.017287683 0.0031459967 6.039158e-05 0.02908174 -0.0010845836 -0.033314057 -0.025388451
0.0027633142 0.0054345517 0.052202627 0.032318525 -0.023303906 -0.04128761 0.001000204 0.020892948
-0.0023117748 -0.06737442 -0.04219636 0.0011382767 -0.009039344 0.050823066 0.04071259 -0.011609257
-0.042958777 -0.0029614554 -0.007403439 0.024719276 0.016524797 -0.0036140385 -0.02681782 -0.005488635
0.01904373 0.0292529 0.010797011 0.0023532063 -0.0456499 0.0124761015 0.0073867003 0.016563313
-0.04138858 0.0274801 -0.00036642698 0.027361533 0.0011782368 -0.03756344 0.0011834156 -0.05135091
-0.0021588937 0.0069284155 -0.013762278 -0.015503994 0.017947556 0.03134571 -0.072867855 0.0154587
0.0038553723 -0.008651869 -0.0047358274 0.044719953 -0.009707194 0.020580672 0.009670234 0.0033490234
0.068435445 -0.06316222 0.04114015 -0.012170851 -0.032006256 -0.019043913 -0.0059253983 -0.0644255
-0.044822834 0.012158789 -0.01153084 0.006671357 0.0021544357 0.04697351 -0.023761619 -0.035137717
0.034592252 0.012340795 -0.0008386545 0.0019714031 0.02285483 -0.02124742 0.034442216 0.011812104
-0.015763046 -0.029006893 -0.01552132 -0.014279113 -0.038856737 -0.039484385 -0.01590721 -0.00018892379
-0.043628976 0.043086756 -0.06387614 0.019715842 -0.06345868 -0.036378793 -0.02403198 -0.022901567
-0.04344689 0.0049332464 -0.015123402 -0.040084906 0.0016052241 -0.0060887607 -0.016753199 -0.031898703
-0.009445802 -0.011950787 -0.040772855 -0.005098297 0.09875815 0.017616846 -0.043851938 0.055338994
-0.011066665 -0.06697135 0.020629596 -0.04331191 -0.021502655 -0.019137245 -0.020332478 0.024450412
0.030308139 -0.051652595 -0.02994383 -0.012129063 -0.016618399 -0.05708413 -0.022446567 0.0017881927
-0.009119463 -0.040682662 -0.025067536 -0.055220824 -0.009657554 0.021431327 -0.0009641337 -0.006341881

bias f4 [14]
00000000: 98c1 24bd 187c 91b9 f94a 0fbd 1fc3 df3b
00000010: 46c0 20bc 6b63 263d 6f53 03bd b5d8 99bd
00000020: f62e 903c 211e 08ba b644 c83c 6559 023d
00000030: 5cf6 373d 4e0f c63c
-0.040223688 -0.00027749012 -0.03498361 0.00682868 -0.009811467 0.040622156 -0.03206199 -0.07512037
0.017600518 -0.0005192478 0.024446826 0.031823535 0.04491268 0.02417722

weight f4 [64, 13]
00000000: 9760 b9be 0acc 283f 4d00 d63d 8d43 353e
00000010: 729f 923c 0022 88be c54a 623e def4 9abd
00000020: 974a b33b f710 05be 465a a13e d208 c6be
00000030: 6e96 b43c 7e09 3b3f 79fe 6dbe 3b32 c73e
00000040: d8fa 823d f2bf ee3d 35cf 203e 4ce7 68bd
00000050: 3f1b 4d3e 5a51 1abe c848 8bbe 988d 9b3d
00000060: 6e51 813e 88a5 c03d e078 9d3e 2eff 67be
00000070: dabb 3e3f 087c a33c 3a46 ca3d 3e39 e53c
00000080: 05fa 96be 6921 993d 4a94 cebd 5d76 b6be
00000090: 08d1 88bc 2e40 503e 863e 043e de88 01be
000000a0: 6567 bcbe e7f9 9fbd 09f6 43be fc16 34bd
000000b0: e8cb b63d e948 04bf dd87 48be ae8d bebc
000000c0: 662e 2c3e 4e78 c3be e771 0ebf 2e24 a43d
000000d0: 444a 453b 8643 a3be 697e 9e3e 2b08 8abe
000000e0: 5f9a 81be e35f 373e 5531 8d3e 6ec7 7e3d
000000f0: 674d 86bd d0a2 7f3d 4469 ab3e 4582 d4be
00000100: 032e c3bd b11b f23d 9adc 4bbe 0d06 b63e
00000110: ab7a 94be 124e bebd 88d5 d0be 792d b93e
00000120: 78c8 e8be 62b7 0c3d 685f 183e 2ff9 e43d
00000130: 9eba 213e e673 c83e 9caa e2bd 34bb e43e
00000140: b931 15bf 270d 023e a0a1 b7be 368a 2c3e
00000150: 457d ffbd 0c5e 823e de66 f63d c6f0 133e
00000160: c564 06be e60e eebe 64f2 ad3d 5a63 71be
00000170: 52de 58bc 8fb1 fbbd 097f 73be cb66 f13e
00000180: 3058 843c e912 ab3f 1aee b53e 08be 7a3e
00000190: 3043 2bbf 8d19 39bd 73f8 12be 8621 98be
000001a0: 9852 69be dc6a 893e bab2 cdbe e7a1 1f3e
000001b0: 0dce 8d3c 3366 a13e dfd7 823e a3bd a93e
000001c0: 7e56 59be 9dd4 fe3e c2b6 14be c4d9 593d
000001d0: cd8b 463e 8ab4 873d cda4 c8be 1e85 3f3e
000001e0: 9fc0 bdbe bdea 743e 4089 973d 7c03 223f
000001f0: 3b79 cc3e e76b c63c 8d22 17bf 1a43 9d3e
00000200: 2064 99be 94c8 a93e 0f7f 86bc 6a58 9cbe
00000210: b72b ef3d 202b eabd 34d8 793e f0a2 913e
00000220: 45fa a73f a401 30be eb35 0ebf 34b0 d4be
00000230: 044e 1a3e daba 56bf 36c2 d2bd 2b0c db3e
00000240: 949f dbbc 976d 2bbe 05d9 4fbe 9df6 833d
00000250: 8f01 1b3e 1812 6e3f 5c09 d93d 58f9 d23e
00000260: 4400 edbb 8b41 773e f295 e5be 3f78 933e
00000270: 124f e93d 40ce 02bf 9e4c 0c3e 39ce 6abc
00000280: 73e0 54bd 6088 9dbe dd47 a5be 22a3 4a3d
00000290: 40dd 9e3e 77c1 1e3c 13c3 023f 3c86 c0be
000002a0: 57da 85bd 5d45 34bd f815 093e 848e 6dbe
000002b0: 288b d9be 06b6 663e 53d9 1bbf f915 d1bd
000002c0: d1cf 4abe ec92 453e 6f90 123d ed89 aebe
000002d0: 8550 a6be dfc8 e5bd b156 8ebe 75af cb3b
000002e0: ad2b e3be 711e c73d 4e36 a2be 296d 883d
000002f0: 5ddd 0a3e a926 b8be 9251 c0be 01bb e03c
00000300: 99f1 773d 6b15 86be d586 00bf b0a7 cb3e
00000310: 20ce 1cbe 8372 a83e 758b f53d 7215 1fbe
00000320: 3020 1a3e ecdd c1be b559 92be 0d6d d1be
00000330: 62be dbbe 3258 80bb 6e92 893e 7c4a 3a3c
00000340: 8efb 10be e42f 5a3e 564e 65bd c738 8b3e
00000350: 9303 71be 5434 83bd 87da 28bf eabc c73e
00000360: f99d 95be 81d5 603f 6723 8bbe 8e74 d53e
00000370: 8e10 bebe 15bc 65be 706f 043d c49b 2b3e
00000380: c65c 023e 56f9 ddbe 2b09 7bbd e92d 0fc0
00000390: f7c7 15bf 7ef8 a03e d0b6 9e3e f168 763d
000003a0: b537 ce3e f79b 8ebe ccae 9cbc 68bd e53e
000003b0: 1598 a439 b9ef d4bd fd64 ca3d 853d 1cbd
000003c0: 39b9 18bf 2b90 cf3d 7c4b 9ebc c6d2 963e
000003d0: 60e9 b53e bb44 df3e 6507 aa3d 74ea c8bb
000003e0: 995d 703e a33b 58bd d04c c23d 2025 e7be
000003f0: aacd a23d 6820 e7bf 6a8d 72bd c69d 11be
-0.36206505 0.6593634 0.10449276 0.1770155 0.017898295 -0.2658844 0.22098835 -0.07566236
0.0054715383 -0.12994753 0.31514186 -0.38678604 0.022044387 0.7306136 -0.23241605 0.3890551
0.06395501 0.116577044 0.15704043 -0.056861207 0.20029925 -0.15070096 -0.27203965 0.07595366
0.25257438 0.094065726 0.30756283 -0.22655937 0.7450539 0.019956604 0.09876676 0.027981397
-0.29487625 0.074770756 -0.10086878 -0.3563718 -0.016701236 0.20336983 0.12914476 -0.12649867
-0.36797634 -0.07811337 -0.19136824 -0.043967232 0.08925611 -0.5167375 -0.19583078 -0.023260918
0.16814575 -0.38177723 -0.5564255 0.08014713 0.003010408 -0.31887454 0.30955818 -0.26959357
-0.25313088 0.17907672 0.275767 0.06220191 -0.06557732 0.06241113 0.3347875 -0.41505638
-0.095302604 0.11821688 -0.19908372 0.3555149 -0.28999838 -0.092922345 -0.4078791 0.36167505
-0.45465446 0.034354575 0.14880145 0.111803405 0.15793845 0.39150923 -0.110676974 0.44674075
-0.58278996 0.1270033 -0.35865498 0.16849598 -0.12475065 0.25462377 0.12031339 0.14447317
-0.13124378 -0.46495742 0.08493498 -0.23573056 -0.013236599 -0.12289726 -0.23778929 0.47148737
0.016155332 1.3365146 0.3553322 0.24486554 -0.66899395 -0.045190383 -0.14352588 -0.29713076
-0.22785413 0.2683934 -0.4017542 0.15589105 0.017310167 0.31523284 0.25555322 0.33152494
-0.212244 0.49771586 -0.14522842 0.053186193 0.19389267 0.06626232 -0.39188233 0.18703124
-0.3706102 0.2391767 0.07399225 0.63286567 0.39936242 0.024221374 -0.59037095 0.30715257
-0.29959202 0.3316084 -0.016418008 -0.30536205 0.1167826 -0.11434007 0.24398881 0.28444624
1.3123251 -0.17188126 -0.5555102 -0.41540682 0.15068823 -0.8387886 -0.10290949 0.4278272
-0.026809491 -0.16741024 -0.2029763 0.06443522 0.15137313 0.9299636 0.10597488 0.4120586
-0.0072326977 0.24146096 -0.44840962 0.28802678 0.113920346 -0.5109596 0.13701102 -0.014331394
-0.051971864 -0.30768108 -0.3228139 0.04947198 0.31028175 0.00968968 0.5107891 -0.37602413
-0.06535786 -0.044011462 0.13387287 -0.23198897 -0.4248898 0.22530374 -0.60878485 -0.10209269
-0.19805838 0.19294327 0.035782274 -0.34089604 -0.32483307 -0.11219954 -0.27800515 0.0062159845
-0.4436926 0.09722603 -0.31682056 0.06661446 0.13561006 -0.35966995 -0.37562233 0.02743292
0.06053314 -0.26188216 -0.5020574 0.39776373 -0.15313005 0.32899866 0.1198949 -0.15535524
0.15051341 -0.37864625 -0.28584066 -0.40903512 -0.42918688 -0.0039167637 0.2686953 0.0113702975
-0.1415846 0.21307331 -0.05598291 0.27191755 -0.2353652 -0.06406465 -0.65958446 0.39011317
-0.29222086 0.8782578 -0.27175447 0.41690487 -0.37122005 -0.22435029 0.032332838 0.16758639
0.12730703 -0.4335429 -0.06128804 -2.2371771 -0.5850825 0.31439584 0.3099885 0.060158674
0.40276876 -0.27853367 -0.019126318 0.44871068 0.00031393828 -0.10397286 0.09882543 -0.038144607
-0.5965763 0.1013492 -0.019323103 0.29457682 0.35529613 0.43607125 0.08302192 -0.0061314646
0.23473205 -0.05279125 0.09487307 -0.45145512 0.079493836 -1.8056765 -0.059216894 -0.14220342

bias f4 [64]
00000000: 0000 0000 0000 0000 0000 0000 0000 0000
00000010: f2ec 283d 10ff d6bc 8306 e4bb bd18 1f3e
00000020: 3f61 03bc 91ee 0c3e 1992 473e 8829 8c3d
00000030: 0000 0000 4c9e ddbb a659 16bc 0000 0000
00000040: 8983 1ebe 51d2 6ebe 7632 d737 183d 32be
00000050: a576 d43d 2172 58be 3d8e 8abd 8fdb 1bbe
00000060: f133 73bb f71f 4b3e a877 653b 0000 0000
00000070: fb5b 29bc 17e2 3e3e 190a 453e 70c4 8abd
00000080: a216 a137 4a8f 7fbd 73be 173e 0561 743d
00000090: 0000 0000 f291 39be c1af 6b3d 0000 0000
000000a0: fa62 083e 8ea3 d73c 8727 45bb e853 fa3d
000000b0: bd0f 8f38 62b3 e9bd b152 23be 98d3 b2bd
000000c0: b8d2 773d d066 a43a 45f0 983b 0000 0000
000000d0: 8437 b03d 707f a3b2 0000 0000 78ec c63c
000000e0: 0000 0000 0000 0000 5be1 383e f40c ee3d
000000f0: c9b1 703e e614 8e3d 0000 0000 af3a 0235
0.0 0.0 0.0 0.0 0.041241594 -0.02624467 -0.006958784 0.1553678
-0.008018791 0.13762881 0.19489326 0.06843859 0.0 -0.006763255 -0.009176647 0.0
-0.15479864 -0.23322417 2.5653495e-05 -0.17406118 0.10374192 -0.21137287 -0.06765411 -0.15220474
-0.0037109817 0.19836412 0.0035013948 0.0 -0.010336871 0.18640934 0.19242133 -0.06775749
1.9203235e-05 -0.06239251 0.14818744 0.059662838 0.0 -0.1812208 0.05754066 0.0
0.13319007 0.026323106 -0.0030083375 0.12223035 6.821703e-05 -0.11411168 -0.15949513 -0.087317646
0.06050369 0.0012542848 0.0046673142 0.0 0.08604339 -1.903365e-08 0.0 0.024282679
0.0 0.0 0.18054716 0.11623564 0.2350532 0.0693758 0.0 4.851417e-07
