src/GraspNode/models/model_button_0119-1.pt (torch, 455989 bytes, 15 tensors)

weight f4 [64, 13]
000000 bf 42 3d 3d ed 69 b6 3e 57 6b 0d 3d 15 cf c3 bd
       0.046206232 0.3562769 0.034526195 -0.09560982
000010 d7 24 cb be 2a 44 bb 3e 72 e6 7d be c3 2f 87 3a
       -0.39676544 0.36575443 -0.24794939 0.0010313917
000020 a0 74 ba 3e b6 8e 6a be 08 dd 79 3e 3c 78 53 be
       0.36417103 -0.22906002 0.24400723 -0.20651335
000030 ac 58 f1 be a1 ae fa be 2f f5 b1 bc e3 9b b4 be
       -0.47137964 -0.48961356 -0.021723358 -0.35275182
000040 94 9c 8a 3e 46 cc f0 3d 91 e3 92 3e 0e 67 f7 3d
       0.27072585 0.11757712 0.28689244 0.12080203
000050 27 ef 5a 3c 0a 97 22 3f 63 cd 91 3e 2a f3 22 3a
       0.013362682 0.6351172 0.2847701 0.0006216044
000060 47 e0 02 3d 45 70 13 be 6c 2e be bc aa a9 57 bc
       0.03195217 -0.14398296 -0.023215495 -0.01316301
000070 ff a7 c8 3d 16 ef 57 3e 0e d1 f1 be ec 44 a3 be
       0.09797668 0.21087298 -0.4722981 -0.3188852
000080 f5 8e 63 3d 6f 4f e8 bd 65 8f 61 3e 6e f1 26 be
       0.055556256 -0.11343276 0.22027357 -0.16303036
000090 26 7d d3 3d 6e a3 a3 3e dc 9c 20 3f d8 26 16 3e
       0.103266045 0.31960624 0.6273935 0.14663255
0000a0 94 fb 09 bf 63 52 94 3e 28 1f b9 3e 02 3f 21 3e
       -0.538995 0.28969106 0.36156583 0.15746692
0000b0 89 e1 5f bd d7 e3 08 be 0b 0e ae be a5 7c 83 be
       -0.054658446 -0.13368164 -0.3399509 -0.25681034
0000c0 9c 21 a3 3e 75 f2 2e 3e 04 ba b9 be 1d 52 4e 3e
       0.3186158 0.17084678 -0.3627473 0.20148511
0000d0 be 13 ff 3e 15 f6 cd bc 1d 77 7f 3e 0f 48 b8 be
       0.4981975 -0.025141755 0.24947782 -0.35992476
0000e0 89 69 93 3c 32 73 7f be 1e 21 de bd 5c 89 98 3e
       0.017994659 -0.24946287 -0.1084616 0.29792297
0000f0 e7 13 84 bc fa 81 9e be be d1 cd bc 47 fe ba 3e
       -0.016122771 -0.3095854 -0.025124427 0.36522123
000100 4e bb a9 3e f3 aa 80 3e dd 4e d6 3e 13 bd 84 be
       0.33150715 0.25130424 0.41857043 -0.25925502
000110 ed 21 dc bd ef 14 3e be 2a 81 1f bf e2 16 94 3d
       -0.10748658 -0.18562673 -0.62306464 0.07230927
000120 a1 b3 0c bd df bf 21 be bf e9 6e be 6d 06 3e be
       -0.034350995 -0.1579585 -0.23331355 -0.18557139
000130 d2 79 31 3e 38 f9 b4 3e 70 71 93 3e 37 f3 0d 3e
       0.17331627 0.3534639 0.28797483 0.1386231
000140 d9 f7 ae 3e 7f 8e 58 3e ce 25 88 3e 60 c8 58 3e
       0.34173468 0.21148108 0.26591343 0.21170187
000150 71 39 c6 be 24 b1 c6 3e 08 ba b2 be 1a 43 82 3d
       -0.387157 0.38807023 -0.34907556 0.06360455
000160 28 df 5f 3e 18 71 c3 3e ae da f8 bc 54 95 f7 3e
       0.21862471 0.3817222 -0.030377712 0.48356116
000170 0b d9 58 bd 7e f9 0f bf f0 13 dc 3e 85 94 3f be
       -0.052941363 -0.5624007 0.4298396 -0.18709
000180 7f 93 e4 3d d5 40 1e 3d a1 6b 42 bd c4 c4 59 bd
       0.11160945 0.038636047 -0.047465924 -0.053166166
000190 48 b7 37 be 6d bd bb 3d 70 07 34 3e b2 47 be be
       -0.1794101 0.091669895 0.17580962 -0.37164074
0001a0 0f 30 dc bd 32 93 d9 be 52 24 f9 3e 46 3c 20 3d
       -0.10751354 -0.42495114 0.48660523 0.03911998
0001b0 71 cd d6 bd bb 07 24 bd 96 19 64 3e a0 79 1d 3f
       -0.104884036 -0.040046435 0.22275385 0.6151371
0001c0 cd 42 2d 3e 2e 74 f9 3c ee a8 a4 3e 28 57 35 3e
       0.16920014 0.030450907 0.32160133 0.17709029
0001d0 c2 d2 ea 3d a3 07 8b 3e 7f 96 8a 3d 29 ce f2 3e
       0.1146598 0.27154264 0.06766986 0.47422913
0001e0 c2 2d 3f 3d 9c cf 1a 3f ae 57 f9 3a f5 d1 1a 3d
       0.046674497 0.60473037 0.0019023323 0.037797887
0001f0 0a ba 7c 3d 0e c4 7b 3e 97 9b 06 3e e6 2b b6 be
       0.06170086 0.24586508 0.1314529 -0.35580367
000200 8e d5 aa 3e 6c 97 53 3d f9 e5 a4 3e 31 fe da 3e
       0.33366054 0.05165808 0.32206705 0.42772058
000210 53 12 22 3e da af 77 bd 08 89 9a 3e 99 e1 bc 3e
       0.15827303 -0.06047044 0.30182672 0.36890867
000220 61 2d 9f bd ee ee ea bd 2a 12 89 3e d9 88 ba 3e
       -0.07772327 -0.114713535 0.2677167 0.3643253
000230 4e 4c bb 3e 33 71 97 3e e4 14 e5 bd bf c0 b4 3b
       0.36581653 0.29578552 -0.11185625 0.005516141
000240 00 2e 75 3e c6 26 33 3f d5 10 ed be 43 71 24 3d
       0.23943329 0.6998104 -0.46301904 0.040147077
000250 ed c3 63 bc 5c dd fb 3d 25 ba df 3c a0 8d 0a be
       -0.013901693 0.1229808 0.02731044 -0.13530588
000260 7e 7d 8a 3e 5b a9 8e bd 53 3a 7b 3e 0f dc 81 3e
       0.27048868 -0.06965896 0.24533968 0.25363204
000270 e3 83 de 3e 3f 20 c3 3d ee 91 71 3e 2e 03 6a bd
       0.43459997 0.09527635 0.23590824 -0.05713194
000280 82 1a 7f 3e ee f4 83 be 2a b1 a0 be a7 1d 22 bf
       0.24912456 -0.25772804 -0.31385165 -0.63326496
000290 c2 5a 05 be 71 08 9a 3e 46 7c 85 bd 1b 66 82 bd
       -0.13022903 0.30084565 -0.06517844 -0.06367131
0002a0 03 5a ae 3d e0 86 71 3e 97 c0 86 be 64 13 5d 3e
       0.08513262 0.23586607 -0.2631881 0.21589428
0002b0 96 63 01 be 45 fc 0e 3e e9 e5 28 bf a8 0d 5f 3e
       -0.12635645 0.1396342 -0.65975815 0.21782553
0002c0 cc 34 bc 3d 8a a3 da bd 0b fe c4 ba 67 9b 86 3e
       0.09189758 -0.10675724 -0.0015029324 0.26290438
0002d0 89 32 ea be f8 b5 64 bd 51 08 ad 3e d1 4c d2 3c
       -0.4574168 -0.0558376 0.33795407 0.025671395
0002e0 4c 5f 12 be f8 27 5f 3e d5 f5 1d 3f e0 05 a7 3e
       -0.14294165 0.2179259 0.61703235 0.3262167
0002f0 93 62 af 3d 01 c9 53 3e 5c 38 83 be f0 e0 6d 3e
       0.085637234 0.20682146 -0.25628936 0.23230338
000300 88 d3 cc 3d d2 09 18 3e 47 69 b4 3e 1f 30 0d 3e
       0.10001284 0.14847496 0.3523657 0.13787888
000310 59 ba 2c be 24 fa 05 3e f4 a0 b2 3d 1a 99 a7 3c
       -0.16867961 0.13083702 0.087221056 0.020458747
000320 52 23 14 3f 36 2c b2 3d ee f1 45 be 0d 0a d3 be
       0.57866395 0.08699839 -0.1933057 -0.41218606
000330 ba a3 32 be e6 71 e0 be 01 1d 68 3d d8 fb bf 3e
       -0.17445269 -0.43836898 0.056668285 0.3749683
000340 d2 06 ac bd 63 3f 1e be 1a 8c 9b bd a9 93 2b 3f
       -0.08399738 -0.15453868 -0.075950816 0.67022187
000350 79 ca 35 be 28 09 58 3e c6 c2 85 3e 77 ac 78 3e
       -0.17753018 0.21097243 0.26125163 0.2428454
000360 e9 a8 17 be fd 07 4b 3e cd 17 04 bf 2d f2 9b be
       -0.14810528 0.19827266 -0.5159882 -0.30458203
000370 1c 32 f6 bd c5 e2 85 3e 80 d1 9e 3e 5c 14 b5 bd
       -0.12021276 0.26149574 0.3101921 -0.08841774
000380 3f 06 36 be a1 2f 10 3f f0 fc 5a bd 83 de de 3c
       -0.1777582 0.56322676 -0.053463876 0.027205711
000390 1a ba 21 bf 45 fa 6e 3e 52 62 d3 bd 10 a9 f7 bd
       -0.63174593 0.23337658 -0.103214875 -0.12092793
0003a0 ec 8f 7c 3d 1d 0b 33 3e 01 a2 2c be eb 2c 84 be
       0.061660692 0.17484708 -0.16858675 -0.2581552
0003b0 24 99 03 bd f0 0f 8a 3e 8b 46 7a 3e 5e 61 dc be
       -0.03212847 0.26965284 0.24440973 -0.43043035
0003c0 8e 6a 86 3e 89 a0 f4 be db 5a a6 be ca fe 83 bc
       0.2625317 -0.4777873 -0.32491192 -0.016112704
0003d0 84 c7 51 be 0f 9f f1 bd 14 68 a1 3e d7 89 e4 bd
       -0.20486265 -0.11797916 0.31524718 -0.11159103
0003e0 22 d3 3b be 24 50 00 3f 3e 07 c1 bc f9 5e 7b be
       -0.1834226 0.50122285 -0.023563024 -0.24547948
0003f0 39 82 c9 be f3 83 9c 3e 14 a0 f6 be b1 9a 7d 3b
       -0.39357165 0.3056942 -0.48169005 0.003869694

bias f4 [64]
000000 90 46 b9 3b 8b 83 fd bc c6 da d8 bb a8 b7 e3 bc
       0.0056541637 -0.030946514 -0.0066178767 -0.027797535
000010 c4 93 3e 3d bb b6 1a 3b 00 00 00 00 53 e0 6d 3c
       0.04652764 0.002360745 0.0 0.014518815
000020 76 36 bb bc 06 af 6a 3b 00 00 00 00 00 00 00 00
       -0.022853117 0.0035809889 0.0 0.0
000030 3b cb 3b bb 31 c5 7f 3a 9c 2c 36 3c b8 e2 04 3c
       -0.002865507 0.0009756862 0.011119034 0.008110695
000040 16 e7 84 bc 49 7d 1f 3c 1b 1d ae 3c 27 df c9 3a
       -0.016223472 0.00973446 0.021254113 0.0015401588
000050 8d bf 24 3d 8c 42 29 3c 5d 22 aa ba de db 64 bc
       0.04022174 0.010330807 -0.0012980212 -0.013968436
000060 d9 f8 0b bc 00 00 00 00 00 00 00 00 30 30 b0 3b
       -0.008543217 0.0 0.0 0.005376838
000070 00 00 00 00 00 00 00 00 bc 20 77 b8 e9 dd 42 bd
       0.0 0.0 -5.8919875e-05 -0.04757491
000080 42 84 a5 bb 9d 2d 1f 39 a8 90 89 3b 00 00 00 00
       -0.0050511668 0.00015180414 0.0041981526 0.0
000090 e8 9c 17 bc 00 00 00 00 c0 4a 88 3b e8 cf 0f bb
       -0.009253718 0.0 0.0041593015 -0.002194399
0000a0 00 00 00 00 71 d5 d3 3b 00 00 00 00 86 27 a1 bb
       0.0 0.006464653 0.0 -0.0049180416
0000b0 00 00 00 00 d7 eb 08 3d 51 80 49 ba 73 8e c6 b3
       0.0 0.03342804 -0.0007686662 -9.246005e-08
0000c0 ff 9c c7 bb 00 00 00 00 37 e5 15 bc 00 00 00 00
       -0.0060917134 0.0 -0.009148887 0.0
0000d0 00 00 00 00 3b 0d 15 3c 57 56 cb 3c ae bc 1b 3c
       0.0 0.009097393 0.024821443 0.009505434
0000e0 00 00 00 00 95 9e f8 3b cc ae a1 bb 4f 11 18 ba
       0.0 0.007587264 -0.0049341675 -0.0005800919
0000f0 90 db 24 3b 1d 82 8b 3b c3 9d fc b8 3b d4 2f bb
       0.0025155284 0.004257454 -0.00012045682 -0.002682938

weight f4 [256, 64]
000000 fe 81 e6 3d d3 6b 31 be 4e e4 0f 3c 1a 1b f2 3d
       0.11255263 -0.17326288 0.008782459 0.118215755
000010 10 eb 5d 3c 76 80 c8 3d a5 16 2d 3d ad 48 f3 3c
       0.013544813 0.09790127 0.042257924 0.02969774
000020 57 13 1d 3e 35 19 40 3d 9d c7 cd 3c 4c 6e 7c 3e
       0.15339409 0.04689904 0.025119597 0.2465145
000030 2b d8 c4 bc 4e db 85 3d 4c 44 0e 3e c6 98 98 bd
       -0.024028858 0.0653597 0.1389324 -0.07451014
000040 6b 26 f6 3d 7a a1 18 be 06 a6 6f bd 70 5c d4 3c
       0.120190464 -0.14905348 -0.05850794 0.025922984
000050 48 b6 13 bd 60 aa b0 3d 54 91 99 3d 40 97 5c bd
       -0.03606251 0.086262465 0.07498422 -0.05385518
000060 b3 fb fc bc 08 23 b2 3e 12 c5 06 be 8d 97 21 3e
       -0.030881738 0.34792352 -0.13161114 0.15780468
000070 f8 b6 92 3d a8 a5 0b be 79 bd 1c bd f0 81 c0 bd
       0.07163805 -0.13637412 -0.038266633 -0.093997836
000080 bd 56 85 3e 81 bb 5a bd 81 7b 15 3d c6 54 9f 3d
       0.2604274 -0.053401474 0.036494736 0.07779841
000090 16 f9 dc bc b4 39 e2 bd 75 59 60 3d fc b7 3b 3e
       -0.026974242 -0.11046162 0.054772813 0.18331903
0000a0 f6 f5 c7 3d 87 bf 18 3e 30 17 31 be 7c 9d 95 3e
       0.0976371 0.14916812 -0.17294002 0.29221714
0000b0 b9 41 81 bd 17 fd 1d be 95 dc 3e bc 40 6e a0 3d
       -0.06311364 -0.15428577 -0.011649271 0.078335285
0000c0 fc 6f 47 3e e0 9b 3b be 58 28 87 bd de 41 4e be
       0.19476312 -0.1832118 -0.06599492 -0.20142314
0000d0 a7 2b 2c 3c 64 b9 a3 bd b8 12 e3 bd 9b 68 16 3e
       0.010508454 -0.07994345 -0.11087555 0.14688341
0000e0 1c 17 10 3e fc be 21 be 1c 10 62 3e 8a c5 07 be
       0.14071316 -0.15795511 0.22076458 -0.13258949
0000f0 a3 72 f4 3d 14 d5 28 be a2 61 dc 3d c8 09 c4 bd
       0.11935928 -0.16487533 0.107608095 -0.09572178
000100 a8 b7 8e 3c aa 42 77 bd c4 47 2b bd 87 73 49 3e
       0.017421558 -0.06036631 -0.041816488 0.19672976
000110 90 27 86 3d 22 2b a7 bd 13 8e 01 3e ab 22 06 3e
       0.06550515 -0.08162524 0.12651853 0.13099162
000120 dd 88 fc bd 8c 52 42 3c f6 f8 0c 3c c8 a0 00 be
       -0.12330792 0.011860501 0.008604279 -0.12561333
000130 90 9d 68 3c f1 6e 14 be 97 61 75 be 1f 37 4f 3e
       0.014197722 -0.14495446 -0.23963009 0.20235871
000140 86 81 46 be c0 7e 19 bd db 0d 10 be 1e f7 08 3e
       -0.19385347 -0.037474394 -0.14067785 0.13375518
000150 6a f4 41 bd 88 f0 66 3e 85 cf 17 3e 23 36 05 3e
       -0.047352232 0.22552693 0.14825256 0.13008933
000160 bd 2d e2 3d 78 09 34 bd 5e 9f 3a bd 6e 7b 1d be
       0.1104388 -0.043954343 -0.04556214 -0.15379116
000170 36 dc a5 3d 3a 62 83 3c 9a 16 53 3c 37 00 02 3e
       0.080986425 0.016038049 0.012883807 0.12695394
000180 b9 29 45 3e 1c 08 a7 3d de ad b9 bd e5 2c d7 3e
       0.19254197 0.081558436 -0.09066366 0.4202644
000190 97 fd 9d bd 23 05 81 bd f5 79 1c be 6f 71 9d bc
       -0.07714384 -0.06299808 -0.15280898 -0.019219128
0001a0 70 0f 1b 3c 35 cc 1b 3d fa 7e 46 3d 85 f9 91 bb
       0.00946413 0.038036544 0.048460938 -0.004454794
0001b0 1c 7d 7e 3d 33 dd 27 be c7 25 14 be 2c 9d 37 3d
       0.062131032 -0.16392975 -0.14467536 0.044827625
0001c0 c4 f4 80 be b2 12 ec bd 32 18 54 3d 12 af 2f 3c
       -0.2518674 -0.11527003 0.051780887 0.010722892
0001d0 0e 34 c7 3d fd 90 c3 3b 45 2b cb 3c 71 1b da 3d
       0.097267255 0.0059682117 0.024800906 0.10649765
0001e0 8c 14 80 be 69 6e 39 3e 4b 5f 44 3e aa 2a 38 bd
       -0.25015676 0.18108524 0.19176976 -0.044962563
0001f0 d2 28 63 3d 65 7c 3b be ee 35 d0 bd 1d b5 28 be
       0.05545885 -0.18309171 -0.10166536 -0.16475339
000200 ea b3 a3 3d 49 b7 19 be 81 e8 04 be ce ae 36 3e
       0.079933 -0.15011324 -0.12979318 0.1784012
000210 22 40 e9 bd 20 8d fc 3d 04 69 56 3d ed 38 8b be
       -0.113891855 0.12331605 0.052346244 -0.27191868
000220 57 dd 20 3d e5 8f 69 be b9 ba 6c be 40 35 1a 3d
       0.039273586 -0.22808798 -0.23118104 0.03764844
000230 c6 77 06 bd 9c 17 39 bd 4c 46 55 3d 92 7b 0f 3e
       -0.03282907 -0.04518853 0.052068993 0.14011982
000240 09 ca 15 bd 74 41 2c 3e 88 4c 18 be 38 7a e6 3d
       -0.03656963 0.16821843 -0.14872944 0.1125378
000250 a4 41 09 3e 84 ba 51 3e 82 2e 3d bd b0 68 a4 3e
       0.13403946 0.20481306 -0.04618693 0.3211112
000260 42 b1 34 bc 3a 82 9c 3d 23 62 33 be 07 49 6f be
       -0.01102859 0.07642026 -0.17517905 -0.23367701
000270 0f 82 88 3c 8f 3f da bc 4c 34 d0 3d dc 36 2b bd
       0.01666358 -0.026641635 0.10166225 -0.041800365
000280 36 ff e2 3d 21 e0 40 be e3 4f fa 3c 2a 58 33 be
       0.11083834 -0.18835498 0.030555671 -0.175141
000290 aa 19 2a bc c5 fa 42 be f0 65 59 3e d2 71 b2 bc
       -0.010382095 -0.19040973 0.21230292 -0.02178279
0002a0 6c a8 85 3d 4f e1 01 be 24 7a d3 3d 6b 37 05 be
       0.065262645 -0.12683605 0.10326031 -0.13009422
0002b0 9f 34 0b be 70 44 1c be f6 0a 78 3d f4 7e 3e 3d
       -0.13594292 -0.15260482 0.06055733 0.04650779
0002c0 bf 41 67 3e e7 ee 27 be 64 35 17 3d d4 4b 7c 3d
       0.22583674 -0.16399728 0.03691615 0.061595753
0002d0 ab f6 ec 3c 86 9e 76 bd c7 ff 4d be 55 79 1b be
       0.028926214 -0.060209773 -0.20117103 -0.15183003
0002e0 72 d6 90 3d 2e 7e 34 bd 1c ae e8 3d b8 d1 23 3d
       0.07072152 -0.044065647 0.11361334 0.039994925
0002f0 6f fa 29 be 0d b9 97 3c 06 10 64 bc 1e 45 03 be
       -0.16599439 0.018520856 -0.013919836 -0.12819335
000300 1e 9a ef bd ba 8a e0 bd 17 b5 fe bc e3 fe c7 3d
       -0.116993174 -0.1096396 -0.03109221 0.09765413
000310 28 e0 6f bd f6 85 46 3e b8 ef 42 3e 55 8d b2 3d
       -0.05856338 0.1938704 0.19036758 0.08718363
000320 d3 6f 4a 3e aa b8 ca bd 39 72 14 bc 34 ff 08 3d
       0.1976922 -0.09898503 -0.009060436 0.033446506
000330 34 01 81 3d 0e cd d0 bd 16 cc 0f 3e be 61 f3 3c
       0.062990576 -0.10195361 0.14042696 0.029709693
000340 e4 68 a0 bd 6c 99 7b 3d d3 7e a2 bc e4 c1 79 bd
       -0.07832506 0.06142561 -0.019835865 -0.060975924
000350 5e 26 b8 bc 9a fc 31 3e ca 93 a2 bc 3f b7 79 3e
       -0.022479232 0.17381516 -0.019845862 0.24386309
000360 b6 d4 8e 3c 28 77 89 3b fc c2 24 3d dc 28 73 3d
       0.017435413 0.0041951127 0.040225014 0.05936514
000370 e8 21 d6 be 9a 16 9b bd 71 f6 5c 3c dd 88 ed bc
       -0.41822743 -0.0757267 0.013486491 -0.028995926
000380 54 84 b4 bc 46 04 5d 3d 64 e3 dd bc 2a d2 b1 bc
       -0.022035755 0.053959154 -0.027085967 -0.02170666
000390 25 1d 14 be e0 e5 41 3d 60 50 b1 bc 0d e7 44 be
       -0.14464243 0.047338367 -0.021644771 -0.19228764
0003a0 48 33 17 3e ee 6b 6b bd 84 d7 c1 bd 39 d2 06 be
       0.14765656 -0.057475977 -0.094649345 -0.13166131
0003b0 cc db 0c be 02 4c 5b be 8e dc b0 3d ae 77 1a 3e
       -0.13755721 -0.21415713 0.086358175 0.15084717
0003c0 df a9 30 3e 1a 00 1d 3e d1 12 4c 3c 70 52 10 3d
       0.172523 0.1533207 0.012455658 0.03523487
0003d0 5c b7 6b 3e 98 78 b2 bc e3 9e 97 bd f9 f9 c4 be
       0.23019165 -0.02178602 -0.07403352 -0.38471964
0003e0 ce 98 91 3e bd c0 7f 3d 8c ae eb bb 8f a3 43 3c
       0.28436893 0.06243967 -0.0071924385 0.011940851
0003f0 10 6c 14 3e fc 28 44 3e 9a 06 1f 3e 2e 79 c9 3d
       0.14494348 0.1915626 0.15529862 0.09837566

bias f4 [256]
000000 df ef 35 3a aa 83 41 bc c5 9e eb bc c2 21 4a 3c
       0.00069403456 -0.011811176 -0.02876223 0.01233715
000010 9f 60 87 3b 16 f1 c1 3b 1c d5 c9 3b 63 5f 6d 3c
       0.004131391 0.0059186323 0.006159438 0.014488074
000020 57 d0 f5 bb d4 1c 15 3a 09 b3 71 bc e2 ff 02 bb
       -0.0075016427 0.00056881947 -0.014752158 -0.0019988944
000030 82 8a 48 3c 02 0e d3 3b aa 24 90 bc 91 86 62 3c
       0.012240054 0.006440879 -0.017595608 0.013826028
000040 ba ed e8 3a 45 7c ca 3b ba 77 d4 3b 95 11 ab 3b
       0.0017771043 0.006179365 0.006483999 0.005220602
000050 bd db f3 3c 9f c4 3c bc d8 1e 4d bc 91 36 94 bb
       0.029767865 -0.0115214875 -0.012519561 -0.0045231064
000060 82 2c ea 3c 5b 0f 23 bc 33 a1 58 3b 6b 53 a4 3a
       0.028585676 -0.0099523915 0.0033055067 0.0012537068
000070 e5 50 01 3c 31 d1 3e 3a 7e 8b df 3b 38 bd 9c 3c
       0.007892822 0.0007279097 0.0068220487 0.019133195
000080 47 f0 a1 3b 94 5d 06 3c 31 ec a4 3b a7 5f 3a 3c
       0.0049419734 0.008201022 0.005033039 0.011375344
000090 90 a0 4a bb 4f b1 ae 3a 51 d2 61 bb 89 29 8a 3c
       -0.0030918457 0.0013327989 -0.0034457634 0.016865509
0000a0 db 30 92 3c 85 91 a0 3a 74 05 6a 3c 94 87 61 bc
       0.017845562 0.00122504 0.014283527 -0.0137652345
0000b0 f0 3f ca bc 58 b9 82 3c c8 7d 1c bc 9f d9 59 bc
       -0.02468869 0.01595752 -0.009551473 -0.013296514
0000c0 e7 6b 23 3c f2 be b4 3b 6c 94 33 3b 33 24 99 bc
       0.009974456 0.0055159265 0.0027401699 -0.018694019
0000d0 a2 e3 cc bc 8d a6 4a bc 44 18 80 bb 13 1c c5 bb
       -0.025010888 -0.01236881 -0.0039091427 -0.0060153096
0000e0 02 b6 15 3a 8c fd 31 3c 36 ac 9e bb dd 7e c1 bc
       0.000571102 0.010863673 -0.0048423065 -0.023620063
0000f0 17 f8 2a 3c 7f c1 d1 ba a2 a6 02 3c 63 0f 96 3c
       0.010435126 -0.0016003101 0.007974299 0.018317884
000100 d4 34 63 bc cf cc 0e bc 2c 60 6f bb 69 34 08 3c
       -0.013867576 -0.008715822 -0.0036525829 0.008313277
000110 9d d2 2d 3c c3 69 01 3b 38 71 65 bc 6f 26 4a 3c
       0.010609296 0.0019746877 -0.014004044 0.012338265
000120 e9 cb 25 3a 12 3f b8 38 33 18 c2 3c 6f fd f9 3a
       0.00063246355 8.7855515e-05 0.02369318 0.0019072721
000130 ed 6e 3f 3b 7a f6 60 bc 16 d7 4b ba 52 a4 01 3c
       0.0029210404 -0.01373064 -0.0007775886 0.007912712
000140 45 aa bb 3b 01 f4 b9 bc 03 b3 54 3b a7 c5 0c 3c
       0.005727085 -0.022699358 0.0032455332 0.008592046
000150 63 db 37 3d 5f 05 59 3c 52 e1 69 3c f9 8d 82 bc
       0.044886958 0.0132459095 0.014274912 -0.015936838
000160 a1 ca fb 3c 49 8a b4 3c b5 8a 98 bc 50 6a 33 3c
       0.03073627 0.022038596 -0.018620828 0.01095064
000170 66 9a 12 bc a0 34 af 3b 0e 32 d6 3c 5d 82 4e bc
       -0.008947944 0.0053468496 0.026146915 -0.012604323
000180 e4 1a 42 bc fa 99 31 bb 53 43 18 3c 0d 29 2a ba
       -0.011847232 -0.0027099834 0.009293395 -0.00064911024
000190 94 a9 c4 3a 85 09 8f bc e1 95 4d 3b d2 3e 47 3c
       0.0015004152 -0.017460594 0.0031369852 0.012160974
0001a0 b2 b3 2a 3c c0 1c a3 3c 6b 94 93 3b 50 a8 ba bc
       0.010418819 0.01991117 0.004503777 -0.022785336
0001b0 ae 6d 58 bc 51 14 58 3c bc 05 b0 bc a2 ed 2f 3c
       -0.013209743 0.013188438 -0.02148711 0.010737808
0001c0 e1 a8 bf 3b 36 d7 ca ba 38 53 69 3c d1 a7 75 3c
       0.0058489894 -0.0015475515 0.014241032 0.014993624
0001d0 61 de 78 3b ad 4b f5 bc 77 15 07 3b 6a 4e 75 3b
       0.0037974345 -0.029943312 0.002061216 0.0037430772
0001e0 f1 e0 8b 3c cb d3 83 bb f4 81 7f b9 7c ea 9f 3b
       0.017075034 -0.0040230504 -0.00024367106 0.0048802476
0001f0 70 1e 0e 3c b4 4f df 3b a1 be fb bc 53 76 dd 3c
       0.008674249 0.0068149213 -0.030730547 0.02703396
000200 42 e0 35 3c 5a d4 ef 39 d4 b8 69 ba 73 76 dc bc
       0.0111008305 0.00045743847 -0.0008915786 -0.02691195
000210 2c 87 5a 3b f3 00 a7 ba 57 0b fb bc 25 7a 36 bb
       0.003334473 -0.0012741372 -0.030645056 -0.00278438
000220 29 a2 a1 3b a8 21 a0 3b 2c 74 77 3c 43 8b 12 3c
       0.004932661 0.0048868246 0.015103381 0.008944335
000230 ac 54 8c 3b c5 78 39 3c e7 78 43 bb 98 76 6b 3b
       0.0042825546 0.011320298 -0.0029826702 0.0035928842
000240 9d 43 ae bc 5b 5a b6 3b 13 f6 13 3c 29 ec 77 ba
       -0.021272475 0.0055649704 0.009030837 -0.0009457493
000250 49 d7 4b 3c b0 2d e1 3c da a6 c9 3b 17 47 24 bc
       0.012441465 0.027487606 0.0061539235 -0.010026715
000260 1e 43 b1 bb 17 68 ce 3b 9f 6f 9f bc 23 54 78 bc
       -0.0054096123 0.0062990296 -0.019462405 -0.0151567785
000270 c8 07 29 3c 80 73 f5 bb 34 ce 01 3c 46 a2 08 bb
       0.010316797 -0.0074905753 0.007922698 -0.0020848676
000280 7e 5e 1d 3b c2 9a b0 bb 14 29 1d bb f0 1b fe 3a
       0.002401262 -0.0053895423 -0.0023980783 0.0019386988
000290 96 d4 ff 3c 42 81 dc 3b 3b c7 84 3c 67 d8 7e bc
       0.031229299 0.006729276 0.016208282 -0.015554524
0002a0 0f 39 20 3c dd 87 f1 bb af 33 1a ba eb c2 65 3c
       0.009779229 -0.0073709325 -0.0005882335 0.014023523
0002b0 53 93 97 3c db 21 72 bc d2 6e 61 3c a2 16 72 b9
       0.018502867 -0.01477858 0.013759332 -0.0002308735
0002c0 be 73 d9 ba 6b a9 1c bc c6 a4 a9 ba c1 45 c5 3c
       -0.001659028 -0.009561877 -0.0012942783 0.024081113
0002d0 4c 3e 74 3c bb c1 ae 3c f1 3f 4f bb 89 30 af 3c
       0.014907431 0.021332612 -0.0031623805 0.021385448
0002e0 07 cb 9d 3c fa ee 75 3c 29 3b b1 bc 7b 2c f3 b9
       0.01926185 0.01501059 -0.021634655 -0.00046381712
0002f0 07 6c 16 3b 52 6d 21 3c 8c 4f 2f 3c 10 83 15 3b
       0.0022952573 0.009852724 0.010700118 0.0022813715
000300 4c 6f 9b bc 26 66 79 bc ef bf 88 bc 02 75 41 bc
       -0.018973969 -0.015222108 -0.016693084 -0.011807682
000310 22 12 f1 ba 6c 05 02 3b eb 21 e1 3b 18 ff 46 3c
       -0.0018392245 0.0019839657 0.0068704984 0.01214578
000320 fd 5c 22 bd b7 bf 02 3c b7 ff ec 3c ef 5d 8d bc
       -0.03963946 0.007980279 0.028930528 -0.017256705
000330 83 11 a6 3b 63 43 9e bc 9d 7f 13 3c a5 e6 a0 bb
       0.0050680055 -0.019319242 0.009002593 -0.0049103075
000340 07 95 13 3c c4 03 ac bc ef 69 35 bb a5 22 97 3a
       0.009007699 -0.02099789 -0.002768155 0.0011530711
000350 9d e6 b5 bc 6f 06 3b 3c 32 3b c8 bc b4 b7 4f 3c
       -0.022204692 0.011415108 -0.024442289 0.012678076
000360 1e 41 ca bc 57 08 83 3c e8 bc 03 bc 17 33 9f 3c
       -0.024689253 0.015995188 -0.008040644 0.019433541
000370 b0 1b 47 3c 78 8d 87 3c 3e 0a 6d bb ef 82 07 bc
       0.012152597 0.01654695 -0.0036169435 -0.008270963
000380 ce ba bb 3c a7 06 64 3c 89 ba c6 ba be 6f 94 bb
       0.022916224 0.013917602 -0.0015161793 -0.0045299223
000390 4e 0c 4e ba 8c 33 29 bc 4e d1 a6 3b d7 77 39 bb
       -0.000786011 -0.010327231 0.005090869 -0.002830019
0003a0 9d f7 bc bb 3d f9 a9 3a 0b 26 b6 bb 77 98 e0 3c
       -0.0057668225 0.0012967956 -0.0055587343 0.02741645
0003b0 65 cb ae bb 85 75 0d bc 4d 6d 16 3c e5 2d 98 3c
       -0.005334305 -0.008633976 0.009181333 0.018576572
0003c0 f8 30 c9 bb 22 15 00 3d 9b f7 c7 3a 7b 15 b3 3c
       -0.0061398707 0.031270154 0.0015256287 0.021860829
0003d0 cd 6f 24 3c 2d 8d 2a bc a4 f7 e0 3b 45 9c 9b 3b
       0.010036421 -0.0104096355 0.0068654586 0.0047488534
0003e0 77 8c 96 bb f3 28 dc bc 20 e9 aa 3c 50 01 3e bc
       -0.0045943814 -0.026874995 0.020863116 -0.011596993
0003f0 24 12 da ba b9 58 ef 3b 6a 79 b9 39 e0 09 45 bc
       -0.0016637486 0.0073042777 0.0003537641 -0.01202628

weight f4 [128, 256]
000000 96 1f 29 bd 89 0d 17 3d 6f 75 ae 3c 2c f6 b1 3c
       -0.04128989 0.036878143 0.021296231 0.02172383
000010 bf d4 a8 bb a2 cf 93 bd 94 c5 21 3d 74 4a 7e bc
       -0.0051523144 -0.07217337 0.039495066 -0.015520681
000020 4f 58 29 3d f1 09 e6 bc 67 e0 7a 3c 71 b3 03 3d
       0.041343983 -0.028080912 0.015312291 0.03215355
000030 31 33 4f bd c9 33 6d 3d 14 18 07 3d ee e3 34 3e
       -0.05058593 0.057910714 0.032981947 0.17665073
000040 eb 85 05 ba 2e 39 4f 3e 75 84 f5 bd 68 87 49 3c
       -0.00050935027 0.20236656 -0.11988155 0.01230035
000050 62 72 c7 bd d2 41 92 3d 57 76 46 3e 57 26 23 3d
       -0.09738614 0.071414605 0.1938108 0.039831486
000060 12 0a cb bc 73 cd 12 be 28 ae 5c 3d de ef cb 3d
       -0.024785075 -0.14336185 0.053877026 0.099578604
000070 bc c7 9b bd c3 e5 00 3d 11 64 33 3e 5e bf be 3d
       -0.07606456 0.031469118 0.17518641 0.09313844
000080 ac 57 15 bd 0a 62 80 bb bb ff 77 bd 14 f0 be bc
       -0.036460564 -0.003917937 -0.060546618 -0.023307838
000090 c7 17 a9 3b 63 bc 9a bd d7 b4 aa 3b a1 98 96 bd
       0.005160305 -0.07555463 0.005209546 -0.073533304
0000a0 5a 64 78 3d 21 19 ec bd 93 4f ca bd 21 6d 21 3d
       0.060642578 -0.115282305 -0.09878459 0.039410714
0000b0 04 67 86 3d 94 dd a8 3d 32 e2 21 3e 20 2b 84 3d
       0.065626174 0.08245388 0.15808943 0.06453538
0000c0 92 bd 39 3d 67 c1 91 bd e8 96 0c bd 79 70 06 3b
       0.045346804 -0.07116967 -0.034323603 0.0020513816
0000d0 42 99 50 bd bb 9b 0d 3d 4a 5d 56 3d 2e c6 a9 bd
       -0.050927408 0.034572344 0.05233506 -0.08289753
0000e0 20 82 60 3d ad 45 60 3d d0 52 0b 3c f9 48 95 3d
       0.054811597 0.054753948 0.008503631 0.07289309
0000f0 c2 c4 90 bc 02 34 7d bd 17 c3 8c 3d d2 b4 5f 3c
       -0.017671946 -0.061817177 0.06873148 0.013653951
000100 b7 fa 8b 3c 3a 81 97 3d 01 64 ce 3c 69 49 02 be
       0.017087324 0.07397695 0.02519417 -0.12723316
000110 85 ef d2 bd 09 cf 43 bd 47 a3 45 bd 50 12 a0 3d
       -0.10299591 -0.047804866 -0.048251417 0.07815993
000120 7b 49 bd 3d d4 45 19 bc 68 e8 58 bd 9b 36 d3 3d
       0.09242531 -0.009355027 -0.052956015 0.103131495
000130 19 7b 9c bc 20 b8 06 bd af d8 25 bd 4c 5b 67 3d
       -0.019101666 -0.03289044 -0.04048985 0.05648355
000140 c9 92 8c bd 31 8b 76 bd a1 a9 62 bd 49 49 b6 bd
       -0.068639345 -0.060191337 -0.055337552 -0.08900697
000150 3b 2c 99 3d fd cc 95 bd 89 4a c8 bd f1 51 f1 3b
       0.074791394 -0.07314489 -0.097798415 0.0073645045
000160 b9 ad 99 bc f2 68 fa 3d 80 10 5e bd e2 a5 b1 ba
       -0.018759595 0.12227048 -0.054214954 -0.0013553465
000170 70 b2 9f bd 88 cb 11 bb 4d f3 8e bc 7e ca 2a 3e
       -0.07797706 -0.0022246558 -0.01745 0.16678807
000180 cd c3 de 3c 9c a8 97 bb 86 01 79 bd fa 05 90 3c
       0.027192974 -0.004628254 -0.06079247 0.017580975
000190 3f aa 06 3d 5c f1 38 3d 74 35 03 3d 6b 4e c7 bd
       0.032877203 0.045152053 0.0320334 -0.09731754
0001a0 3c 50 01 ba f2 4b 39 3c 53 f8 8d 3d be a5 6b 3d
       -0.00049329153 0.011309611 0.0693213 0.05753111
0001b0 ec c6 11 3c 36 bc 06 bd 70 33 d7 3c 20 42 b8 bd
       0.008897524 -0.032894336 0.026269644 -0.08996987
0001c0 5b 13 60 bd b3 52 24 3e 12 2e 34 bd b8 76 64 bd
       -0.05470596 0.16047172 -0.04398925 -0.05577728
0001d0 ef d6 5f bd 2d 35 7b 3d 8d 5e 62 3c f4 e3 10 3d
       -0.054648336 0.06133001 0.013816488 0.035373643
0001e0 c0 39 90 bd 6e 79 c3 3d 0a 31 9e bb 32 65 89 bc
       -0.07042265 0.09544645 -0.0048276233 -0.016771886
0001f0 c0 0a cc 3c be b9 b0 bc 42 5a de bd ae de 99 bb
       0.02490747 -0.021572944 -0.10857059 -0.004695735
000200 6d 48 87 3d 19 82 9f bb c9 5e e2 3c eb e4 aa 3d
       0.06605611 -0.004867804 0.027633088 0.08344444
000210 b5 b9 cb bd ea 09 20 3d a1 a0 34 bd a6 2a ca 3d
       -0.0994753 0.039071955 -0.0440985 0.09871416
000220 9f 0f 87 bd 46 ce 9f 3d 65 52 4a 3d 52 d0 ec 3c
       -0.06594776 0.078030154 0.049394984 0.028907929
000230 08 ae fb bc 4f 73 ea bb cb 85 92 bc b1 97 a1 bd
       -0.030722633 -0.007154859 -0.017886063 -0.07890261
000240 27 22 44 3c 35 17 1d 3e a4 83 9f 3c 41 e0 53 bd
       0.011971033 0.15340884 0.01947195 -0.051727537
000250 a3 54 97 bd be 6b b9 3c 14 54 ca 3c c0 b2 7d 3d
       -0.0738919 0.022634383 0.024698295 0.061938047
000260 ef 85 15 3d 72 c2 89 3c f6 58 12 3c b8 95 f7 3d
       0.036504682 0.016816352 0.008932343 0.120891035
000270 6a 41 35 3d b9 1d 42 bd 2d 76 c4 bd 68 ca e2 bc
       0.044251837 -0.047391627 -0.09592853 -0.027684405
000280 d7 18 31 3d 25 20 7d 3d 5c 42 98 3d ca 88 a5 3c
       0.04323658 0.061798234 0.07434532 0.020206828
000290 88 69 ed bc d5 d9 8a 3c 8a cf 9d 3d 70 9d d3 bc
       -0.028980985 0.016949574 0.077056006 -0.025831908
0002a0 ee 57 6c 3c 77 59 14 3e 1b 7e 3d 3d 91 71 2c be
       0.014425261 0.14487253 0.04626284 -0.16840197
0002b0 a4 9f 4c 3d 8d 0f ed 3d e0 5a 82 3d 28 a4 26 bd
       0.049956933 0.11575232 0.06364989 -0.040683895
0002c0 a9 c9 61 3c 87 31 01 3d 40 7f bd bc 45 db 34 bd
       0.01378099 0.031541374 -0.023131967 -0.044154424
0002d0 31 7a 1b 3d a3 77 4e 3e 83 5d 2f bd 05 eb 4c bb
       0.037958328 0.20162825 -0.04281379 -0.0031268012
0002e0 c0 65 df 3d 50 c5 04 bb 6a a0 7a 3e 16 c8 d1 bc
       0.10908079 -0.002025921 0.24475256 -0.025608104
0002f0 82 13 1c bd 51 b1 02 3c 55 e9 aa 3c 8c e4 0c bd
       -0.03810454 0.007976846 0.020863215 -0.034397647
000300 d7 39 0e 3d cf e7 f8 3d 31 c2 48 bd 96 82 d6 3d
       0.03472313 0.12153589 -0.04901332 0.10474126
000310 80 ca bc bd a6 a6 3c 3e 07 22 1e be bd 8d 0f 3e
       -0.09218311 0.18422946 -0.15442668 0.14018913
000320 86 21 c1 bc 24 10 27 bc d2 b9 00 3d fc 8e 0e bd
       -0.023575556 -0.010196719 0.031427212 -0.03480433
000330 2c 61 63 3d fe 46 10 3d 53 3e fb bb c6 41 34 3c
       0.055512592 0.035223953 -0.0076673417 0.01100201
000340 94 9e 29 bd 82 fa fb bc 33 00 ed bd d5 ce f8 bc
       -0.041410998 -0.0307591 -0.115723036 -0.030372063
000350 b5 27 c0 bc 08 9d 8a bc 2c 68 73 bd 01 93 77 3c
       -0.023456434 -0.016920581 -0.059425518 0.015110732
000360 93 63 e0 3c c3 82 08 3e be e0 cd bd fe 1c 92 bb
       0.02739123 0.13331132 -0.10052632 -0.0044590225
000370 e0 0f 28 bd c4 07 00 bd 12 64 cc bc bd 79 b7 bd
       -0.041030765 -0.031257406 -0.024950061 -0.089587666
000380 14 04 51 3d ba 75 f9 3c 82 1b 99 3d 46 c5 be 3d
       0.05102928 0.030451644 0.0747595 0.09314971
000390 18 3d b2 3c 7b d8 eb 3c 12 70 a4 bb 5e 1d 7c 3d
       0.021757647 0.02878975 -0.0050182426 0.061551444
0003a0 b1 0e 50 3c e6 20 1c be d5 55 e9 3b 6e 8a fd bc
       0.012698815 -0.15246925 0.0071208277 -0.030949797
0003b0 c3 00 63 bd f8 77 06 3d 44 31 1e 3d 0c b5 82 3d
       -0.05542065 0.032829255 0.038621202 0.06382188
0003c0 09 44 cb bd 95 b8 88 bb ea 54 86 bd 18 19 99 bd
       -0.09925086 -0.0041723945 -0.06559165 -0.074754894
0003d0 04 69 8a bd 28 95 df 3c 11 47 d9 bd 64 de 2a 3d
       -0.067583114 0.027292803 -0.10609258 0.041715994
0003e0 e5 64 59 bd c4 35 2f bc e8 19 8c bd 07 ac ab 3d
       -0.053074736 -0.010693971 -0.06840879 0.08382421
0003f0 54 ff 5d bc 06 fa ac bd 87 28 cd 3c 6d 7d 29 3c
       -0.0135496445 -0.08446126 0.025043739 0.010344845

bias f4 [128]
000000 7a 65 62 3c 94 b1 59 3c ca 7f 82 bb 8d 38 80 3a
       0.013818139 0.013286967 -0.003982519 0.0009782478
000010 e1 c0 03 bd 13 7f cd bc ac 56 81 bb ca ab d0 3b
       -0.032166366 -0.025085008 -0.0039470997 0.006368135
000020 2f 86 00 3c cd b1 98 3c dd d7 03 bc f2 e5 41 3c
       0.007844492 0.01863947 -0.008047071 0.011834608
000030 a7 5c 76 bb a3 75 99 bc b6 45 14 ba 64 12 de bc
       -0.0037591846 -0.018732851 -0.00056561397 -0.027108379
000040 a0 e6 49 bc e6 95 70 3b 18 ef 09 bc 39 27 2d 3c
       -0.012323052 0.003671044 -0.008418821 0.010568433
000050 00 04 1b bd 89 ed a2 3b 52 b2 b0 3b 98 82 b8 3c
       -0.03784561 0.004972164 0.005392351 0.02252321
000060 da cc c7 bc d7 0e ad 3b e9 4d c4 3c 0f 2a 00 3c
       -0.024389673 0.00528131 0.023962932 0.007822528
000070 ec e6 3c 3d 59 9b 0c 3c e8 ea 21 3c 87 23 29 ba
       0.04611866 0.00858196 0.009882666 -0.00064521324
000080 6e a6 e6 3a 52 1d 48 bd 65 42 96 bc 1a a3 9e bb
       0.0017597207 -0.048856087 -0.018342206 -0.0048412206
000090 b5 28 45 3d 36 f8 4a bc 65 73 19 bc 9e 8b 99 bc
       0.048134524 -0.01238828 -0.009365891 -0.018743332
0000a0 a1 5d 48 3c ff 84 aa bc 48 1f aa bb dd 46 bc bb
       0.012229354 -0.02081537 -0.0051917173 -0.0057457522
0000b0 d5 a4 01 3c 76 c2 4b 3b f6 57 47 bc e6 23 c6 ba
       0.007912834 0.003109125 -0.012166968 -0.00151169
0000c0 2d 97 93 3c d9 0a 28 bb 5c b8 aa 3c 17 70 ff bc
       0.018016422 -0.0025641231 0.020839863 -0.031181378
0000d0 71 0d 86 3b eb 32 93 3c 4a 35 23 bb 82 8e 01 bd
       0.004090958 0.017968616 -0.002490359 -0.031630047
0000e0 b1 af 8b bc 2c 19 84 bb c7 81 f5 bc 6f 6a 3b bc
       -0.01705155 -0.004031321 -0.02996911 -0.01143895
0000f0 f0 7d cf 3c a7 a2 65 3c ac d4 0e bc a2 9b 05 3c
       0.025328606 0.01401583 -0.008717697 0.008154782
000100 f7 aa 9b ba cc 0a 1e 3d 95 ff 22 3c 18 dc db 3b
       -0.0011876513 0.038584515 0.009948631 0.006709587
000110 2e 14 dc 3c f6 7f b4 3b 5a c6 ad 3b b9 01 fd bc
       0.026865091 0.005508418 0.0053031864 -0.03088461
000120 c8 6a 16 bc 7a 01 ac 3b 47 47 89 bc 10 71 de bb
       -0.009180732 0.0052491995 -0.01675762 -0.0067883804
000130 e5 c1 98 bc 4e d6 8b 3c 96 90 6f 3c d5 1e e2 bc
       -0.018647144 0.017069962 0.014621874 -0.027602592
000140 9e 6d 7b 3c 09 23 04 bc 4b 8c ab bb 1f 0f dd 3c
       0.015345959 -0.008064994 -0.00523523 0.02698475
000150 c0 5a 86 3c 63 28 10 3b 25 37 12 3b 5b 97 d5 bc
       0.016400695 0.0021996729 0.00223107 -0.026073148
000160 13 fc c5 3c 33 6b 9e bb 14 e6 19 3c de 97 14 bd
       0.02416805 -0.0048345565 0.009393234 -0.036277644
000170 98 37 a6 bc be 0c 40 bc 01 81 98 bc 5e 84 18 bc
       -0.020290181 -0.011721788 -0.018616201 -0.009308903
000180 ac 84 ad bc 53 a5 16 3c 80 c8 c1 bb 52 3e 5d 3b
       -0.021181427 0.00919469 -0.005913794 0.003375907
000190 05 b8 a8 3b b4 20 74 3d b0 9d 79 bc a8 2f f6 ba
       0.00514889 0.0596015 -0.01523535 -0.0018782513
0001a0 09 f8 6d bb 4a 80 97 3c 5b bf 1d bb bf d2 e7 bc
       -0.003631117 0.01849379 -0.0024070356 -0.028298734
0001b0 dc 06 1c bd 68 7b cd 3b 14 35 0e 3c 5b 93 3a 3d
       -0.03809248 0.0062708147 0.008679647 0.045550685
0001c0 b4 ef f0 ba 83 bc ad bc d5 e9 07 bc fd d6 d7 3b
       -0.0018381984 -0.021208053 -0.008295496 0.006586908
0001d0 7e 21 39 3c de db bd 3b 44 6c a9 bc d6 a2 4b bc
       0.011299489 0.0057940325 -0.020681508 -0.01242896
0001e0 34 37 3a 3c 4c 84 b9 3c f1 db 8e 3c e8 ac ad bb
       0.0113657005 0.022646092 0.01743886 -0.005300153
0001f0 27 d3 57 3a 87 f2 8e 3c ce 4d 6f bc ee 5b c3 bc
       0.0008233063 0.01744963 -0.014605952 -0.023847546

weight f4 [14, 128]
000000 cd ca eb 3a d9 7b e4 bb 07 61 8e ba e9 54 cd ba
       0.0017989516 -0.0069727716 -0.0010862657 -0.0015665564
000010 cb a6 8d 3c 1e 2f 97 3b 59 5e 4b bd ca 96 9e 3c
       0.017291447 0.004613771 -0.049650524 0.019359011
000020 93 ad a0 3a fd 20 33 bd 9c ef 26 3c aa e5 ff 3c
       0.001225876 -0.043732632 0.010188963 0.031237442
000030 e1 9d ee b8 4a c7 0f 3d a4 c6 21 bc dc 69 4b bb
       -0.000113781316 0.035102166 -0.00987402 -0.003103844
000040 8f b2 84 3b 71 7b 3d bc 4d d6 80 3d 5c 03 ea bb
       0.004049606 -0.011565075 0.06290875 -0.0071415137
000050 c4 8f 05 3d 9d 0b 69 bc 45 3d fe 3a 91 09 04 bd
       0.03260781 -0.01422396 0.0019396922 -0.032235686
000060 7a bf 62 3d 5d bb 82 bc 59 73 50 bc ff 82 8a 3a
       0.055358388 -0.015958482 -0.0127228135 0.0010567604
000070 09 08 84 bd 00 16 3e 3b 8b a9 95 3c bb 66 e4 bc
       -0.06446845 0.0029004812 0.018269321 -0.027881017
000080 70 f2 ed 3b cc fe 04 3d 05 6d a8 3c 77 fc 9a bb
       0.007261567 0.032469556 0.020559797 -0.004729803
000090 3a 72 a5 bc 4f 1a 81 bb 49 aa 99 bb cd b4 46 bb
       -0.020196069 -0.003939904 -0.004689489 -0.0030320168
0000a0 60 bf 05 b9 53 ef 08 3c a2 f3 80 3a ce c6 b7 bc
       -0.00012755161 0.008357841 0.0009838233 -0.022433665
0000b0 c2 29 71 3a 3a a2 72 bc 24 8a 03 3c aa ec 8f 3a
       0.0009199643 -0.014809186 0.008028541 0.0010980566
0000c0 09 0e de 3b 7b 22 b0 3b 21 f3 58 3b 95 26 39 3d
       0.0067765755 0.005375204 0.00331039 0.04520281
0000d0 ae a3 41 38 10 c8 f3 3b f3 73 9c 3a f4 4e af 3c
       4.6167224e-05 0.007439621 0.0011936411 0.021399952
0000e0 fe 78 41 ba 73 b6 cf 3c 6a 3d fd 3c b3 c6 93 bc
       -0.0007380395 0.025355553 0.030913074 -0.018039083
0000f0 e0 90 53 3c 85 f1 6c bc 09 0a f7 bb 0e 8a fc 3c
       0.012912959 -0.01446188 -0.007539038 0.030827548
000100 5e 77 47 bc c8 56 b6 bc 4a 60 2b 3c dc 21 92 bc
       -0.012174455 -0.022258177 0.010459969 -0.017838411
000110 d7 92 21 bd f0 9b 64 bc 62 8d 50 bb 85 eb 07 3d
       -0.039446678 -0.013953194 -0.0031822552 0.033183593
000120 e7 22 f0 bb d2 62 1b bb 8a c9 9a 3d f4 3b c0 3c
       -0.0073283794 -0.0023710025 0.07557972 0.023466088
000130 9a a7 01 3d 62 2c 23 3a e0 b6 60 bc ea 4a ba 3c
       0.031653978 0.000622457 -0.013715476 0.0227408
000140 d3 b6 89 3c 92 b4 b7 ba ef 4f fa bb 9a 65 d1 bc
       0.01681081 -0.0014015606 -0.0076389234 -0.025561143
000150 97 cb 22 bc d6 81 f2 ba 0d be a0 bb ac 6d dc 3c
       -0.009936235 -0.0018501829 -0.0049054683 0.026907764
000160 55 77 1f bc 5a 8f 3c 3c fb 34 b9 3b 29 8f 6f 3d
       -0.009733041 0.011508787 0.0056520677 0.058486138
000170 bb 51 3b 3c 85 e9 11 3d 27 fb 82 3d 2a 6c d1 bc
       0.01143306 0.035623092 0.0639556 -0.025564272
000180 0c e7 17 3d 72 da 0f bc 39 53 0b 3b 8d af 99 b9
       0.037085578 -0.008780109 0.0021259321 -0.0002931323
000190 86 74 43 3c 22 72 01 bd 9d 07 91 3c 1b 21 bc 3a
       0.011929637 -0.031602986 0.017703826 0.0014353128
0001a0 c5 26 3d 3c c3 68 ff ba 67 41 b7 ba 71 68 e4 3b
       0.011544888 -0.0019486177 -0.0013981283 0.006970458
0001b0 14 1b 42 3d 05 f3 b9 3b 27 ed bf 3c 87 d4 7c bd
       0.047389105 0.005674722 0.023428513 -0.06172612
0001c0 4e 3c 63 3c 4e 95 10 3d e6 be 85 3b 13 fc 39 bc
       0.013869358 0.035298638 0.0040815948 -0.011351603
0001d0 8a ec 52 bb ae a9 01 bc 87 fe 6e 3b 46 1f 54 bb
       -0.0032184445 -0.00791399 0.0036467628 -0.0032367273
0001e0 f8 2b 63 bb cb bb b3 ba 3d 87 3e 3d e5 24 50 3d
       -0.0034663659 -0.0013712583 0.046515692 0.050816435
0001f0 68 45 f0 ba d8 da 0b bd 8f b6 86 3b d1 80 09 3d
       -0.0018331232 -0.034144253 0.004111118 0.033570115
000200 c9 88 b6 ba 32 c4 23 3d 81 3d b6 bc b2 7b 23 3d
       -0.0013926263 0.03998203 -0.022246124 0.039912887
000210 56 03 63 39 80 0e 28 bc 50 58 3d bd 73 37 20 bc
       0.0002164965 -0.010257363 -0.0462268 -0.009778845
000220 a7 08 e5 bc cb a0 7a bb ca b9 af bc 57 f1 3c 3d
       -0.027958227 -0.0038242813 -0.021450896 0.046128597
000230 7c 57 6b bd 71 91 87 bc 81 6f 3a bd e5 14 6c bd
       -0.05745648 -0.016548844 -0.045516495 -0.057637114
000240 3c a4 bd bc 0b a2 34 bc ec bd 12 bd f5 be 81 3c
       -0.023149602 -0.011024962 -0.035825655 0.015838126
000250 9a 03 c1 3b d4 c0 43 3b 19 39 04 3d 6e b3 82 bb
       0.005890322 0.0029869573 0.032281015 -0.003988675
000260 15 ab 80 bc b7 e3 9b bb 07 8d 9f 3b 42 4e 6b bc
       -0.015706578 -0.0047573703 0.0048691067 -0.01436192
000270 36 37 1a 3d 38 01 d0 bc c9 de 93 bc ac 2a 36 3c
       0.03765031 -0.025391206 -0.018050568 0.011118572
000280 54 40 98 3c b7 0e b7 bc d9 70 38 bc 14 15 c0 3c
       0.018585362 -0.022345884 -0.011257374 0.02344755
000290 ce ce 80 3c 38 bb 7e bd f3 ae 32 bc ae 5e bd bb
       0.015723612 -0.062190264 -0.010905969 -0.005779109
0002a0 7d 4c 83 3d 2b 3b ad 3b b6 86 9f 3b 3a 32 29 bc
       0.06411073 0.0052865944 0.0048683537 -0.010326916
0002b0 be 29 f7 3b c4 f6 c5 3c 4f 56 99 3d 24 47 24 3d
       0.007542818 0.024165519 0.07487165 0.040106907
0002c0 aa 48 f9 3d 34 fe 49 bc 4b cf bc 3d 78 53 aa bc
       0.12172063 -0.012328673 0.092192255 -0.020791754
0002d0 b0 88 1e 3d c5 58 38 bd 25 e3 ae 3c 50 96 32 39
       0.038704574 -0.045006532 0.021348545 0.00017031399
0002e0 66 e4 5a bd 24 b7 fd bc 53 36 b0 bc 4f 0a 54 bd
       -0.053440474 -0.030971117 -0.021510279 -0.051767644
0002f0 09 54 37 3d ac 82 ce 3c cb 82 bb bc b0 8a 24 3d
       0.044757877 0.025208794 -0.022889515 0.040171325
000300 d4 83 4d bc 30 37 07 3d 2e e5 5b bd bc 8f 90 3c
       -0.012543637 0.033011615 -0.05368536 0.017646663
000310 35 f0 09 3d 55 cd 04 be 31 d7 21 39 55 87 54 bc
       0.033676345 -0.12968953 0.00015434322 -0.012971719
000320 95 dd 1e 3d 96 69 84 bc 32 c2 b3 3c c4 fd 2e 3d
       0.038785536 -0.016163629 0.021943185 0.04272248
000330 79 5e 51 3d 05 f7 db bb a7 9b 1f 3d e0 b2 16 bd
       0.051115487 -0.0067127966 0.0389668 -0.036791682
000340 4e 9a ec ba f1 6b e6 3b 19 ba 17 bd d9 9f 45 3a
       -0.0018051357 0.0070319106 -0.03704271 0.0007538773
000350 1c 17 a2 bc 4e f0 4f bd 84 16 18 3d b1 30 64 bd
       -0.01978641 -0.05076628 0.037130848 -0.0557105
000360 f5 29 92 bd ce b5 d1 ba bf 6e b3 3c ed bc 16 bd
       -0.07136909 -0.0015999617 0.021903394 -0.036801267
000370 c6 23 f4 3b c6 0d 34 3d 0b 0e 7d 3c 7d dc 96 bd
       0.0074505536 0.043958448 0.015445243 -0.073662736
000380 8e 17 e3 3c b6 2e 9d bb df a4 2e 3c cb 58 a1 3c
       0.027721193 -0.004796828 0.0106594255 0.01969566
000390 75 d0 72 3d 67 4b 23 3c 94 64 35 bd a1 de bc b9
       0.05928083 0.009966708 -0.044285372 -0.00036024026
0003a0 31 65 2c 3c a6 7c 17 3d 7d a2 19 bc 73 42 07 bd
       0.010522173 0.03698411 -0.009377119 -0.033022355
0003b0 ee 6b 80 bc ef 57 2e bc 66 ff e4 ba 35 ea 67 3c
       -0.015676465 -0.010641082 -0.0017471134 0.01415496
0003c0 1b 09 40 3d 1c 55 52 bd 7e 3d bd bd 65 dd 16 bd
       0.046883684 -0.051350698 -0.09240244 -0.036832232
0003d0 70 da af 3c 28 c1 36 3c 7e 46 f2 bc 32 30 50 bd
       0.021466464 0.0111544505 -0.029574629 -0.050827213
0003e0 ec 2c 61 3d ce 30 12 bd 52 25 e6 3c 55 69 1d bd
       0.05497448 -0.035691075 0.028093968 -0.03843053
0003f0 e8 d6 2b bd ad 9c 4c bd 3c 0b 55 bb 19 ae ac bc
       -0.041952997 -0.049954105 -0.0032507917 -0.02107911

bias f4 [14]
000000 63 57 fd bc 3b ee ad 3b 6c 59 4b bc c4 35 9a 3c
       -0.030925458 0.0053079403 -0.012411457 0.018824466
000010 a9 ed 7f 3b 6c a5 d8 3c 8a 09 2b 3a 19 ec 6b bd
       0.0039051569 0.026446067 0.0006524554 -0.057598207
000020 ff 66 72 bc 7c d0 61 bd 58 af 07 bc cf 91 94 bb
       -0.014795064 -0.055130467 -0.008281551 -0.0045339833
000030 28 18 cf 3b d7 ac f0 ba
       0.0063200183 -0.0018362057

weight f4 [64, 13]
000000 97 60 b9 be 0a cc 28 3f 4d 00 d6 3d 8d 43 35 3e
       -0.36206505 0.6593634 0.10449276 0.1770155
000010 72 9f 92 3c 00 22 88 be c5 4a 62 3e de f4 9a bd
       0.017898295 -0.2658844 0.22098835 -0.07566236
000020 97 4a b3 3b f7 10 05 be 46 5a a1 3e d2 08 c6 be
       0.0054715383 -0.12994753 0.31514186 -0.38678604
000030 6e 96 b4 3c 7e 09 3b 3f 79 fe 6d be 3b 32 c7 3e
       0.022044387 0.7306136 -0.23241605 0.3890551
000040 d8 fa 82 3d f2 bf ee 3d 35 cf 20 3e 4c e7 68 bd
       0.06395501 0.116577044 0.15704043 -0.056861207
000050 3f 1b 4d 3e 5a 51 1a be c8 48 8b be 98 8d 9b 3d
       0.20029925 -0.15070096 -0.27203965 0.07595366
000060 6e 51 81 3e 88 a5 c0 3d e0 78 9d 3e 2e ff 67 be
       0.25257438 0.094065726 0.30756283 -0.22655937
000070 da bb 3e 3f 08 7c a3 3c 3a 46 ca 3d 3e 39 e5 3c
       0.7450539 0.019956604 0.09876676 0.027981397
000080 05 fa 96 be 69 21 99 3d 4a 94 ce bd 5d 76 b6 be
       -0.29487625 0.074770756 -0.10086878 -0.3563718
000090 08 d1 88 bc 2e 40 50 3e 86 3e 04 3e de 88 01 be
       -0.016701236 0.20336983 0.12914476 -0.12649867
0000a0 65 67 bc be e7 f9 9f bd 09 f6 43 be fc 16 34 bd
       -0.36797634 -0.07811337 -0.19136824 -0.043967232
0000b0 e8 cb b6 3d e9 48 04 bf dd 87 48 be ae 8d be bc
       0.08925611 -0.5167375 -0.19583078 -0.023260918
0000c0 66 2e 2c 3e 4e 78 c3 be e7 71 0e bf 2e 24 a4 3d
       0.16814575 -0.38177723 -0.5564255 0.08014713
0000d0 e9 68 1e be 79 42 b4 be c1 a8 87 3e a0 fb 9d be
       -0.15469708 -0.35206965 0.26495937 -0.30856037
0000e0 7f 4d a1 be 9c 5b 15 3e 81 3f 82 3e 73 e7 ef bc
       -0.31504437 0.14585727 0.25439075 -0.029285168
0000f0 6f 27 4a 3d 49 06 40 3e b0 56 ec 3e 70 10 00 3e
       0.049354013 0.18752398 0.46159887 0.1250627
000100 e8 45 fb be bd 9e 0c 3e 27 07 3a be ab d0 be 3e
       -0.49076772 0.13732429 -0.18166791 0.37268576
000110 f5 79 87 be be 1e c4 bd df 42 cb be 2e 37 ba 3e
       -0.26460233 -0.09576176 -0.39699456 0.36370224
000120 4c 08 ef be fb 54 fa 3c 07 ca 0c 3e e1 e4 99 3d
       -0.46686018 0.0305581 0.13748942 0.07514358
000130 6f 73 2e 3e 90 a1 e2 3e 3f 15 3b be 1f 23 02 3f
       0.17036222 0.44263887 -0.18269823 0.5083484
000140 cd be 10 bf 9a 20 8f 3d 76 59 f9 bd 39 49 70 3e
       -0.5654114 0.0698864 -0.121752664 0.23465432
000150 62 6c a3 be 1c 14 83 3e 30 68 f1 bb 47 52 b0 3d
       -0.31918627 0.2560128 -0.0073671564 0.08609443
000160 f7 e8 68 be ca 01 9c be d6 cb 00 be 90 d3 bf be
       -0.22745119 -0.30470115 -0.12577757 -0.37466097
000170 06 83 eb 3d 5e 7c 36 bd da f5 14 be 41 62 10 3f
       0.114996 -0.0445522 -0.1454691 0.56399924
000180 f9 b7 e3 3d db 01 8c bd a3 7f 27 3e fa a4 6a 3e
       0.111190744 -0.068362914 0.16357283 0.22914496
000190 c8 63 d9 be 34 97 97 3d 94 ae 86 be 94 1c e8 be
       -0.4245894 0.074018866 -0.26305068 -0.45334303
0001a0 de 5e 47 be 59 7d a1 3e 55 37 b4 be 45 52 5d 3e
       -0.19469783 0.31540945 -0.35198465 0.21613415
0001b0 67 e3 7e 3d 36 3d aa 3e 15 c3 a4 3e 80 0b a9 3e
       0.062228587 0.33249825 0.32180086 0.33016586
0001c0 23 bb 39 be ef d8 f5 3e e0 8c 4b be 15 4d ee 3d
       -0.18137793 0.4801707 -0.19877958 0.11635796
0001d0 9a 5a 59 3e a6 b3 7e bd 67 d6 e7 be 7c 01 1a 3e
       0.21225968 -0.062183045 -0.45280764 0.15039629
0001e0 2f 2a fd be 2f 7c 29 3e 41 0a 39 39 3b 04 ea 3e
       -0.49446246 0.16551279 0.00017646795 0.45706353
0001f0 34 ba 90 3e 95 80 4d be 57 2a a3 be e8 8e a0 3e
       0.28267062 -0.20068581 -0.3186824 0.3135903
000200 ab db 0a be 14 37 88 bd ad c1 2a bd 4c 7d be be
       -0.13560359 -0.0665113 -0.04168861 -0.3720497
000210 90 ac 02 3e 40 05 19 be ae 44 25 3e 68 78 8f 3e
       0.1276114 -0.14943409 0.1613948 0.2802155
000220 b5 7e a1 3f d5 cd db 3c 19 69 c0 be f8 a2 17 be
       1.2616793 0.026831547 -0.37580183 -0.14808261
000230 c1 6f 71 3f c9 0b a4 bf 3d 3b 29 3e 41 2a ce 3e
       0.9431115 -1.2816097 0.16526504 0.40266612
000240 50 4d 94 bd 7e 41 47 be 4a d2 97 be 5c c3 a6 3b
       -0.07241309 -0.19458577 -0.29652625 0.0050892066
000250 b3 64 15 3e f0 1b 44 3f 87 86 2c be 79 11 2b 3e
       0.14589195 0.7660513 -0.16848193 0.16705884
000260 ba 88 59 3e ca 78 59 3e 26 49 f5 bd 4d f6 cb 3c
       0.21243563 0.21237484 -0.119768426 0.024897719
000270 12 4f e9 3d 40 ce 02 bf 9e 4c 0c 3e 39 ce 6a bc
       0.113920346 -0.5109596 0.13701102 -0.014331394
000280 73 e0 54 bd 60 88 9d be dd 47 a5 be 22 a3 4a 3d
       -0.051971864 -0.30768108 -0.3228139 0.04947198
000290 40 dd 9e 3e 77 c1 1e 3c 13 c3 02 3f 3c 86 c0 be
       0.31028175 0.00968968 0.5107891 -0.37602413
0002a0 57 da 85 bd 74 e3 30 bd a5 fa 09 3e 5c a9 6c be
       -0.06535786 -0.043185666 0.1347452 -0.2311148
0002b0 93 15 d9 be f9 79 67 3e 8f 11 1c bf fb b8 d1 bd
       -0.42399272 0.22605123 -0.6096429 -0.1024036
0002c0 1c 81 4a be 3a d1 45 3e f7 18 11 3d c6 91 ae be
       -0.19775814 0.19318095 0.0354242 -0.3409559
0002d0 6e 53 a6 be 45 b5 e5 bd c5 66 8c be fa 22 1e 3c
       -0.32485527 -0.11216215 -0.27422157 0.009651894
0002e0 e6 6c e1 be 7e 29 ce 3d 74 07 a4 be d3 e5 8e 3d
       -0.44028395 0.10066508 -0.32036936 0.06977429
0002f0 85 ca 0e 3e e8 3b ba be 67 a6 be be 44 93 c0 3c
       0.13944443 -0.3637383 -0.3723633 0.023507722
000300 ba 3c 73 3d 44 44 85 be 8f 95 00 bf 1f a8 cb 3e
       0.059384085 -0.26028645 -0.5022821 0.39776704
000310 e0 b7 1c be 0e 7f a8 3e 17 8a f5 3d 81 00 1f be
       -0.15304518 0.32909435 0.11989229 -0.15527536
000320 e1 32 1a 3e e9 dd c1 be bc 59 92 be 0c 6d d1 be
       0.15058471 -0.37864617 -0.28584087 -0.4090351
000330 91 be db be 09 55 80 bb 8a 92 89 3e b1 4b 3a 3c
       -0.42918828 -0.003916387 0.26869613 0.011370585
000340 36 b3 a5 bc 82 a7 76 3e 67 3e 6c bd 33 1f ad 3e
       -0.020227056 0.24087337 -0.0576767 0.33812866
000350 31 c7 75 be 67 53 0a bd 28 13 8c be 1c 61 f5 3e
       -0.24001767 -0.033770945 -0.27358365 0.4792565
000360 c7 3e 2a be 61 c6 14 3f c3 1e db be d7 23 c3 bd
       -0.1662551 0.581152 -0.42796907 -0.0952832
000370 dd 33 10 bf e4 95 cd 3d 97 78 64 3b bc 62 90 3e
       -0.5632914 0.10038355 0.0034861916 0.28200328
000380 8b fd eb 3d 29 c7 d8 be a4 04 3b bc 20 51 60 bf
       0.11522969 -0.42339447 -0.011414681 -0.87623787
000390 ea 3a 1d bf 64 38 7e be 69 bc 49 3c 43 36 6a bf
       -0.6141802 -0.24826199 0.012312987 -0.91489047
0003a0 50 ee a1 3e 97 e9 de be ed b2 9d bc 06 5c e5 3e
       0.3162713 -0.4353759 -0.019250358 0.4479677
0003b0 bf 6a 0d ba a3 d2 d6 bd b8 dc cb 3d d4 d5 1e bd
       -0.00053946296 -0.104893945 0.09954208 -0.03877814
0003c0 aa b9 18 bf a3 91 cf 3d 3d 57 9e bc 42 d4 96 3e
       -0.596583 0.101352 -0.019328708 0.29458815
0003d0 5a e9 b5 3e b9 44 df 3e bd 07 aa 3d 84 bc 54 3e
       0.35529596 0.4360712 0.08302257 0.20775038
0003e0 2e 57 69 3e 2b 97 61 bd 8c e7 b5 3d dd ce ed be
       0.22787163 -0.055075806 0.08882055 -0.46446887
0003f0 8f 7b a8 3d be 42 07 bd 35 61 64 3c 12 4b 58 3d
       0.08226692 -0.033022635 0.013939192 0.052805968

bias f4 [64]
000000 00 00 00 00 00 00 00 00 00 00 00 00 00 00 00 00
       0.0 0.0 0.0 0.0
000010 20 09 1b bd 09 95 74 bc 39 b0 06 3d d0 11 d2 3d
       -0.0378505 -0.014928111 0.032882903 0.10257304
000020 77 7b 1c 3c 9e cf 0a bc 5d 6e 91 3d 1d f9 4c bd
       0.009550921 -0.008472351 0.07101128 -0.05004226
000030 00 00 00 00 bb 50 cd bb 5c 56 b4 bb ae 3d f1 35
       0.0 -0.0062657273 -0.005503459 1.797385e-06
000040 5f 7c e7 bc 15 2d aa bd 39 b6 d0 36 57 39 9a bc
       -0.028257547 -0.0830938 6.2200966e-06 -0.01882617
000050 93 c2 db bc a6 f7 4b bd 32 b9 52 bd af b6 70 bd
       -0.026826179 -0.049796723 -0.051446147 -0.05876797
000060 38 41 3c 3c 05 39 3a bd 66 c5 54 3b 00 00 00 00
       0.011490159 -0.045464534 0.0032466291 0.0
000070 f6 84 78 bc 78 5c 97 3d 1e b4 90 3d a4 fb b1 3b
       -0.015168419 0.07390684 0.070656046 0.005431609
000080 c9 6e 0f 37 fc 8b 43 bd 42 e7 8e 3d ed 89 c3 3c
       8.549258e-06 -0.04774092 0.06977703 0.02386948
000090 00 00 00 00 88 6f fc bd 60 97 ee bb 00 00 00 00
       0.0 -0.123259604 -0.007281229 0.0
0000a0 7b 57 bd 3d 13 f6 94 bd 18 97 a7 3c 16 55 35 bd
       0.09245201 -0.072734974 0.02045779 -0.044270597
0000b0 c8 f7 8c 37 75 74 b8 bd 4c 86 97 bd d3 aa 88 3d
       1.6804683e-05 -0.090065874 -0.07398662 0.06673207
0000c0 77 50 6b bc 7c 30 aa 3a f7 fa af 3d 00 00 00 00
       -0.014362446 0.001298442 0.085927896 0.0
0000d0 1a 6a a0 3d 00 00 00 00 00 00 00 00 80 11 6b 3c
       0.07832737 0.0 0.0 0.014347434
0000e0 00 00 00 00 00 00 00 00 a3 16 3d 3d 0b 04 14 3d
       0.0 0.0 0.046164166 0.03613667
0000f0 81 02 85 bc fb 1f 03 3d 00 00 00 00 00 00 00 00
       -0.016236546 0.03201292 0.0 0.0
