src/GraspNode/models/model_button_cp_0126-1.pt (torch, 456183 bytes, 15 tensors)

weight f4 [64, 13]
0	0xbd56b9f2	-0.052423425
1	0x3e887346	0.26650447
2	0xbd42aee9	-0.04753009
3	0xbe13b73d	-0.14425369
4	0xbf014a63	-0.5050413
5	0x3e9e59c9	0.30927876
6	0xbe774abf	-0.24149607
7	0x3e19738c	0.14985484
8	0x3f25cf74	0.64769673
9	0xbdefa642	-0.11701633
10	0x3e8dc025	0.27685657
11	0xbcc4d49b	-0.02402716
12	0xbe81e9b7	-0.25373623
13	0xbef1ddd0	-0.47239542
14	0xbcd8cd62	-0.026465122
15	0xbeb5f6f5	-0.35539976
16	0x3e5ab593	0.21358328
17	0x3e03a66b	0.12856452
18	0x3e979827	0.2960827
19	0x3d874861	0.06605602
20	0xbc72dcad	-0.014823121
21	0x3ed313b2	0.41225964
22	0x3e99789d	0.29974833
23	0xbed4b3e7	-0.41543505
24	0x3cea58ef	0.02860686
25	0x3eaa45ce	0.33256382
26	0xbcd9ea49	-0.026600974
27	0x3cf4ff40	0.029906869
28	0x3e014f08	0.12627804
29	0x3e6fbaa1	0.23411037
30	0xbee268ce	-0.44220585
31	0xbebec9db	-0.37263379
32	0x3e22e277	0.15906702
33	0xbe05a5c8	-0.13051522
34	0x3e3248f0	0.17410636
35	0xbe48b292	-0.19599369
36	0x3d8d648d	0.06903944
37	0x3ee509dc	0.44734085
38	0x3e3c45ae	0.18385956
39	0x3e392f2d	0.18084402
40	0xbf0ec6eb	-0.55772275
41	0x3e91dd99	0.28489378
42	0x3eb2855c	0.3486737
43	0x3e12eb31	0.14347531
44	0xbd396bc1	-0.045268778
45	0xbe0196e2	-0.12655213
46	0xbe993a39	-0.29927233
47	0xbea66ee7	-0.32506487
48	0x3ea2c6a7	0.31792185
49	0x3e823a6d	0.254352
50	0xbe8e30a9	-0.277715
51	0x3e621f6f	0.22082303
52	0x3f03c177	0.5146708
53	0xbcfc3125	-0.030785153
54	0x3e806ca6	0.25082892
55	0xbec864af	-0.39139315
56	0x3cc5bcec	0.024137937
57	0xbe7fbb8f	-0.24973892
58	0xbdd5963d	-0.10429046
59	0x3eb41b92	0.35177284
60	0x3e086073	0.13318042
61	0xbea565d5	-0.32304254
62	0x3eeca8f6	0.46222657
63	0x3ede9d6c	0.43479478
64	0xbe0de2ad	-0.13856001
65	0x3e814adc	0.25252426
66	0x3ed70528	0.4199612
67	0xbe841d86	-0.25803775
68	0xbddabfec	-0.106811374
69	0xbe3e6d8d	-0.18596478
70	0xbf1f3230	-0.62185955
71	0x3d97a75e	0.0740497
72	0xbd1f2528	-0.038853794
73	0xbe24459f	-0.16042183
74	0xbe706755	-0.23476918
75	0xbe3adbf2	-0.18247965
76	0x3e358e34	0.17730027
77	0x3eb66b40	0.356287
78	0x3e937170	0.28797483
79	0x3e0df337	0.1386231
80	0x3eaef7d9	0.34173468
81	0x3e588e7f	0.21148108
82	0x3e8825ce	0.26591343
83	0x3e58c860	0.21170187
84	0xbec63971	-0.387157
85	0x3ec6b124	0.38807023
86	0xbeb2ba08	-0.34907556
87	0x3d82431a	0.06360455
88	0x3e5fdf28	0.21862471
89	0x3ec37118	0.3817222
90	0xbcf8daae	-0.030377712
91	0x3f025cdb	0.50922936
92	0xbd3d042b	-0.046146553
93	0xbf139fbd	-0.57665616
94	0x3edea7d1	0.4348741
95	0xbe574ea8	-0.21026099
96	0x3da4a4fd	0.080392815
97	0x3d8cfb6f	0.06883895
98	0xbd5b80c4	-0.053589597
99	0xbdb137b2	-0.08653201
100	0xbe36c4de	-0.17848536
101	0x3e4842e7	0.19556771
102	0x3ee170ac	0.44031274
103	0xbf328436	-0.6973299
104	0xbde6a3c8	-0.112617075
105	0xbede422b	-0.43409857
106	0x3ef91c81	0.4865456
107	0x3d321cbf	0.043484446
108	0xbde69673	-0.11259165
109	0xbd668f04	-0.056288734
110	0x3e635f72	0.22204378
111	0x3f1525a9	0.5826059
112	0x3dbcdfba	0.0922236
113	0x3d1724f6	0.036900483
114	0x3ed1a47f	0.40945813
115	0x3e8763bb	0.26443276
116	0x3d854557	0.06507366
117	0x3e8b4f33	0.27208862
118	0x3d8b2db9	0.0679583
119	0x3ef2f396	0.47451466
120	0x3d40d09d	0.04707395
121	0x3f1abd50	0.6044512
122	0x3b00b853	0.0019641116
123	0x3d1c1e13	0.03811462
124	0x3d78ea80	0.06077051
125	0x3e7bdbe2	0.24595597
126	0x3e062ee9	0.13103832
127	0xbeb695ad	-0.3566107
128	0x3eab5cc6	0.33469218
129	0x3d4f34c5	0.050587434
130	0x3ea4e5f9	0.32206705
131	0x3edafe31	0.42772058
132	0x3e221253	0.15827303
133	0xbd77afda	-0.06047044
134	0x3e9a8908	0.30182672
135	0x3ebce199	0.36890867
136	0xbd9f2d61	-0.07772327
137	0xbdeaeeee	-0.114713535
138	0x3e89122a	0.2677167
139	0x3eba88d9	0.3643253
140	0x3ebb4c4e	0.36581653
141	0x3e977133	0.29578552
142	0xbde514e4	-0.11185625
143	0x3bb4c0bf	0.005516141
144	0x3e752e00	0.23943329
145	0x3f3326c6	0.6998104
146	0xbeed10d5	-0.46301904
147	0x3d247143	0.040147077
148	0xbc63c3ed	-0.013901693
149	0x3dfbdd5c	0.1229808
150	0x3cdfba25	0.02731044
151	0xbe0a8da0	-0.13530588
152	0x3e8a7d7e	0.27048868
153	0xbd8ea95b	-0.06965896
154	0x3e7b3a53	0.24533968
155	0x3e81dc0f	0.25363204
156	0x3ee51b57	0.4474742
157	0x3d22377e	0.039603703
158	0x3e361ac7	0.17783652
159	0xbe3b4d62	-0.18291238
160	0x3e83720d	0.2567295
161	0xbe92d545	-0.28678337
162	0xbe8ffe30	-0.28123617
163	0xbf17de1d	-0.5932329
164	0xbe8e7774	-0.2782551
165	0x3ea4a684	0.3215829
166	0xbe6f0ca2	-0.23344663
167	0x3e31d36b	0.17365806
168	0x3e58b9c1	0.2116461
169	0x3e9e581f	0.30926606
170	0xbe29938b	-0.1656019
171	0x3ea217a6	0.31658667
172	0xbc7e4e8c	-0.015521657
173	0x3e6f3d58	0.23363245
174	0xbf1570ea	-0.5837542
175	0x3eeb355f	0.45939156
176	0xbc9321e7	-0.017960502
177	0xbd1f4ba9	-0.038890515
178	0xbddd6547	-0.10810333
179	0x3e420352	0.18946579
180	0xbec01915	-0.37519136
181	0xbde41bb4	-0.111380965
182	0x3ead4066	0.33838195
183	0x3cd37959	0.025814699
184	0xbe1218de	-0.14267299
185	0x3e5fb4d8	0.2184633
186	0x3f1daaa0	0.6158848
187	0x3ea74c73	0.32675514
188	0x3dafbc82	0.08580877
189	0x3e53b94c	0.20676154
190	0xbe821b6f	-0.25411555
191	0x3e6d9b1b	0.232037
192	0x3dcb62e0	0.09930968
193	0x3e19e95c	0.15030426
194	0x3eb3ea7b	0.35139832
195	0x3e0d7029	0.13812317
196	0xbe2c6bde	-0.16838023
197	0x3e062aa1	0.13102199
198	0x3db2fc21	0.08739496
199	0x3cc22781	0.023700478
200	0x3f14187f	0.5784988
201	0x3db167f9	0.08662409
202	0xbe46e931	-0.19424893
203	0xbed2835e	-0.4111585
204	0xbe32a9e6	-0.17447624
205	0xbee0095b	-0.43757138
206	0x3d6265bd	0.055272806
207	0x3ebfb95b	0.37446102
208	0xbdf5c5ae	-0.12000595
209	0xbe167d85	-0.1469632
210	0xbda94ed7	-0.08266991
211	0x3f3d1f30	0.73875713
212	0xbe316595	-0.17323907
213	0x3e2e0eba	0.16997805
214	0x3ea269ef	0.31721446
215	0x3e951566	0.29117888
216	0x3cdc4051	0.026886137
217	0x3e43c5e2	0.19118455
218	0xbf227f07	-0.6347508
219	0xbde86bb7	-0.1134867
220	0xbe5a5557	-0.21321617
221	0x3ea8fe81	0.3300667
222	0x3e8b0a43	0.27156267
223	0xbdef154c	-0.11673984
224	0xbe63450e	-0.22194311
225	0x3f0da796	0.5533384
226	0xbd782ca7	-0.06058946
227	0x3d0a91a2	0.033830293
228	0xbf215017	-0.6301283
229	0x3e38b084	0.18036085
230	0xbda57d9c	-0.08080599
231	0xbdac45b3	-0.084117316
232	0x3e2bff6f	0.16796659
233	0x3e455e60	0.19274282
234	0xbdcd81f4	-0.10034552
235	0xbe4b18e0	-0.19833708
236	0x3b9017c8	0.004397366
237	0x3eaa1e1e	0.33226103
238	0x3e991f02	0.2990647
239	0xbecfc743	-0.40581712
240	0x3f07eb30	0.5309324
241	0xbf1463d1	-0.5796481
242	0xbe842a15	-0.25813356
243	0xbd6f59c2	-0.05843521
244	0xbef58639	-0.47953966
245	0xbdef0bc3	-0.11672165
246	0x3d411a93	0.047144484
247	0xbd9d2895	-0.07673756
248	0xbe22a648	-0.15883744
249	0x3efee15a	0.49781305
250	0xba8b5a1d	-0.0010631714
251	0xbe7369ed	-0.23770876
252	0xbedd6469	-0.4324067
253	0x3eddc684	0.43315518
254	0xbf00ee56	-0.5036367
255	0xbc6d0db9	-0.014468604

bias f4 [64]
0	0xbdea1cf7	-0.11431306
1	0xbd0f99b8	-0.035058707
2	0x3cef725d	0.029229337
3	0xbcfd48b3	-0.030918455
4	0x3d651ad2	0.05593378
5	0x3b744c38	0.0037276875
6	0x00000000	0.0
7	0x3c8d0402	0.017213825
8	0xbd081f09	-0.033232722
9	0x3b7e3b65	0.0038792726
10	0x00000000	0.0
11	0x00000000	0.0
12	0xbd13c355	-0.036074955
13	0x3dcf4917	0.10121363
14	0x3c3c1c71	0.01148139
15	0x3c099674	0.008397687
16	0xbc9fbd77	-0.019499524
17	0xbcd2358b	-0.025660297
18	0x3d95b83c	0.073105305
19	0x3cf21671	0.029551717
20	0xbcd25d08	-0.025679126
21	0x3caeed54	0.021353401
22	0xbd7c99eb	-0.061670225
23	0xbc149490	-0.009068623
24	0xbcd59f3a	-0.026076902
25	0x00000000	0.0
26	0x00000000	0.0
27	0xbd933ee8	-0.07189733
28	0x00000000	0.0
29	0x00000000	0.0
30	0xb8687d81	-5.5429995e-05
31	0xbc92b131	-0.017906757
32	0x3bb87d95	0.005630205
33	0x382981d0	4.0413637e-05
34	0x3d123d09	0.03570274
35	0x00000000	0.0
36	0xbc584b03	-0.013201478
37	0x00000000	0.0
38	0x3bbf967f	0.005846798
39	0x3c349472	0.01102172
40	0x00000000	0.0
41	0xbbdb9702	-0.006701351
42	0x35e104d5	1.6765213e-06
43	0x3bba7e76	0.005691345
44	0x00000000	0.0
45	0x3d068b87	0.032847907
46	0x3d753771	0.059867326
47	0x00000000	0.0
48	0xba758f98	-0.00093674054
49	0x00000000	0.0
50	0xbc15d171	-0.009144173
51	0x00000000	0.0
52	0x00000000	0.0
53	0x3c10d73f	0.008840381
54	0xbcd0ed58	-0.0255038
55	0xbbbbf00b	-0.0057354025
56	0x00000000	0.0
57	0x3bf052f1	0.007334106
58	0xbb94355e	-0.0045229634
59	0xba2c6e93	-0.0006577756
60	0x3b4f7699	0.0031656383
61	0xbbfa254e	-0.0076338416
62	0xb996a976	-0.00028736488
63	0x3d80b00a	0.06283577

weight f4 [256, 64]
0	0x3dfeca5e	0.12440942
1	0xbe736690	-0.23769593
2	0x3c06c098	0.008224629
3	0x3dc8e066	0.098084256
4	0x3dbad7e0	0.09123206
5	0x3dc9cfbd	0.09854076
6	0x3d2a6769	0.041602526
7	0x3cf8f6d1	0.030391129
8	0x3d74cd55	0.059766132
9	0x3d3d6765	0.046241183
10	0x3cc868de	0.024464067
11	0x3e7bc211	0.24585749
12	0xbd5298ce	-0.051415257
13	0x3dceae49	0.10091836
14	0x3e0d8343	0.13819604
15	0xbd99c697	-0.07508581
16	0x3d9a91a9	0.07547314
17	0xbe192401	-0.1495514
18	0xbd388d66	-0.045056723
19	0x3c96870d	0.018374944
20	0xbd767783	-0.06017257
21	0x3cda8cbc	0.026678436
22	0x3d92535b	0.07144805
23	0xbd5e65fe	-0.054296486
24	0xbcc64360	-0.024202049
25	0x3eb1cd57	0.34726974
26	0xbe0618ef	-0.13095449
27	0x3dad9f82	0.08477689
28	0x3d940f8b	0.07229527
29	0xbe0af96d	-0.13571711
30	0xbd1f6cb3	-0.038922023
31	0xbdb32920	-0.08748078
32	0x3ea957d5	0.33074823
33	0xbd5d6ab1	-0.054056827
34	0x3d178cf2	0.03699965
35	0x3da0ad5b	0.07845565
36	0xbd356bf7	-0.044292416
37	0xbde39247	-0.111118846
38	0x3d5cdf39	0.05392382
39	0x3e6011a8	0.21881735
40	0x3dc69d61	0.096979864
41	0x3e16f3e9	0.14741482
42	0xbe31c36d	-0.17359705
43	0x3e9c17e6	0.30486983
44	0xbd829a37	-0.063770704
45	0xbe0e85b1	-0.13918187
46	0xbd648476	-0.055790387
47	0x3da1c6d5	0.07899252
48	0x3e4166a3	0.18886809
49	0xbe3c481d	-0.18386884
50	0xbd85cd43	-0.06533291
51	0xbe4eee1b	-0.20208018
52	0x3c36e8f1	0.011163936
53	0xbda268f9	-0.07930178
54	0xbde1336c	-0.10996136
55	0x3e194e22	0.14971212
56	0x3e10c359	0.14137019
57	0xbe226b49	-0.15861239
58	0x3e617d39	0.22020425
59	0xbe071955	-0.13193257
60	0x3dca113e	0.0986657
61	0xbe2936ff	-0.16524886
62	0x3ddb090f	0.10695087
63	0xbdae4b35	-0.08510438
64	0x3b971e11	0.0046117385
65	0x3bf38eea	0.007432808
66	0xbcd8549d	-0.026407534
67	0x3e790dee	0.2432172
68	0x3df23066	0.118256375
69	0xbd9a3842	-0.075302616
70	0x3df5bef8	0.11999315
71	0x3e119e54	0.14220554
72	0xbdd982b4	-0.10620633
73	0x3baece82	0.0053346762
74	0x3b08388b	0.0020785655
75	0xbe074f05	-0.13213737
76	0xbbbd7365	-0.0057815784
77	0xbe1006b2	-0.14065054
78	0xbe7b9f1d	-0.24572416
79	0x3e485eaf	0.19567369
80	0xbe8fca1c	-0.28083885
81	0xbd2d6891	-0.04233605
82	0xbe11f972	-0.14255312
83	0x3de3f079	0.11129851
84	0xbd82b868	-0.06382829
85	0x3e8d4718	0.27593303
86	0x3e1459db	0.14487402
87	0x3df8024b	0.12109812
88	0x3df870fc	0.12130925
89	0xbd4ec457	-0.050480213
90	0xbd1fe47f	-0.03903627
91	0xbe58228a	-0.21106926
92	0x3db33928	0.08751136
93	0x3cb8d79f	0.022563754
94	0x3bd05822	0.0063581625
95	0x3e002591	0.1251433
96	0x3e5e1f63	0.2169166
97	0x3d99ab28	0.075033486
98	0xbdab6a99	-0.08369941
99	0x3eda84f9	0.42679575
100	0xbdc969b2	-0.09834613
101	0xbd8e6210	-0.06952298
102	0xbe22e2ed	-0.15906878
103	0x3c351a96	0.011053702
104	0x3b409173	0.002938357
105	0x3d00ba3a	0.0314276
106	0x3d2bc41b	0.041935068
107	0xbc1756cd	-0.0092370035
108	0x3d63c23b	0.055605154
109	0xbe3de8af	-0.18545793
110	0xbe64be2d	-0.22338171
111	0x3d52580b	0.051353496
112	0xbe3671d2	-0.17816857
113	0xbdf96f96	-0.121794865
114	0x3d6ecb6b	0.058299463
115	0x3b898892	0.0041971887
116	0x3dd49100	0.10379219
117	0x3c4d3834	0.012525607
118	0x3d026767	0.031836893
119	0x3e0ace01	0.13555147
120	0xbe797aad	-0.24363203
121	0x3e32c015	0.17456086
122	0x3e3da185	0.18518646
123	0xbd1d6fcb	-0.038436692
124	0x3dae2d57	0.08504742
125	0xbe41ae87	-0.18914233
126	0xbddd92e2	-0.10819031
127	0xbe2ff8d6	-0.17184767
128	0x3d8c3ffe	0.06848143
129	0xbe65b95b	-0.22433989
130	0xbe0a6166	-0.13513717
131	0x3e60286c	0.2189042
132	0xbe1e94f9	-0.15486516
133	0x3df94119	0.121706195
134	0x3d579130	0.052628696
135	0xbe8a4363	-0.27004537
136	0x3d6bc999	0.057565305
137	0xbe694577	-0.22780405
138	0xbe6c7059	-0.23089732
139	0x3d1b5d4c	0.03793077
140	0xbd0976f2	-0.0335607
141	0xbd3313a0	-0.043719888
142	0x3d5f34ee	0.054493837
143	0x3e108a43	0.14115243
144	0xbd1abc30	-0.037777126
145	0x3e2cbdab	0.16869228
146	0xbe0dff4c	-0.1386692
147	0x3de37774	0.11106768
148	0x3e567b40	0.20945454
149	0x3e1f1f4b	0.15539281
150	0xbd3cef5e	-0.046126716
151	0x3eaecdd8	0.3414142
152	0xbc0f35e7	-0.008740879
153	0x3d9d161d	0.076702334
154	0xbe33ac83	-0.17546277
155	0xbe76eab8	-0.24112976
156	0x3c8631c9	0.016381161
157	0xbcdc8f55	-0.026923815
158	0x3dd0c82b	0.10194429
159	0xbd1ee25d	-0.038790096
160	0x3dec72cb	0.115453325
161	0xbe4095bd	-0.1880712
162	0x3cdbad08	0.026815906
163	0xbe33a289	-0.17542471
164	0xbc164bf6	-0.009173384
165	0xbe42b065	-0.19012602
166	0x3e5ba183	0.2144833
167	0xbc03749e	-0.008023409
168	0x3d863c4f	0.06554472
169	0xbe01d3a6	-0.12678394
170	0x3dd40e01	0.103542335
171	0xbe058559	-0.1303915
172	0xbe0aea47	-0.13565932
173	0xbe44f441	-0.192338
174	0xbe0ca8c1	-0.1373625
175	0x3d3d56d8	0.0462254
176	0x3e8f4e88	0.27989602
177	0xbe27a487	-0.16371356
178	0x3d16145c	0.03664051
179	0x3d7d7374	0.061877683
180	0x3ceaa6bd	0.02864396
181	0xbd77a5bc	-0.06046079
182	0xbe50acd9	-0.20378436
183	0xbe21849f	-0.15773247
184	0x3d904299	0.070439525
185	0xbd3356da	-0.043784
186	0x3de920a9	0.113831826
187	0x3d22a98c	0.039712474
188	0xbe310c26	-0.1728979
189	0x3ca5b401	0.020227434
190	0xbc5f6f71	-0.01363741
191	0xbe02c980	-0.12772179
192	0xbdf49e9b	-0.11944314
193	0xbe348772	-0.17629793
194	0xbd1424fb	-0.03616808
195	0x3dd61431	0.1045307
196	0xbd119b0e	-0.035548262
197	0x3e45fe8a	0.1933538
198	0x3e43edd6	0.19133696
199	0x3db1df28	0.08685142
200	0x3e0ff1a5	0.14057024
201	0xbdc8bc62	-0.09801556
202	0xbc048b9d	-0.008089927
203	0x3d0cf90b	0.034417193
204	0x3d84a498	0.06476706
205	0xbdd17e80	-0.10229206
206	0x3e10c472	0.14137438
207	0x3cfa7b86	0.030576479
208	0xbdd42f78	-0.103606164
209	0x3d7ed7ce	0.062217526
210	0xbbc7b7b2	-0.0060948962
211	0xbd866980	-0.06563091
212	0x3c92c876	0.017917853
213	0x3e1afbf4	0.15135175
214	0xbcadd043	-0.021217471
215	0x3e84d8cd	0.25946656
216	0x3c4b884b	0.0124226315
217	0x3ba94418	0.005165588
218	0x3d20c91f	0.039254304
219	0x3d543522	0.051808484
220	0xbed6a15e	-0.41919988
221	0xbd9d12f2	-0.07669629
222	0x3c6cddd8	0.014457189
223	0xbce036ef	-0.027369944
224	0xbc230e46	-0.0099521335
225	0x3d60fe2d	0.0549299
226	0xbcecf924	-0.028927393
227	0xbcb9c580	-0.022677183
228	0xbe1570ae	-0.14593765
229	0x3d45dfbd	0.048309077
230	0xbca9ff82	-0.020751718
231	0xbe2ca65e	-0.16860339
232	0x3e183166	0.14862594
233	0xbd6874d0	-0.056752026
234	0xbdbfdb2c	-0.093679756
235	0xbe054d40	-0.1301775
236	0xbe0bddae	-0.13658783
237	0xbe759da6	-0.2398592
238	0xbd021ae1	-0.031763915
239	0x3e197990	0.14987779
240	0x3e9a5c41	0.3014851
241	0x3e1dfe38	0.15429008
242	0x3c3c17d0	0.011480287
243	0x3d144c63	0.03620566
244	0x3e6ab93e	0.22922227
245	0xbcba58ea	-0.022747476
246	0xbd9a431b	-0.075323306
247	0xbecb0f0f	-0.39659926
248	0x3e911958	0.28339648
249	0x3d81dcd2	0.06340946
250	0xbbcc8212	-0.0062410915
251	0x3c33bccc	0.010970306
252	0x3e104189	0.140875
253	0x3e4471a6	0.19183978
254	0x3e2004b8	0.156268
255	0x3dcb4fcb	0.09927329

bias f4 [256]
0	0x3820fce1	3.8382484e-05
1	0xbc96373e	-0.018336888
2	0xbce94ef2	-0.028480027
3	0x3c5a08ad	0.0133077325
4	0xbb1cab7d	-0.0023905926
5	0x3c1343db	0.008988346
6	0xbb8ae1e7	-0.0042383554
7	0x3ca634f1	0.020288916
8	0x3ce08cc7	0.027410878
9	0xbb896ed4	-0.00419412
10	0xbba86f38	-0.0051402114
11	0xbb3ebdbf	-0.0029104797
12	0x3cb5906d	0.022163594
13	0xba7fccd0	-0.00097579975
14	0xbc8eb703	-0.017421251
15	0x3bda4a10	0.006661661
16	0x3c234b39	0.009966665
17	0xbbdefafa	-0.006804821
18	0x3c2d3cc5	0.010573571
19	0x3c83723e	0.016045686
20	0x3cf6e41a	0.030138064
21	0xbc91bd8b	-0.017790576
22	0x3c66a30e	0.014076961
23	0xbc89cfb0	-0.016822666
24	0x3b0c29ce	0.0021387222
25	0xbc25321c	-0.010082748
26	0x3b6c3628	0.0036043022
27	0xbb91b99b	-0.0044471747
28	0x3c3cf53e	0.01153308
29	0x3bc34aa0	0.0059598237
30	0xbb6b08bd	-0.0035863363
31	0x3c9b6dc6	0.018973242
32	0x3c0c1e24	0.008552108
33	0x3bddbdc5	0.006767007
34	0x3c58b398	0.013226412
35	0x3bfa3a28	0.0076363273
36	0x3afabd48	0.0019129897
37	0x39a0e57a	0.00030688551
38	0x3b1dda9a	0.0024086596
39	0xbd69c45c	-0.05707203
40	0x3c553978	0.01301419
41	0x3c0c387e	0.008558391
42	0x3ba522c5	0.0050395452
43	0xbc7ce6a9	-0.015435853
44	0xbcfdea13	-0.030995404
45	0x3c8707e1	0.01648325
46	0x3bd367b3	0.006451571
47	0xbcd4a284	-0.0259564
48	0x3b99d0c3	0.004694076
49	0xbb21764b	-0.0024637158
50	0x3b5845c4	0.0033000568
51	0x3bd3740b	0.0064530424
52	0xbccba18e	-0.024857309
53	0xbc259b95	-0.010107894
54	0xbc0c6d0d	-0.008570922
55	0x3a5b2da2	0.0008360987
56	0xbc06605c	-0.008201685
57	0x3c203010	0.009777084
58	0xbce6d300	-0.028176785
59	0xbcc174ae	-0.023615208
60	0x3c6f37b4	0.014600683
61	0xbc4308c2	-0.0119039435
62	0x3aa0cfe9	0.0012268993
63	0x3c802f46	0.015647542
64	0xbc8a75fa	-0.016901959
65	0xbc78a97b	-0.015177126
66	0xbbcbadc8	-0.0062157847
67	0x3c51e467	0.012810803
68	0x3c975d67	0.018477155
69	0x3b43dd1e	0.0029886435
70	0xbbdf15f1	-0.0068080355
71	0x3caea696	0.021319669
72	0xbc4caa74	-0.012491811
73	0xbc725998	-0.014791869
74	0x3c45d5e9	0.012074926
75	0xbc567f88	-0.013091929
76	0x3b2d7e04	0.0026472816
77	0xbbf07aca	-0.0073388563
78	0x3bd8fe8d	0.0066221417
79	0xbb840b0f	-0.0040296386
80	0x3c028510	0.007966295
81	0x3c30ae23	0.010783705
82	0x3ca8b583	0.020594364
83	0x3b2f8496	0.0026781908
84	0x3d39cdf7	0.04536244
85	0x3c93c66d	0.018038953
86	0x3cbdcaac	0.02316793
87	0xbc2c0e53	-0.010501462
88	0xbd4a3ea1	-0.049376134
89	0x3c81a760	0.015826881
90	0xbc9908c4	-0.018680938
91	0x3c989e0b	0.018630048
92	0xbb90c958	-0.0044185333
93	0x3c1e15b1	0.009648726
94	0x3b89bf06	0.00420368
95	0xbca880ab	-0.020569166
96	0xbc4df3f4	-0.01257037
97	0xbc1b7f36	-0.009490779
98	0x3b55b3f8	0.003260849
99	0xbb0a92fd	-0.002114474
100	0xbae4d7b4	-0.0017459304
101	0xbc9e78f0	-0.019344777
102	0x3b653b8c	0.003497812
103	0x3c79962f	0.01523356
104	0x3b4212d3	0.002961327
105	0x3cb6cc98	0.022314355
106	0x3bd1fabf	0.006408065
107	0xbcb99600	-0.022654533
108	0xbc3c327a	-0.011486644
109	0x3ce2e78b	0.027698299
110	0xbcb53880	-0.022121668
111	0x3ca6fa80	0.02038312
112	0xbc3377da	-0.010953868
113	0xbbf1b84d	-0.0073767067
114	0x3cbba2e4	0.02290482
115	0xbca7ef58	-0.02049987
116	0xbb852fc4	-0.004064532
117	0xbd16ffb9	-0.03686497
118	0xbc132f2a	-0.008983413
119	0xb9ba82ae	-0.00035574049
120	0xbd11787f	-0.035515305
121	0xbc268f31	-0.010165975
122	0xbc17fc1a	-0.009276414
123	0x3c0265dd	0.007958856
124	0x3a9c8ec9	0.0011944409
125	0xbb9650a8	-0.0045872517
126	0xbc6ef887	-0.014585621
127	0x3cdf40f8	0.02725266
128	0x3c9d011e	0.019165572
129	0x3c52552b	0.012837688
130	0xbb0f0c1b	-0.0021827284
131	0xbcd107db	-0.025516441
132	0xb99cbde6	-0.00029896124
133	0xbb93c902	-0.004510046
134	0xbd09630a	-0.033541717
135	0xbb3a7aee	-0.002845462
136	0x3d0401ea	0.032228388
137	0x3c38eb06	0.011286503
138	0x3c757ed4	0.014983851
139	0x3c9b6cc0	0.018972754
140	0x3d01f054	0.031723335
141	0x3b80b97e	0.0039283624
142	0xbae4d08a	-0.0017457169
143	0x3c697d07	0.014251
144	0xbc943d22	-0.018095557
145	0xba786293	-0.0009475138
146	0x3bb85a3d	0.0056259916
147	0x3c1ba9e2	0.009500952
148	0x3c9c2397	0.01905994
149	0x3d2c67a0	0.042091012
150	0x3b7530ff	0.0037413237
151	0xbbe18a96	-0.006882976
152	0xbb589446	-0.0033047362
153	0x3c7dc50a	0.015488872
154	0xbc83bccb	-0.016081234
155	0xbc293b89	-0.010329136
156	0x3b805355	0.003916184
157	0xbc677240	-0.01412636
158	0x3c883425	0.016626427
159	0xbb216784	-0.002462835
160	0xbad84fcc	-0.0016503274
161	0xbc2eab31	-0.010660932
162	0xbb656289	-0.0035001358
163	0xbaf4cbab	-0.001867642
164	0x3d186839	0.03720877
165	0x3c83defe	0.016097542
166	0x3b090832	0.0020909426
167	0xbc5bbd2a	-0.013411799
168	0xbc228bfd	-0.009921071
169	0xbbe575b3	-0.007002556
170	0xbc9491e2	-0.018135969
171	0x3c533b65	0.012892579
172	0x3c985370	0.018594474
173	0xbc6c534e	-0.014424158
174	0x3c51c4b8	0.012803249
175	0xbbec6246	-0.0072138635
176	0x3b835eaa	0.0040090876
177	0xbc211d2c	-0.009833615
178	0x3b2d4238	0.0026437175
179	0x3cc1629a	0.023606587
180	0x3abaf652	0.0014264083
181	0x3d382578	0.044957608
182	0xbb3464af	-0.0027525832
183	0x3c58bcfc	0.013228651
184	0x3c96ad20	0.0183931
185	0x3c96c6a3	0.018405264
186	0xbcb86f77	-0.022514088
187	0xbcb541e0	-0.022126138
188	0x3c052216	0.0081258025
189	0x3bce9c22	0.0063052336
190	0xbd53aa23	-0.051675927
191	0x3b814228	0.003944654
192	0xbc233ddb	-0.009963478
193	0xbc9c4982	-0.01907802
194	0xbc6b7204	-0.014370445
195	0xbc800c14	-0.01563076
196	0x3c8abca6	0.016935658
197	0x3c0d4c91	0.008624212
198	0x3bf81834	0.0075712446
199	0x3c24a7a9	0.010049739
200	0xbd2fa424	-0.042881146
201	0x3b9f12e1	0.0048545455
202	0x3d0d2a30	0.03446406
203	0xbc999bfc	-0.018751137
204	0x3b33a552	0.002741177
205	0xbc84c842	-0.016208772
206	0x3c0e5f61	0.008689732
207	0xbc02ef7e	-0.00799167
208	0x3c13a967	0.009012557
209	0xbc86a83f	-0.016437648
210	0x3993503b	0.000280978
211	0xb98a66bf	-0.00026397963
212	0xbc542b48	-0.012949772
213	0x3c83e620	0.016100943
214	0xbca60405	-0.020265589
215	0x3c863544	0.01638282
216	0xbc9e94da	-0.019358087
217	0x3c50e97a	0.012750978
218	0xbc0f8dc7	-0.00876183
219	0x3c9a0843	0.018802768
220	0x3c8fa05d	0.017532522
221	0x3c8777da	0.016536642
222	0xbc4fed30	-0.012690827
223	0xbc3e5ec4	-0.011619274
224	0x3d058db9	0.03260586
225	0x3c3651b6	0.01112788
226	0xbb33de6b	-0.0027445804
227	0xbbbb431b	-0.0057147867
228	0xbb720068	-0.0036926512
229	0xbc358c3e	-0.0110808
230	0x3c0fe4c9	0.008782574
231	0xbbce9d83	-0.006305398
232	0x3cc3b86e	0.023891654
233	0x3c52f47b	0.0128756715
234	0x3d09e979	0.033669923
235	0x3cb5ee8f	0.02220848
236	0x3b9ce10f	0.0047875713
237	0xbb77928d	-0.003777656
238	0x3b9f8f43	0.004869373
239	0x3c11a966	0.008890485
240	0xbc0e4a9c	-0.00868478
241	0x3c534e21	0.012897045
242	0xbc321f68	-0.010871746
243	0x3cd4ddf0	0.025984734
244	0xbbe45e69	-0.0069692624
245	0xbc5263b3	-0.012841153
246	0x3c6643eb	0.014054279
247	0x3b8fe939	0.004391816
248	0xbbf15213	-0.0073645203
249	0xbcdddf54	-0.02708403
250	0x3ce3af22	0.02779347
251	0xbc822522	-0.015886847
252	0x3b28310c	0.0025664
253	0x38cb63be	9.698373e-05
254	0xbb0d4c24	-0.0021560276
255	0xbc80436a	-0.015657146

weight f4 [128, 256]
0	0xbd86aab6	-0.06575529
1	0xbe8a62b8	-0.2702844
2	0xbc2c59fd	-0.010519502
3	0xbc95526a	-0.018227775
4	0x3d07b7eb	0.033134382
5	0x3d070477	0.032963242
6	0xbc7fbf40	-0.015609562
7	0x3c888b0f	0.01666787
8	0x3db39ffe	0.087707505
9	0xbd601f0b	-0.054717105
10	0xbc04dec5	-0.008109753
11	0x3d7ec8e0	0.062203288
12	0xbce8471f	-0.028354226
13	0x3dbbc3a0	0.09168172
14	0x3c7a9c34	0.015296031
15	0x3e3e15e6	0.18563041
16	0xbcc3d6be	-0.023906108
17	0x3e4ab36a	0.19795004
18	0xbdde8f12	-0.10867132
19	0x3d52a241	0.05142427
20	0x3d769c5c	0.06020771
21	0x3da41693	0.08012118
22	0x3e2bb490	0.16768098
23	0x3caa31f7	0.020775778
24	0xbd2e81f2	-0.042604394
25	0xbe14f3a4	-0.14546067
26	0x3da71e96	0.08160131
27	0x3da79a31	0.081837066
28	0xbe0b9a47	-0.13633071
29	0x3d2e8536	0.04260751
30	0x3e2be686	0.16787156
31	0x3e07e31a	0.13270226
32	0xbda12bb3	-0.07869663
33	0x3ccf15b6	0.025278907
34	0x3d6db79e	0.05803644
35	0x3d19b5b5	0.037526805
36	0x3d6eafa1	0.05827296
37	0xbc8f01e4	-0.017456956
38	0xbe884fa2	-0.26623255
39	0xbd796bfe	-0.060894005
40	0x3cb57c94	0.02215413
41	0xbe3f90f7	-0.18707643
42	0xbd676342	-0.056491144
43	0x3bc84d59	0.006112736
44	0x3d8aabd6	0.06771056
45	0x3dedda3b	0.1161389
46	0x3e10ff39	0.1415986
47	0x3da5dfe9	0.08099348
48	0x3cfae620	0.03062731
49	0xbd68e584	-0.05685951
50	0x3b06ae19	0.0020550548
51	0x3ce5645f	0.028001962
52	0xbda911c6	-0.08255343
53	0x3d75e373	0.060031366
54	0xbaeb686d	-0.0017960198
55	0xbd842c32	-0.06453742
56	0x3cbd4162	0.023102466
57	0x3e0d232c	0.13782948
58	0xbc2c8e0c	-0.0105319135
59	0x3dd41ab5	0.103566565
60	0x3de2ddba	0.11077447
61	0x3d10a222	0.035310872
62	0x3d907491	0.07053483
63	0xbbe69401	-0.0070366864
64	0x3cccb806	0.024990093
65	0x3dfb0aec	0.122579426
66	0x3d0db47a	0.034595944
67	0x3d6e9c53	0.05825455
68	0xbe0f644f	-0.14003108
69	0xbdacb59b	-0.08433076
70	0xbe2dc369	-0.16969074
71	0x3d85966d	0.06522832
72	0x3db0e33d	0.08637092
73	0x3c0832a6	0.008312857
74	0x3b1a258e	0.002352092
75	0x3d550cf0	0.05201429
76	0xbd966133	-0.07342758
77	0x3daaf56b	0.08347591
78	0x3d0a4e52	0.0337661
79	0x3cface39	0.030615913
80	0xbda1fbe5	-0.07909373
81	0xbde5a935	-0.11213914
82	0xbd1f42f8	-0.038882226
83	0xbe0bf38c	-0.13667125
84	0x3da1abd9	0.078941055
85	0xbcbce9c5	-0.023060689
86	0xbce6bb05	-0.02816535
87	0x3c2e35d3	0.01063295
88	0xbbb77476	-0.0055986
89	0x3e0fc5bd	0.14040275
90	0xbde011e1	-0.1094091
91	0xbca67792	-0.020320687
92	0xbe0eeecd	-0.13958283
93	0x3e53925e	0.20661303
94	0x3cb516f6	0.022105675
95	0x3debb2a1	0.1150868
96	0x3d9cc3a7	0.07654505
97	0xbc0f9179	-0.008762711
98	0xbcc0ac43	-0.02351964
99	0xbce82530	-0.028338045
100	0x396c2dda	0.00022523795
101	0x3d806cc2	0.06270744
102	0x3d4c75b1	0.049916927
103	0xbd422a08	-0.047403365
104	0xbacb0623	-0.00154895
105	0x3d361e13	0.044462275
106	0x3da9c1ee	0.08288942
107	0x3d6b8915	0.05750378
108	0x3dadd055	0.08487002
109	0xbc883cd3	-0.016630566
110	0x3cf6ffc7	0.030151261
111	0xbc120ab1	-0.008913682
112	0xbdb653f9	-0.08902735
113	0x3e57d078	0.21075618
114	0xbdb820cb	-0.0899063
115	0xbe126e88	-0.14299977
116	0x3caf48af	0.021396963
117	0x3e09e676	0.1346682
118	0xbc74b004	-0.0149345435
119	0xbd4c1d8c	-0.049832866
120	0xbd52bd37	-0.05144998
121	0xbc02ca52	-0.007982807
122	0xbd7b0a54	-0.061289147
123	0xbd70e5a5	-0.058812756
124	0xbd6e0b99	-0.05811653
125	0x3d1fad86	0.038983844
126	0xbd5b0132	-0.053467937
127	0xbcbff432	-0.023431871
128	0xbb67c2cf	-0.0035363918
129	0x3d2c8c7d	0.042126168
130	0x3ddfe332	0.10932006
131	0x3cef05ef	0.029177634
132	0xbde83554	-0.113382965
133	0x3e28d5ca	0.16487804
134	0xbb88268a	-0.004154985
135	0x3e0d699a	0.13809815
136	0xbc4080f5	-0.011749496
137	0xbcca1f21	-0.024673047
138	0x3d1a033c	0.03760074
139	0x3ca8905e	0.020576652
140	0x3c964b81	0.01834655
141	0xbd9b191c	-0.075731486
142	0x3a8b6449	0.0010634746
143	0xbd94049c	-0.07227442
144	0xbd213e30	-0.039365947
145	0x3e68b543	0.22725396
146	0xbd9fa872	-0.077958
147	0xbc3d4dda	-0.011554206
148	0xbd0903a3	-0.033450734
149	0x3c79b9c4	0.015242044
150	0xbceb2eba	-0.028708804
151	0x3d6cb5a3	0.05779041
152	0x3da86b10	0.082235456
153	0xbd95a05e	-0.07305978
154	0x3cbafa30	0.022824377
155	0x3d419f26	0.047270916
156	0x3c7c4f21	0.015399725
157	0xbc34929a	-0.011021281
158	0xbc58fd00	-0.013243914
159	0xbdb26863	-0.087113164
160	0xbd8b52a4	-0.06802872
161	0x3d9b463d	0.07581756
162	0x3dffdb83	0.124930404
163	0xbdfa6733	-0.12226715
164	0xbc875168	-0.01651831
165	0xbd701e37	-0.058622565
166	0x3c93fbec	0.018064462
167	0xbc47718d	-0.012173069
168	0xbd8f7205	-0.070041694
169	0x3e3e954b	0.18611638
170	0x3c7ba72f	0.015359684
171	0xbd6fa52e	-0.058507137
172	0x3df7c0f9	0.120973535
173	0x3cde9760	0.02717179
174	0x3dc112df	0.094274275
175	0xbdf4209a	-0.11920281
176	0x3d3ce501	0.046116833
177	0x3d4491e1	0.047990683
178	0xbe153758	-0.14571893
179	0xbd0bc53c	-0.034123644
180	0x3db2f2d8	0.08737725
181	0x3e39321c	0.18085521
182	0xbd78c8eb	-0.060738485
183	0xbb913c64	-0.004432248
184	0x3e2e1285	0.16999252
185	0x3da0e03d	0.0785527
186	0x3dba5b33	0.09099426
187	0xbc8f7cb9	-0.017515527
188	0xbc1ffffc	-0.009765621
189	0xbd0bc54b	-0.0341237
190	0x3d0f9d58	0.035062164
191	0xbcb56756	-0.022144001
192	0x3ddedc56	0.108818695
193	0x3ddf0ea4	0.10891464
194	0xbdd77df6	-0.10522072
195	0x3e083510	0.13301492
196	0xbddf15bd	-0.10892818
197	0x3e25d393	0.1619399
198	0xbd8befe1	-0.06832863
199	0x3d8354bb	0.064126454
200	0xbc0c5520	-0.008565217
201	0xbaa1ee01	-0.0012354256
202	0xbbf09422	-0.0073418776
203	0x3dac628a	0.08417232
204	0xbd150209	-0.036378894
205	0xbc80ef6d	-0.015739167
206	0xbd056426	-0.032566212
207	0x3c70eedf	0.014705389
208	0xbb8144b7	-0.003944959
209	0xbd1eba06	-0.038751625
210	0xbdaeefca	-0.0854183
211	0xbdbb789c	-0.09153864
212	0xbc5f7706	-0.013639217
213	0x3dc9d7b0	0.09855592
214	0xbae0220f	-0.0017099994
215	0x3c87627c	0.016526453
216	0xbe132e08	-0.14373028
217	0x3e226f0f	0.15862678
218	0xbd8f6f97	-0.07003706
219	0x3d5a49aa	0.053292908
220	0xbd68683a	-0.056740023
221	0xbd0736a5	-0.033011097
222	0x3bacf0cc	0.0052777287
223	0xbdd97bc0	-0.106193066
224	0x3d6b50c4	0.05745007
225	0x3dab43fd	0.08362577
226	0x3d846c7b	0.064660035
227	0x3e441116	0.19147143
228	0xbc6a41de	-0.0142979305
229	0x3ceb10ed	0.028694594
230	0x3caa3a7b	0.020779839
231	0x3dd40cbc	0.103539914
232	0xbd3217d1	-0.043479744
233	0xbdf6ea91	-0.12056459
234	0xba9fb430	-0.0012184437
235	0xbdea9c7b	-0.114556275
236	0xbd16987f	-0.036766525
237	0xbdb7029e	-0.08936046
238	0xbe02cd1c	-0.12773556
239	0x3df6aa2a	0.12044175
240	0x3cbf2666	0.02333374
241	0x3c68adb8	0.014201574
242	0xbcf8de59	-0.030379461
243	0xbe1c6ab1	-0.15275075
244	0xbdf84a88	-0.12123591
245	0xbb79dd8d	-0.003812644
246	0xbd9354ce	-0.071939096
247	0xbe000137	-0.12500463
248	0xbcf54a12	-0.029942546
249	0xbe0c50b3	-0.1370266
250	0xbdb5e32e	-0.08881222
251	0x3d1cba69	0.038263712
252	0x3caed9b4	0.021344043
253	0xbe1e7c56	-0.15477118
254	0x3bbd9ed0	0.005786754
255	0xbdef30ea	-0.116792515

bias f4 [128]
0	0x3b3e228c	0.002901229
1	0x3ae74733	0.001764512
2	0xbd2e666f	-0.042578157
3	0x3b466eb6	0.0030278391
4	0xbb8f2243	-0.004368098
5	0x3d4a8f1f	0.049452897
6	0xbc732e8c	-0.014842641
7	0x3c3db642	0.011579098
8	0xbd0e896c	-0.034799024
9	0x3dd9a681	0.10627461
10	0xbcd1064b	-0.025515696
11	0x3a5d93d6	0.000845251
12	0x3c0e26a4	0.008676205
13	0xbca36336	-0.019944768
14	0xbcbbad09	-0.022909658
15	0xbd319e0f	-0.043363627
16	0xbb64011a	-0.0034790696
17	0xbc438c0c	-0.011935245
18	0xbb9cb7cb	-0.004782652
19	0x3dd6acfd	0.10482214
20	0xbe0e5261	-0.13898613
21	0xbbb9e6b9	-0.0056732562
22	0xbafca39b	-0.0019274832
23	0xbbddc486	-0.006767812
24	0xbdddd5c3	-0.108317874
25	0x3caaa406	0.020830166
26	0x3d61a2bc	0.055086836
27	0x3cb79ef4	0.022414662
28	0x3c12ec4f	0.008967473
29	0x3c16c0cd	0.009201241
30	0xbc9bd16a	-0.019020755
31	0x3ccb652b	0.024828514
32	0xbc6c44ed	-0.01442073
33	0xbdb60f93	-0.08889689
34	0xbc5d0cd2	-0.013491826
35	0x3cfc2efc	0.030784123
36	0x3d41054f	0.047124203
37	0x3c89d696	0.016825955
38	0xbd2e49e2	-0.04255093
39	0x3dfc2f91	0.1231376
40	0x3cc28ac4	0.02374781
41	0x3c03019b	0.007995988
42	0x3cf1985e	0.0294916
43	0xbcfb9994	-0.03071288
44	0x3c5d572a	0.013509551
45	0x3d3b5f09	0.04574493
46	0x3cbfa01c	0.023391776
47	0xbb6636b0	-0.003512781
48	0x3c2002a9	0.009766259
49	0xbd319179	-0.043351624
50	0x3b268d94	0.0025413977
51	0xbd7c9354	-0.06166394
52	0x3ccf2e33	0.025290584
53	0x3c2c59ba	0.010519439
54	0x3b8d5184	0.004312696
55	0x3ccf079f	0.025272189
56	0xbd1724af	-0.03690022
57	0x3d113588	0.035451442
58	0xbd714dbc	-0.058912024
59	0x3ccc60ba	0.024948467
60	0x3d70d1e2	0.05879391
61	0x3c42088a	0.011842856
62	0xbd0553d2	-0.03255064
63	0x3c2ec28a	0.010666499
64	0xbce3d477	-0.027811272
65	0x3d3f13e0	0.046649814
66	0x3cc335dd	0.023829395
67	0x3c01b844	0.0079174675
68	0x3ceac509	0.028658407
69	0xbb9ae7b7	-0.0047273296
70	0xbcb79c2f	-0.022413341
71	0xbd2dd703	-0.04244138
72	0xbcebcf13	-0.028785264
73	0x3d007fe6	0.031371973
74	0x3afe9886	0.0019424118
75	0xbd301e09	-0.042997394
76	0x3b872a0b	0.004124885
77	0x3aec9a95	0.001805144
78	0x3d82ad26	0.06380682
79	0xbe09ef8a	-0.13470283
80	0x3c9988c1	0.018741967
81	0x3c26e694	0.01018681
82	0xbd35b61a	-0.04436312
83	0x3dfb27ab	0.122634254
84	0x3dcac8cb	0.099015795
85	0xbdd81956	-0.105517074
86	0x3c9b3ad0	0.018948942
87	0xbd68d749	-0.056845937
88	0xbc04e595	-0.008111377
89	0xbdbbbe3a	-0.09167142
90	0xbd4c6655	-0.04990228
91	0xbd91c136	-0.0711693
92	0xbd42c7c1	-0.04755378
93	0xbc51150a	-0.012761364
94	0xbc92d08a	-0.017921705
95	0x3c82398d	0.015896583
96	0x3c0c62e2	0.008568497
97	0x3bfd0098	0.007721018
98	0xbd1e84f0	-0.038700998
99	0xba5f5bdb	-0.00085204624
100	0xbb75a5a3	-0.003748276
101	0x3dcd89f6	0.100360796
102	0xbd79d803	-0.06099702
103	0x3d0a507d	0.033768166
104	0x3cc72b44	0.024312623
105	0x3c4201df	0.011841266
106	0xbca0eb66	-0.019643497
107	0xbcff5425	-0.031168053
108	0xbdabf59b	-0.08396455
109	0xbd102ee4	-0.03520097
110	0x3c8106e5	0.015750358
111	0x3bc7ad11	0.006093629
112	0xbcad9afd	-0.021192068
113	0xbc647b7c	-0.013945457
114	0x3c03e9a8	0.008051313
115	0xbcce42af	-0.025178282
116	0x3c62de4f	0.013846948
117	0x3b9a832c	0.004715344
118	0xbd9ab964	-0.07554892
119	0xbcc39387	-0.023874057
120	0x3bbcb32d	0.005758664
121	0xbc1df511	-0.009640948
122	0x3cf2914a	0.029610295
123	0x3c03ca4e	0.008043839
124	0x3d4c181b	0.049827676
125	0x3cb765b1	0.022387357
126	0xbc9ed07e	-0.019386526
127	0xbd4ec908	-0.050484687

weight f4 [14, 128]
0	0xba23c809	-0.0006247764
1	0xbba364be	-0.0049863746
2	0xbc60ff90	-0.013732806
3	0x3c030e5e	0.007999031
4	0xbb3bb40d	-0.0028641254
5	0xb93679fc	-0.00017402315
6	0xbd112610	-0.03543669
7	0x3c83e241	0.016099097
8	0xbbf0dddf	-0.007350668
9	0xbd9cb636	-0.076519415
10	0x3d1d670f	0.038428362
11	0x3ccac254	0.024750866
12	0x3c634d4b	0.013873409
13	0x3ca5fabe	0.020261165
14	0xbc4a0966	-0.012331342
15	0xbc458e4d	-0.012057853
16	0xbb634fda	-0.0034685046
17	0xbc85d33b	-0.016336074
18	0x3d94d6fd	0.07267568
19	0xbd88d878	-0.06681913
20	0x3d029d33	0.031888198
21	0xbcf72356	-0.030168217
22	0x3bc6620b	0.006054168
23	0xbc821fd5	-0.01588432
24	0x3d913cf0	0.07091701
25	0xbb86f166	-0.0041181324
26	0xbce09fc3	-0.02741993
27	0x3c76603b	0.015037592
28	0xbd997b04	-0.074941665
29	0xbc44c5ab	-0.012010018
30	0x3a3d3a5e	0.0007218475
31	0xbd2fe640	-0.042944193
32	0x3d096329	0.033541832
33	0x3d7cfdb2	0.06176538
34	0x3b1d76b3	0.002402705
35	0xbc77c335	-0.015122225
36	0xbcc0ab9a	-0.023519326
37	0xbb543a56	-0.0032383404
38	0x3c48d3e9	0.012257555
39	0xbd8c5d35	-0.06853715
40	0xbd31b2e0	-0.04338348
41	0x3caf071a	0.021365691
42	0xbc28fc39	-0.010314041
43	0xbd54d062	-0.05195654
44	0xbbf18713	-0.0073708384
45	0xbc3d46e5	-0.011552547
46	0xbc8e2d35	-0.01735554
47	0xbc5c3573	-0.013440478
48	0x3bcd72cb	0.006269788
49	0x3c2d3d8f	0.010573759
50	0x3c6bc4bf	0.01439017
51	0x3d5ae912	0.05344493
52	0xbbedd0c9	-0.007257555
53	0x3d00b033	0.031418037
54	0x3bcddc43	0.0062823608
55	0x3c9496de	0.018138345
56	0xbca826db	-0.02052634
57	0x3d2d2cd1	0.04227907
58	0x3d405a08	0.04696086
59	0xbcefb3ef	-0.029260604
60	0xbca6549c	-0.020304017
61	0xbcc6238d	-0.024186874
62	0xbcd29a98	-0.025708482
63	0xbc850953	-0.016239798
64	0xbc2a625c	-0.010399427
65	0xbcedf97a	-0.029049624
66	0x3ccab0de	0.02474254
67	0xbc31a44d	-0.010842395
68	0xbd5a99fa	-0.0533695
69	0xbc8954b2	-0.016764019
70	0x3be60963	0.007020162
71	0x3d101385	0.035174865
72	0xbbf56b8f	-0.0074896286
73	0xbcca225e	-0.02467459
74	0x3cfa09cf	0.030522255
75	0x3d684d30	0.056714237
76	0x3d1a9406	0.037738822
77	0x3c627e70	0.01382409
78	0xbcc71f6f	-0.02430698
79	0x3d53c96f	0.051705774
80	0x3d2f1ab0	0.04275006
81	0xbc0cea81	-0.008600832
82	0xbcb086dd	-0.021548683
83	0xbd377033	-0.044784736
84	0xbc8fd018	-0.017555282
85	0x3ce8c68f	0.028414993
86	0x3cdec144	0.027191766
87	0x3d3c1102	0.045914657
88	0xbb6d4f5b	-0.003621063
89	0x3ce3b288	0.027795091
90	0x3d14004c	0.036133096
91	0x3d932f0f	0.0718671
92	0x3c89391d	0.016750867
93	0x3d27eb28	0.040995747
94	0x3dd11c64	0.10210493
95	0xbcc16c03	-0.023611074
96	0x3cc38346	0.023866307
97	0xbc8a27af	-0.016864626
98	0x3cace35f	0.021104513
99	0x3c1c32c2	0.009533586
100	0xbc6e03d0	-0.014527276
101	0xbd5b452b	-0.05353276
102	0x3d0b5aa6	0.034021996
103	0x3ced2a37	0.028950794
104	0x3c3c6312	0.01149823
105	0x3c7a245a	0.015267456
106	0xbc4fe791	-0.012689487
107	0x3c0fffbc	0.008788999
108	0x3d8e80df	0.06958174
109	0x3d3408cb	0.043953698
110	0x3d3f3ea1	0.046690587
111	0xbddde7f2	-0.10835256
112	0x3cb7a914	0.02241949
113	0x3ccd4635	0.025057891
114	0x3c7409fb	0.014894958
115	0xbbbe1aae	-0.0058015203
116	0xbc43396c	-0.011915546
117	0xbb09b286	-0.002101095
118	0x3c32b577	0.010907522
119	0xbc85af0c	-0.01631882
120	0x3c4041c8	0.0117344335
121	0x3c128b68	0.00894437
122	0x3ccd37aa	0.025050957
123	0x3d8aa160	0.06769061
124	0xbc69cb4e	-0.014269663
125	0xbc7dc6c6	-0.015489286
126	0x3bdb4f9d	0.0066928403
127	0x3d72a070	0.059235036
128	0xba97b449	-0.0011574115
129	0xbd4d1dc5	-0.05007722
130	0xba0e701f	-0.00054335775
131	0x3b8fa416	0.0043835742
132	0x3b151f2c	0.0022754176
133	0xbcda6cc0	-0.026663184
134	0xbd88979b	-0.066695414
135	0xbd19e3b1	-0.03757066
136	0xbd4225f4	-0.047399476
137	0xbd0e24d6	-0.0347031
138	0xbc8edeb4	-0.017440178
139	0x3d6332ad	0.05546825
140	0xbcc9a249	-0.024613516
141	0x3d0f5dc2	0.035001524
142	0xbc5f2df8	-0.0136218
143	0xbd5e8dfe	-0.054334633
144	0x3c26924c	0.010166716
145	0xbcf64551	-0.03006235
146	0x3d14c6af	0.036322292
147	0xbcb42171	-0.021988602
148	0x3c43aafe	0.011942623
149	0x3d032248	0.032015115
150	0xba94ee56	-0.0011362534
151	0xbbe32518	-0.006931912
152	0xbc5ba378	-0.013405673
153	0x3c02ac09	0.007975587
154	0x3b934a30	0.004494928
155	0x3cdc18c7	0.026867284
156	0xbc0739bc	-0.008253511
157	0x3c18feea	0.00933812
158	0xbd21f19b	-0.039537054
159	0xbcd6ebe2	-0.026235525
160	0x3d648daf	0.055799183
161	0xbbf50130	-0.007476948
162	0x3c3b4e1b	0.011432196
163	0xbccb4ef4	-0.024817921
164	0x3b376f6f	0.0027990004
165	0xbbab2eed	-0.0052241
166	0xba1af538	-0.0005911174
167	0xbbe3240f	-0.0069317888
168	0x3d50990d	0.05092721
169	0xbcc5f8ef	-0.024166552
170	0x3cf78f61	0.030219736
171	0xbc9c1b2c	-0.019055925
172	0x3bab3b4e	0.0052255755
173	0xbd0db1f8	-0.034593552
174	0xbc617e78	-0.013763063
175	0xbba133d3	-0.004919508
176	0x3d54533f	0.051837202
177	0xbcff67de	-0.031177457
178	0x3d8d104b	0.06887873
179	0x3d1f1a55	0.03884347
180	0x3cb83b1b	0.022489121
181	0x3ce53cb7	0.027983053
182	0xbc0616a5	-0.00818411
183	0x3bc31d49	0.005954419
184	0xbd0f2a84	-0.034952655
185	0xbc39b28c	-0.011334073
186	0x3b20267e	0.0024437006
187	0xbcf0cff5	-0.029396037
188	0xbc870f47	-0.016486777
189	0x3c0f9d2a	0.008765498
190	0xbd3a3bdd	-0.045467246
191	0xbc72adfc	-0.014811989
192	0xbd0318b5	-0.032005984
193	0x3d5d7ff1	0.054077093
194	0xbc671940	-0.014105141
195	0xbb9a9d0a	-0.0047184275
196	0x3bd0ed16	0.006375919
197	0xbd2d28b3	-0.042275142
198	0x3d25dc96	0.04049357
199	0xbc1525b0	-0.009103224
200	0x3cbab389	0.022790687
201	0xbce8ec36	-0.028432947
202	0x3d5435a8	0.051808983
203	0x3c8181ca	0.015808959
204	0x3ce48979	0.027897583
205	0xbb937262	-0.0044997195
206	0x3aab0ed6	0.0013050686
207	0xbc2f127b	-0.010685558
208	0x3c166a74	0.009180654
209	0xbc592137	-0.013252548
210	0xbd9ee272	-0.07758035
211	0xbc93acfb	-0.01802682
212	0x3bfc1812	0.007693299
213	0x3d151e71	0.036405984
214	0x3d3a0df9	0.04542348
215	0xbd08dafb	-0.03341196
216	0xbb90d925	-0.004420417
217	0x3d1c220b	0.038118403
218	0xbc8099fb	-0.015698424
219	0xbd7c6a90	-0.061625063
220	0xbd60cb8c	-0.054881617
221	0xbca73984	-0.020413168
222	0x3d9c5fee	0.07635485
223	0xbd89648b	-0.0670863
224	0x3d0e198f	0.034692343
225	0xbd1d296c	-0.03836958
226	0x3b99dfb9	0.0046958593
227	0xbd34ec11	-0.044170443
228	0x3cee24e5	0.029070327
229	0x3cadfa11	0.021237405
230	0x3c8a71d3	0.016899979
231	0x3c829cf3	0.01594398
232	0xbb5439af	-0.0032383015
233	0x3d0fcbe1	0.035106543
234	0x3c890b4e	0.016729023
235	0xbc8efa20	-0.017453253
236	0xbc39270b	-0.0113008125
237	0x3c22c607	0.009934909
238	0x3d316c60	0.043316245
239	0xbd377bef	-0.044795927
240	0xbd1c8862	-0.038216002
241	0xbd0a52c7	-0.03377035
242	0xbdba81f9	-0.091068216
243	0x3c3ef398	0.011654757
244	0xbb28974b	-0.0025724943
245	0xbd582079	-0.052765343
246	0xbd0279d2	-0.03185446
247	0xbbb89e7a	-0.0056341263
248	0xbc3d45e9	-0.011552312
249	0xbc816453	-0.015794909
250	0x3d4874fb	0.048939686
251	0x3c396247	0.011314935
252	0xbb6dfb3f	-0.0036313084
253	0xbd20a85a	-0.039223053
254	0x3cb26ee3	0.02178139
255	0x3ca5cf02	0.02024031

bias f4 [14]
0	0xbd5e6b06	-0.054301284
1	0xbc01c07e	-0.007919429
2	0xbd565e56	-0.05233606
3	0xbc49e6b7	-0.012323073
4	0x3c43425e	0.011917679
5	0x3d744d7e	0.059644215
6	0xbc8ecfa4	-0.017432995
7	0xbd7ee021	-0.062225465
8	0x3d34c3f7	0.0441322
9	0x3ba8731f	0.0051406766
10	0x3a294e1b	0.0006458477
11	0x3d4e4be6	0.05036535
12	0x3d4ca07c	0.049957737
13	0x3d7ffca4	0.062496796

weight f4 [64, 13]
0	0xbeb96097	-0.36206505
1	0x3f28cc0a	0.6593634
2	0x3dd6004d	0.10449276
3	0x3e35438d	0.1770155
4	0x3c929f72	0.017898295
5	0xbe882200	-0.2658844
6	0x3e624ac5	0.22098835
7	0xbd9af4de	-0.07566236
8	0x3bb34a97	0.0054715383
9	0xbe0510f7	-0.12994753
10	0x3ea15a46	0.31514186
11	0xbec608d2	-0.38678604
12	0x3cb4966e	0.022044387
13	0x3f3b097e	0.7306136
14	0xbe6dfe79	-0.23241605
15	0x3ec7323b	0.3890551
16	0x3d82fad8	0.06395501
17	0x3deebff2	0.116577044
18	0x3e20cf35	0.15704043
19	0xbd68e74c	-0.056861207
20	0x3e4d1b3f	0.20029925
21	0xbe1a515a	-0.15070096
22	0xbe8b48c8	-0.27203965
23	0x3d9b8d98	0.07595366
24	0x3e81516e	0.25257438
25	0x3dc0a588	0.094065726
26	0x3e9d78e0	0.30756283
27	0xbe67ff2e	-0.22655937
28	0x3f3ebbda	0.7450539
29	0x3ca37c08	0.019956604
30	0x3dca463a	0.09876676
31	0x3ce5393e	0.027981397
32	0xbe96fa05	-0.29487625
33	0x3d992169	0.074770756
34	0xbdce944a	-0.10086878
35	0xbeb6765d	-0.3563718
36	0xbc88d108	-0.016701236
37	0x3e50402e	0.20336983
38	0x3e043e86	0.12914476
39	0xbe0188de	-0.12649867
40	0xbebc6765	-0.36797634
41	0xbd9ff9e7	-0.07811337
42	0xbe43f609	-0.19136824
43	0xbd3416fc	-0.043967232
44	0x3db6cbe8	0.08925611
45	0xbf0448e9	-0.5167375
46	0xbe4887dd	-0.19583078
47	0xbcbe8dae	-0.023260918
48	0x3e2c2e66	0.16814575
49	0xbec3784e	-0.38177723
50	0xbf0e71e7	-0.5564255
51	0x3da4242e	0.08014713
52	0xbd310c9f	-0.043224927
53	0xbe9b76e9	-0.3036416
54	0x3ea1f68f	0.31633422
55	0xbe7501c4	-0.23926455
56	0xbe4ec646	-0.20192823
57	0x3e36b9ec	0.17844361
58	0x3e153372	0.14570406
59	0xbe295f0d	-0.16540165
60	0xbf3d6008	-0.7397466
61	0x3dbc4eda	0.09194727
62	0x3fa2f1ad	1.2730004
63	0x3f6369bb	0.88833207
64	0x3e5e028b	0.21680658
65	0x3dfcaaea	0.12337287
66	0xbd9ef2a3	-0.07761123
67	0x3ee4e576	0.44706315
68	0xbe5c0b06	-0.2148858
69	0xbc46f5ea	-0.012143591
70	0xbea69ebf	-0.3254299
71	0x3e7f5850	0.24936032
72	0x3e153774	0.14571935
73	0x3d9d7f82	0.07690336
74	0xbe0be2bc	-0.13660711
75	0x3ea6e5a1	0.32597068
76	0xbed2f395	-0.41201463
77	0x3d49d779	0.049277756
78	0xbd8a06df	-0.06739592
79	0x3ef1a6e7	0.4719765
80	0xbf058a35	-0.5216401
81	0x3db1958e	0.086711034
82	0xbe18c26e	-0.14917919
83	0x3e3908a7	0.18069707
84	0xbfc656f2	-1.5495284
85	0x3fea6eb6	1.8315036
86	0x3f0fda81	0.56192786
87	0xbb6edd45	-0.0036447805
88	0x40189aad	2.3844407
89	0x3f32e3ad	0.69878656
90	0x3ef106a3	0.47075376
91	0xbef1f487	-0.47256872
92	0xbbca41bb	-0.0061723865
93	0xbe024cc4	-0.12724596
94	0xbde5fa70	-0.11229408
95	0x3ed948d1	0.42438367
96	0x3c32fb7c	0.010924216
97	0x3ef7338a	0.4828151
98	0x3fe906f8	1.8205252
99	0x3fbe5659	1.4870101
100	0xbf4d38cf	-0.8016481
101	0x3f06a4d5	0.52595264
102	0xbfb90ffe	-1.4458005
103	0xbaf60bb4	-0.0018771798
104	0xbeabaa25	-0.33528247
105	0x3e899019	0.2686775
106	0xbeda8e02	-0.42686468
107	0x3e1cf3ec	0.15327424
108	0xbd634563	-0.055486094
109	0x3e8029bd	0.25031844
110	0x3e82833f	0.25490758
111	0x3f807b52	1.0037634
112	0x3dce828c	0.100834936
113	0x3ecf51a4	0.40491974
114	0x3e267b78	0.16258037
115	0x3ef3847c	0.47562015
116	0x3d9d568c	0.07682523
117	0x3ef62528	0.48075223
118	0xbec6dbce	-0.38839573
119	0x3e00cd00	0.12578201
120	0xbf0edd92	-0.5580684
121	0x3e3e9586	0.18611726
122	0x3dd8aa77	0.105793886
123	0x3ea81a45	0.32832542
124	0x3ecdabb6	0.40170068
125	0xbd643a76	-0.055719815
126	0xbec97611	-0.3934789
127	0x3f46f5e2	0.7771894
128	0x3ed9a868	0.42511296
129	0xbe519a02	-0.20468906
130	0xbce04ba5	-0.02737982
131	0xbeaa14b6	-0.33218926
132	0x3dcbe84e	0.09956418
133	0xbe8703cf	-0.26370093
134	0x3e11f91b	0.14255182
135	0x3e71853a	0.23585978
136	0x3f2c1cc7	0.6723141
137	0x3f76dadc	0.964277
138	0x3e9d5246	0.30726832
139	0xbed9c4d0	-0.4253297
140	0x3fdd8f8b	1.7309431
141	0xbfacd592	-1.3502676
142	0x3f135f3a	0.5756718
143	0x3e79af5e	0.24383304
144	0x3c7a909e	0.0152932685
145	0xbd864f8a	-0.065581396
146	0xbdfedb7c	-0.12444207
147	0x3d465446	0.048420213
148	0x3e08868f	0.1333258
149	0xbf4b1906	-0.7933506
150	0x400dcea3	2.215737
151	0x3ff11b70	1.8836498
152	0xbee9fff7	-0.45703098
153	0x3fdaa727	1.7082261
154	0xbfbeb744	-1.4899678
155	0x3ee81314	0.45327055
156	0x3de94f12	0.113920346
157	0xbf02ce40	-0.5109596
158	0x3e0c4c9e	0.13701102
159	0xbc6ace39	-0.014331394
160	0xbd54e073	-0.051971864
161	0xbe9d8860	-0.30768108
162	0xbea547dd	-0.3228139
163	0x3d4aa322	0.04947198
164	0x3e9edd40	0.31028175
165	0x3c1ec177	0.00968968
166	0x3f02c313	0.5107891
167	0xbec0863c	-0.37602413
168	0xbd85da57	-0.06535786
169	0xbd318352	-0.043338127
170	0x3e09d03c	0.13458341
171	0xbe6cd3e1	-0.231277
172	0xbed92c92	-0.42416817
173	0x3e675977	0.22592722
174	0xbf1c06c2	-0.6094781
175	0xbdd17f96	-0.10229413
176	0xbe4a9b07	-0.197857
177	0x3e45c0b2	0.19311789
178	0x3d115bc8	0.03548792
179	0xbeae9813	-0.34100398
180	0xbea65284	-0.3248483
181	0xbde5c591	-0.112193234
182	0xbe8cf436	-0.27530068
183	0x3c0fd744	0.008779351
184	0xbee1dbf0	-0.44113111
185	0x3dcc8af9	0.099874444
186	0xbea388c9	-0.31940296
187	0x3d8cb7b7	0.06870978
188	0x3e0d9f29	0.13830246
189	0xbeb9a0ad	-0.36255398
190	0xbebf47b2	-0.37359387
191	0x3cc9c024	0.024627753
192	0x3d77fc03	0.06054307
193	0xbe85c6c4	-0.2612821
194	0xbf005433	-0.5012848
195	0x3ecbac32	0.39779812
196	0xbe1c4524	-0.1526075
197	0x3ea8b93e	0.3295383
198	0x3df5b0d3	0.11996617
199	0xbe1e8c10	-0.15483117
200	0x3e1a8470	0.15089583
201	0xbec1de26	-0.37864798
202	0xbe925a1f	-0.28584382
203	0xbed16d49	-0.4090369
204	0xbedbbf4e	-0.4291939
205	0xbb8058cf	-0.003916837
206	0x3e8992a4	0.2686969
207	0x3c3a48f3	0.0113699315
208	0xbe138e4a	-0.14409748
209	0x3e60274e	0.21889994
210	0xbcb96f2e	-0.022636022
211	0x3e6dbf8b	0.23217599
212	0xbe686abb	-0.22696964
213	0xbd28ba00	-0.04119301
214	0xbf0f0344	-0.5586436
215	0x3e368d1c	0.17827266
216	0xbd322edc	-0.04350172
217	0x3f4a59eb	0.79043454
218	0xbf5d5ea5	-0.8647254
219	0x3ef53453	0.47891483
220	0xbe0dc91e	-0.13846251
221	0x3db59c6d	0.088677265
222	0x3a93550f	0.0011240559
223	0x3e64cb9e	0.22343299
224	0x3df2835e	0.118414626
225	0xbed00d4b	-0.40635142
226	0xbc2f508d	-0.010700357
227	0xbf8f0b1d	-1.1175267
228	0xbfac23df	-1.3448447
229	0xbf6f9636	-0.9358858
230	0x3e98afad	0.2982153
231	0xbf8ff11d	-1.1245457
232	0x3f8f7748	1.1208277
233	0xbeb192b6	-0.34682244
234	0xbc9d90d1	-0.019234093
235	0x3ee5689d	0.44806376
236	0xb9e064a4	-0.00042799592
237	0xbdd696dd	-0.10477994
238	0x3dcba93e	0.0994439
239	0xbd1e81ff	-0.038698193
240	0xbf18b99d	-0.59658223
241	0x3dcf9175	0.101351656
242	0xbc9e55e6	-0.019328069
243	0x3e96d40e	0.2945866
244	0x3eb5e958	0.3552959
245	0x3edf44c7	0.4360716
246	0x3daa078c	0.08302221
247	0x3e333e6a	0.17504278
248	0x3e7bc8b2	0.24588278
249	0xbd52f41f	-0.051502343
250	0xbc412e20	-0.011790782
251	0xbec664a4	-0.38748658
252	0x3da2ddd0	0.079524636
253	0x3f02313c	0.50856376
254	0xbff1be32	-1.8886168
255	0xbf83c982	-1.029587

bias f4 [64]
0	0x00000000	0.0
1	0x00000000	0.0
2	0x00000000	0.0
3	0x00000000	0.0
4	0x3d3b2b1c	0.04569541
5	0x3e2e1fd6	0.17004332
6	0x3dceda66	0.1010025
7	0x3e6fb667	0.23409425
8	0x3cca56c0	0.024699569
9	0x3d114004	0.03546144
10	0x3e4fcc75	0.20292838
11	0x3ea40736	0.32036752
12	0x00000000	0.0
13	0xbbd01675	-0.0063503333
14	0xbbd86e09	-0.006604914
15	0x3742d8ef	1.161381e-05
16	0xbe15daa3	-0.14634185
17	0xbe6d2acc	-0.23160857
18	0x3711b3fb	8.6845785e-06
19	0xbe746a13	-0.23868589
20	0x3da67ab5	0.08128873
21	0xbe2279fa	-0.15866843
22	0xbcae80c6	-0.021301638
23	0xbe847ff8	-0.25878882
24	0x3c2cd8b6	0.010549715
25	0x3eabb3a7	0.335355
26	0xbe2c1cf4	-0.1680792
27	0x00000000	0.0
28	0xbc0694d3	-0.008214193
29	0x3e52117a	0.2051448
30	0x3ea03974	0.31293833
31	0x3d115a9b	0.0354868
32	0x37202a57	9.546601e-06
33	0xbd0c4139	-0.03424189
34	0x3e4b5878	0.19857967
35	0xbd08a9d5	-0.03336509
36	0x00000000	0.0
37	0xbe3b297b	-0.18277542
38	0xbe473eaf	-0.19457506
39	0x00000000	0.0
40	0x3e462c46	0.19352826
41	0xbdf946b3	-0.12171688
42	0xba2e5613	-0.00066503993
43	0xbdeb55a8	-0.11490947
44	0x3784eecc	1.5846825e-05
45	0xbe70ac7e	-0.235033
46	0xbe6b2f91	-0.22967364
47	0x3e2f5c76	0.17125115
48	0xbc5eb40b	-0.01359273
49	0x3ab74445	0.0013982138
50	0x3e56f203	0.20990758
51	0x00000000	0.0
52	0x3dacc1b6	0.08435385
53	0x00000000	0.0
54	0x00000000	0.0
55	0x3d7ec1ae	0.062196426
56	0x00000000	0.0
57	0x00000000	0.0
58	0x3e8eac8a	0.27866012
59	0x3d6387e7	0.05554953
60	0xbbefc5e0	-0.0073172897
61	0x3e109598	0.14119565
62	0x00000000	0.0
63	0x00000000	0.0
