src/GraspNode/models/model_button_0118_1.pt (torch, 456160 bytes, 15 tensors)

weight f4 [64, 13]
0.01987073 0.34464258 0.022968449 -0.10528517 -0.41183722 0.36507672 -0.2460175 0.008474025
0.33270738 -0.2131577 0.24243647 -0.22107051 -0.43413788 -0.48938367 -0.020696776 -0.35199627
0.25723755 0.11590517 0.30436477 0.063291445 -0.0074660885 0.60120535 0.28959033 -0.17674358
0.17206803 -0.20083196 -0.01638975 -0.006997513 0.096138194 0.22140916 -0.47014087 -0.309214
0.057624787 -0.12342852 0.22520202 -0.15942699 0.1494576 0.37524015 0.5019795 0.1182255
-0.5244046 0.31060854 0.39083353 0.1345877 -0.037964113 -0.118181214 -0.33386195 -0.15294306
0.29069293 0.12932104 -0.33455637 0.18788484 0.5182364 -0.0312325 0.24953565 -0.34016448
-0.007874354 -0.22018643 -0.0886081 0.26168814 -0.0314854 -0.3298316 -0.00232551 0.35100755
0.40357128 0.25168782 0.41778475 -0.2597374 -0.10316792 -0.1916779 -0.6208633 0.069722235
-0.048375893 -0.15241288 -0.22935951 -0.20391406 0.16650315 0.34131435 0.28797483 0.1386231
0.34173468 0.21148108 0.26591343 0.21170187 -0.387157 0.38807023 -0.34907556 0.06360455
0.21862471 0.3817222 -0.030377712 0.44007245 -0.070738174 -0.5852375 0.40666822 -0.17681548
0.1137202 0.00724562 -0.035146605 -0.073960416 -0.15704478 0.17652966 0.18027678 -0.35501432
-0.09933375 -0.4422978 0.47534522 0.058900382 -0.07984578 -0.050637573 0.17389938 0.5373192
0.005897651 0.0550008 0.21354029 0.28181317 -0.034980923 0.24661121 0.040073942 0.44662425
0.019061308 0.6321179 -0.030480158 0.014330082 0.08249685 0.2201185 0.1546304 -0.3591056
0.33732733 0.050723065 0.32206705 0.42772058 0.15827303 -0.06047044 0.30182672 0.36890867
-0.07772327 -0.114713535 0.2677167 0.3643253 0.36581653 0.29578552 -0.11185625 0.005516141
0.23943329 0.6998104 -0.46301904 0.040147077 -0.013901693 0.1229808 0.02731044 -0.13530588
0.27048868 -0.06965896 0.24533968 0.25363204 0.43942627 0.08649029 0.22808065 -0.0611427
0.20914812 -0.27286917 -0.28682157 -0.6155314 -0.1312431 0.3144063 -0.059975754 -0.110221
0.057129722 0.2403566 -0.25213242 0.22787586 -0.11685921 0.13664646 -0.6792354 0.22825551
0.10542185 -0.09254063 -0.011859308 0.2651048 -0.45751467 -0.040553182 0.31635913 0.00700659
-0.1620969 0.20176883 0.6215845 0.33719355 0.06734612 0.21034727 -0.26189992 0.2564683
0.11474664 0.123762906 0.34719083 0.15020564 -0.15514575 0.14423712 0.09901926 0.034182508
0.5641469 0.099619605 -0.20847483 -0.42386693 -0.18719612 -0.40784162 0.06940397 0.39026022
-0.14416343 -0.15526687 -0.069860876 0.7097614 -0.14993267 0.19767794 0.2378035 0.17214562
-0.36955678 0.19165303 -0.4107468 -0.157525 -0.17705174 0.26072636 0.30344918 -0.096379906
-0.18240152 0.5550855 -0.0649321 0.02746827 -0.63391054 0.22403528 -0.09454343 -0.11161086
0.0592568 0.17205343 -0.14780617 -0.26395693 -0.045299955 0.25507697 0.24856962 -0.43336004
0.23090456 -0.47704405 -0.34837717 -0.009478224 -0.33972052 -0.1316003 0.17062253 -0.10775947
-0.15152587 0.5295771 0.022536177 -0.23109004 -0.36235702 0.34810945 -0.5139204 0.06638091
00000000: f1c7 a23c fe74 b03e 5428 bc3c c09f d7bd
00000010: 54dc d2be 56eb ba3e 03ec 7bbe a3d6 0a3c
00000020: 9f58 aa3e 0346 5abe 4441 783e 4f60 62be
00000030: 5247 debe 7f90 fabe 498c a9bc db38 b4be
00000040: a4b4 833e b15f ed3d b3d5 9b3e f29e 813d
00000050: 17a6 f4bb 98e8 193f 2f45 943e 45fc 34be
00000060: 9a32 303e e5a6 4dbe cc43 86bc 654b e5bb
00000070: 1ae4 c43d 15b9 623e 4eb6 f0be 4c51 9ebe
00000080: f807 6c3d 18c8 fcbd 5c9b 663e d440 23be
00000090: 6a0b 193e 7a1f c03e ba81 003f 3620 f23d
000000a0: 613f 06bf 1508 9f3e 551b c83e 5cd1 093e
000000b0: 4280 1bbd fe08 f2bd f4ef aabe 1b9d 1cbe
000000c0: b4d5 943e bc6c 043e f94a abbe e264 403e
000000d0: 24ab 043f 4ddb ffbc 4686 7f3e 0a2a aebe
000000e0: 6f03 01bc 8d78 61be 2a78 b5bd fdfb 853e
000000f0: d6f6 00bd b0df a8be 9567 18bb 43b7 b33e
00000100: e5a0 ce3e 3add 803e e2e7 d53e 4dfc 84be
00000110: b449 d3bd 3647 44be e6f0 1ebf 88ca 8e3d
00000120: cd25 46bd 1f12 1cbe 38dd 6abe d9ce 50be
00000130: cd7f 2a3e c1c0 ae3e 7071 933e 37f3 0d3e
00000140: d9f7 ae3e 7f8e 583e ce25 883e 60c8 583e
00000150: 7139 c6be 24b1 c63e 08ba b2be 1a43 823d
00000160: 28df 5f3e 1871 c33e aeda f8bc 2d51 e13e
00000170: 2ddf 90bd 20d2 15bf d136 d03e 1e0f 35be
00000180: 23e6 e83d aa6c ed3b e3f5 0fbd 8f78 97bd
00000190: 59d0 20be 31c4 343e 7a9a 383e 70c4 b5be
000001a0: 7e6f cbbd db74 e2be 7360 f33e 8741 713d
000001b0: 2f86 a3bd 5869 4fbd ae12 323e c08d 093f
000001c0: 1541 c13b 8548 613d 4eaa 5a3e d149 903e
000001d0: 2848 0fbd a687 7c3e 9324 243d efab e43e
000001e0: 7626 9c3c 7bd2 213f 86b1 f9bc b8c8 6a3c
000001f0: 1cf4 a83d be66 613e 6e57 1e3e b0dc b7be
00000200: 2bb6 ac3e fdc2 4f3d f9e5 a43e 31fe da3e
00000210: 5312 223e daaf 77bd 0889 9a3e 99e1 bc3e
00000220: 612d 9fbd eeee eabd 2a12 893e d988 ba3e
00000230: 4e4c bb3e 3371 973e e414 e5bd bfc0 b43b
00000240: 002e 753e c626 333f d510 edbe 4371 243d
00000250: edc3 63bc 5cdd fb3d 25ba df3c a08d 0abe
00000260: 7e7d 8a3e 5ba9 8ebd 533a 7b3e 0fdc 813e
00000270: 7bfc e03e d221 b13d f98d 693e c570 7abd
00000280: ed2a 563e 82b5 8bbe 47da 92be 7793 1dbf
00000290: 9764 06be ddf9 a03e 23a9 75bd 8cbb e1bd
000002a0: db00 6a3d 0a20 763e 8017 81be 4a58 693e
000002b0: e253 efbd 0ded 0b3e 5fe2 2dbf d0bb 693e
000002c0: 69e7 d73d f185 bdbd 8b4d 42bc d1bb 873e
000002d0: 5d3f eabe 181b 26bd d3f9 a13e 8997 e53b
000002e0: bbfc 25be 7d9c 4e3e 2920 1f3f a2a4 ac3e
000002f0: c3ec 893d 4665 573e bf17 86be d04f 833e
00000300: 4900 eb3d 6877 fd3d ffc2 b13e 82cf 193e
00000310: 87de 1ebe e5b2 133e 9cca ca3d f502 0c3d
00000320: ee6b 103f 5d05 cc3d 6d7a 55be 1605 d9be
00000330: 57b0 3fbe 9ed0 d0be ab23 8e3d 30d0 c73e
00000340: 949f 13be 47fe 1ebe 3813 8fbd ecb2 353f
00000350: f387 19be 166c 4a3e c382 733e f146 303e
00000360: 8c36 bdbe b140 443e 684d d2be 3c4e 21be
00000370: 0d4d 35be ed7d 853e b15d 9b3e d462 c5bd
00000380: 77c7 3abe 151a 0e3f 1ffb 84bd 2305 e13c
00000390: f647 22bf 8169 653e fc9f c1bd 3c94 e4bd
000003a0: 42b7 723d c62e 303e 805a 17be 5d25 87be
000003b0: 728c 39bd 7399 823e 0989 7e3e 5ee1 ddbe
000003c0: 3f72 6c3e 1e3f f4be 7e5e b2be 8e4a 1bbc
000003d0: d9ef adbe 3bc2 06be acb7 2e3e ffb0 dcbd
000003e0: 9929 1bbe 5d92 073f ca9d b83c dea2 6cbe
000003f0: dc86 b9be 673b b23e 4a90 03bf b7f2 873d

bias f4 [64]
-0.0117213195 -0.030553114 -0.0017742388 -0.01614089 0.047501773 0.0013048152 0.0 -0.007656206
-0.019837145 -0.02128596 0.0 0.0 -0.011245492 0.011909971 -0.008092104 0.021438746
-0.0060205003 0.0015146912 0.010429801 0.033307165 -0.013813355 0.009470705 -0.0027740386 0.018066816
0.001236283 0.0 0.0 -0.054102715 0.0 0.0 4.1117946e-05 -0.021349162
-0.0149734905 0.0001407093 -0.005747668 0.0 -0.018487217 0.0 -0.0049703107 -0.0046145823
0.0 -0.0035764384 3.676173e-06 -0.009237103 0.0 0.019380288 0.08301396 0.0
-0.0013160912 0.0 -0.008869966 0.0 0.0 -0.004198586 0.038541485 -0.01691207
0.0 0.0063475543 -0.0060172738 -0.0009386601 -0.0014224172 0.003693173 4.025981e-05 0.0034054224
00000000: c70a 40bc 864a fabc 938d e8ba e639 84bc
00000010: 3891 423d 5506 ab3a 0000 0000 e9e0 fabb
00000020: 8281 a2bc e55f aebc 0000 0000 0000 0000
00000030: 033f 38bc 0a22 433c bf94 04bc 4fa0 af3c
00000040: 9e47 c5bb 9a88 c63a c2e1 2a3c 186d 083d
00000050: 6951 62bc 042b 1b3c a5cc 35bb dc00 943c
00000060: c60a a23a 0000 0000 0000 0000 cf9a 5dbd
00000070: 0000 0000 0000 0000 0f76 2c38 70e4 aebc
00000080: 5f53 75bc 5d8b 1339 ef56 bcbb 0000 0000
00000090: 8172 97bc 0000 0000 fddd a2bb ec35 97bb
000000a0: 0000 0000 ae62 6abb 2cb4 7636 3857 17bc
000000b0: 0000 0000 69c3 9e3c 3903 aa3d 0000 0000
000000c0: b180 acba 0000 0000 5553 11bc 0000 0000
000000d0: 0000 0000 4b94 89bb addd 1d3d 2e8b 8abc
000000e0: 0000 0000 25ff cf3b 8d2c c5bb 6a10 76ba
000000f0: 6770 baba 2909 723b a4dc 2838 822d 5f3b

weight f4 [256, 64]
0.11194453 -0.13939258 0.010941405 0.11841022 -0.008581365 0.09117542 0.042087026 0.033850335
0.21216731 0.046674352 0.024948815 0.24634431 -0.02671872 0.0617135 0.13807817 -0.07294723
0.20763785 -0.14830706 -0.058597986 0.024044765 -0.0768601 0.08639931 0.08091824 0.023893604
-0.00724243 0.34775344 -0.13144028 0.144426 0.07180872 -0.13620302 -0.038437534 -0.08770061
0.2603375 -0.053572502 0.04196813 0.07796908 -0.031748183 -0.110632285 0.05390456 0.16851728
0.09746643 0.15086094 -0.17311113 0.28125086 -0.06328445 -0.13681883 -0.03259868 0.078505956
0.2303348 -0.18338291 -0.065750934 -0.20159425 0.01067929 -0.07979067 -0.11151444 0.09278996
0.14088427 -0.15812987 0.22182205 -0.13241841 0.06607414 -0.16179523 0.10743744 -0.099944696
0.013907497 -0.062023733 -0.009228133 0.17276019 0.08218402 -0.08211867 0.12298997 0.13708158
-0.12734605 0.008354801 0.005075379 -0.12914175 0.008820897 -0.14114597 -0.24300045 0.20011987
-0.16348132 -0.038882893 -0.1399884 0.1262566 -0.036499046 0.13885087 0.15219411 0.18600643
0.13014238 -0.04748327 -0.042033214 -0.17725068 0.08451512 0.019566905 0.009354908 0.13618214
0.18840274 0.078029744 -0.09397981 0.4237938 -0.085670106 -0.066526696 -0.15570803 -0.01036749
0.0059352084 0.03480516 0.044932008 -0.029748905 0.058602083 -0.17627142 -0.16964515 0.04835655
-0.20457664 -0.118798725 0.055254508 0.007193977 0.10079594 0.009802307 0.020055331 0.14033467
-0.24662806 0.1775569 0.18758766 -0.041433662 0.017886464 -0.17825772 -0.10519408 -0.16549599
0.06943175 -0.1655362 -0.14018646 0.09520687 -0.11860192 0.116022415 0.04182421 -0.26426536
0.046179716 -0.2382294 -0.2417038 0.027126182 -0.05169704 -0.0444204 0.045105014 0.13974765
0.012134724 0.16679074 -0.13729538 0.08793955 0.19409506 0.11132612 -0.047563963 0.35654694
-0.0031689664 0.065898634 -0.1646563 -0.2462945 0.027185557 -0.01611964 0.09114057 -0.027622098
0.10640942 -0.19887799 0.016751945 -0.16461825 -0.017217753 -0.20093249 0.20814475 -0.0038941416
0.054741133 -0.13785362 0.092738666 -0.15127578 -0.14646578 -0.12045301 -0.02701863 0.05702983
0.16650973 -0.17452003 0.04715241 0.051073678 0.039448034 -0.049584847 -0.19264327 -0.15631592
0.08124321 -0.0545868 0.102649756 0.05051671 -0.13356489 0.02885647 -0.02444179 -0.13080911
-0.121586084 -0.10005724 -0.030124318 0.08303071 0.012801766 0.20172906 0.18566664 0.088121854
0.20271763 -0.10364311 -0.0137608 0.028746111 0.057454355 -0.098403424 0.13257569 0.026177932
-0.050995555 0.0507969 -0.011801962 -0.069803834 -0.01247076 0.13546634 -0.029564805 0.2866531
0.012267701 -0.00050527626 0.044925746 0.044481885 -0.41352814 -0.07102612 0.008786105 -0.031486996
-0.022377137 0.049258456 -0.022986786 -0.017006334 -0.14402337 0.042637635 -0.029799175 -0.17135245
0.14295562 -0.06202539 -0.09934994 -0.15261275 -0.14225817 -0.13445753 0.053729914 0.15554811
0.12925608 0.14861976 0.017115105 0.03053444 0.2348926 -0.016989484 -0.06295474 -0.36742723
0.2890682 0.057739217 -0.012167432 0.016641151 0.17524981 0.1918775 0.15059768 0.103985325
00000000: 2c43 e53d eebc 0ebe 9443 333c 0f81 f23d
00000010: db98 0cbc 2eba ba3d 7263 2c3d a6a6 0a3d
00000020: 6342 593e 9b2d 3f3d 7561 cc3c af41 7c3e
00000030: 38e1 dabc 4cc7 7c3d 5d64 0d3e 5b65 95bd
00000040: 049f 543e cedd 17be 7104 70bd 87f9 c43c
00000050: d468 9dbd 1ff2 b03d 76b8 a53d 85bc c33c
00000060: e851 edbb bd0c b23e 4898 06be 69e4 133e
00000070: 7310 933d ce78 0bbe ad70 1dbd 619c b3bd
00000080: f54a 853e d76e 5bbd c6e6 2b3d 41ae 9f3d
00000090: 620a 02bd 2e93 e2bd 07cb 5c3d cb8f 2c3e
000000a0: 7b9c c73d 4a7b 1a3e 0b44 31be 1d00 903e
000000b0: 479b 81bd 3c1a 0cbe 3286 05bd bbc7 a03d
000000c0: e3dc 6b3e bbc8 3bbe 6da8 86bd b96e 4ebe
000000d0: 30f8 2e3c 4a69 a3bd af61 e4bd aa08 be3d
000000e0: f743 103e ccec 21be 5225 633e b198 07be
000000f0: e151 873d a6ad 25be 2908 dc3d ceaf ccbd
00000100: 45dc 633c 990c 7ebd 9831 17bc 0ce8 303e
00000110: 1850 a83d d52d a8bd 2ae2 fb3d 1d5f 0c3e
00000120: 0167 02be 93e2 083c 5d4f a63b bc3d 04be
00000130: 8685 103c 9288 10be 1cd5 78be 39ec 4c3e
00000140: a667 27be ab43 1fbd 1e59 0fbe 6949 013e
00000150: 0680 15bd ec2e 0e3e c6d8 1b3e 7878 3e3e
00000160: 0b44 053e d17d 42bd 052b 2cbd 3481 35be
00000170: 4316 ad3d c64a a03c 5445 193c 5573 0b3e
00000180: a6ec 403e 0fce 9f3d 7d78 c0bd 80fb d83e
00000190: cf73 afbd 263f 88bd ed71 1fbe 68dc 29bc
000001a0: 237c c23b db8f 0e3d a00a 383d fab3 f3bc
000001b0: bd08 703d 7f80 34be 75b7 2dbe 8511 463d
000001c0: 8a7c 51be bf4c f3bd 8d52 623d 74bb eb3b
000001d0: 1a6e ce3d db99 203c 144b a43c e4b3 0f3e
000001e0: 118c 7cbe 7ad1 353e fb16 403e 58b6 29bd
000001f0: a286 923c 3189 36be fe6f d7bd c877 29be
00000200: 3c32 8e3d 5282 29be 0a8d 0fbe d2fb c23d
00000210: 90e5 f2bd 299d ed3d dd4f 2b3d ca4d 87be
00000220: f126 3d3d 68f2 73be 3381 77be ba37 de3c
00000230: 47c0 53bd 2af2 35bd 09c0 383d 021a 0f3e
00000240: b9d0 463c 31cb 2a3e 2997 0cbe a719 b43d
00000250: dbc0 463e f3fe e33d 6ed2 42bd 528d b63e
00000260: 6fae 4fbb ddf5 863d a99b 28be a034 7cbe
00000270: 3fb4 de3c 560d 84bc e8a7 ba3d bd47 e2bc
00000280: 2fed d93d aca6 4bbe 603b 893c b091 28be
00000290: 3f0c 8dbc 3fc1 4dbe e623 553e db34 7fbb
000002a0: 3d38 603d 8029 0dbe c5ed bd3d 0ae8 1abe
000002b0: 20fb 15be 11b0 f6bd 2d56 ddbc 1c98 693d
000002c0: 8781 2a3e 61b5 32be e322 413d a232 513d
000002d0: 4394 213d 7b19 4bbd 4744 45be 4811 20be
000002e0: d762 a63d 6996 5fbd 093a d23d 9cea 4e3d
000002f0: 3cc5 08be 6764 ec3c 263a c8bc d3f2 05be
00000300: 2002 f9bd cfea ccbd 46c7 f6bc 010c aa3d
00000310: 80be 513c 1092 4e3e 651f 3e3e 3b79 b43d
00000320: 3695 4f3e d742 d4bd fa74 61bc f77c eb3c
00000330: 4255 6b3d bc87 c9bd ecc1 073e 1a73 d63c
00000340: b7e0 50bd 6910 503d 045d 41bc 50f5 8ebd
00000350: 2952 4cbc b0b7 0a3e e431 f2bc 32c4 923e
00000360: 78fe 483c 8474 04ba 0f04 383d a332 363d
00000370: f6b9 d3be 2476 91bd 98f3 0f3c 82f8 00bd
00000380: 4250 b7bc 3cc3 493d c94e bcbc de50 8bbc
00000390: dd7a 13be cda4 2e3d 661d f4bc 0477 2fbe
000003a0: f562 123e 560e 7ebd fb77 cbbd 8446 1cbe
000003b0: 20ac 11be 3caf 09be e613 5c3d 0148 1f3e
000003c0: b55b 043e c72f 183e fa34 8c3c 5d23 fa3c
000003d0: b087 703e 882d 8bbc 6aee 80bd 6c1f bcbe
000003e0: bf00 943e f57f 6c3d e959 47bc 0653 883c
000003f0: b074 333e 897b 443e 4736 1a3e 42f6 d43d

bias f4 [256]
0.00052319944 -0.015339993 -0.039284088 0.007636765 0.01482658 0.010884888 0.013235674 0.018575756
0.025307057 0.0023075773 -0.022182278 -0.00025551638 0.013778819 0.0072627617 -0.016002169 0.016384125
0.0012065863 -0.0046142004 0.010055015 0.009720551 0.011463974 -0.014688784 0.009223531 -0.025716625
-0.012746771 -0.011165229 -0.0019411794 -0.00066523155 -0.0022207217 0.00065506954 -0.0013231286 0.0009372676
0.0023354685 0.0057773935 0.019556725 0.008522073 0.0026533469 -0.0005810739 -0.0010198542 -0.019615952
0.021240035 -0.00046580585 0.00957174 -0.027003275 -0.022134181 0.014972043 -0.010190261 -0.024834063
0.006793557 0.0016392887 0.003427254 -0.0013446105 -0.01864324 -0.011314345 -0.013905638 -0.0078062797
-0.0058605126 0.005862933 -0.01641659 -0.013762234 0.021481672 0.004215845 0.0006948115 0.0069766003
-0.012406804 -0.0060307677 -0.004112537 0.012883104 0.015670188 0.008119223 -0.026939154 0.015015393
0.0076107187 -0.010994977 0.028010879 -0.011105074 0.0047673145 0.00030421215 0.0033888689 0.008647429
0.00912489 -0.013075104 -0.0038037403 0.005340349 0.013593425 0.0067220284 0.016730815 -0.013982838
0.00073544873 0.01916514 -0.025626116 0.016603827 -0.010952339 0.017515833 0.014061354 -0.021787241
-0.0077472692 -0.00861341 0.013129763 -0.0058571207 0.00800288 -0.0064550648 0.008913213 0.014182862
0.0075446446 0.014149662 0.0019080988 -0.020401832 -0.012020707 0.025010467 -0.022210246 0.014734987
-0.009201167 -0.009609999 0.021770576 0.0019755433 0.004444093 -0.021340974 -0.0021782373 0.005645803
0.025783727 -0.005788349 -0.002093484 0.0007067852 -0.010926189 -0.001977164 -0.02183023 0.023440946
0.0066852863 0.0020639875 0.0018957072 -0.012735108 0.0022791813 -0.0007858454 -0.026126394 0.01217579
-0.003390761 0.013923917 0.008087596 0.021330334 0.02567146 0.007585792 -0.009624183 -0.00048995425
-0.019738259 0.0030569024 -0.010419544 -0.004689165 0.013053612 -0.016787663 -0.0014633421 -0.006709285
-0.009982907 0.009221645 -0.0020864524 -0.016085017 0.012116391 -0.0017893983 0.008726333 -0.007146325
0.00092267594 -0.0020561952 -0.009304561 -0.0038749613 -0.01852196 0.008785988 0.0032647925 -0.011738774
0.0016052055 -0.0080818245 -0.012168267 0.017067257 0.027149223 -0.016509928 0.010322588 -0.005604256
0.015542488 -0.009323213 0.00095101993 0.02289139 0.012409881 0.004927877 0.00034871022 0.0069549307
0.021316126 0.013774328 -0.011466609 -0.0138054015 0.00057993084 0.011524289 0.017579574 -0.0066544507
-0.011212914 -0.009979216 -0.010761842 -0.0037311527 0.017567255 0.008434928 0.012880354 0.016012143
-0.012316807 0.0009992392 0.01806024 -0.01644446 0.00435 -0.01956023 0.012383133 -0.012210252
-0.0004559265 -0.011846596 -0.0076876543 0.015352512 -0.007399045 0.015103568 0.0021014742 -0.0026159466
-0.026027335 0.01715166 -0.0051410254 0.0060779382 0.016440311 0.005883927 -0.00021329104 -0.012182844
0.02388836 0.016477687 0.0026099975 -0.007667311 -0.0033887934 -0.008062524 0.01374221 0.005402975
-0.005590483 0.011975846 -0.040479496 0.020996526 -0.0007396574 -0.0067117126 0.0021611876 0.01618075
-0.010486856 0.008160787 -0.013818974 0.023173012 -0.00027893067 -0.014650654 0.007003409 0.0006126945
-0.0020332884 -0.01858245 0.016558254 -0.016269838 -0.008913091 -0.004258196 0.008156158 -0.0040689874
00000000: 5227 093a 9854 7bbc 5ae8 20bd d43d fa3b
00000010: 2feb 723c 8756 323c 71da 583c 2f2c 983c
00000020: bf50 cf3c b93a 173b 9cb7 b5bc d4f6 85b9
00000030: 8ec0 613c 76fc ed3b fb16 83bc 0038 863c
00000040: 5126 9e3a b832 97bb cabd 243c f242 1f3c
00000050: 64d3 3b3c 3aa9 70bc 4b1e 173c acab d2bc
00000060: d5d7 50bc 5dee 36bc 2c6f feba ef62 2eba
00000070: 8789 11bb f9b8 2b3a d46c adba f7b2 753a
00000080: a90e 193b 4a50 bd3b 6d35 a03c 2aa0 0b3c
00000090: c6e3 2d3b 3653 18ba a1ac 85ba a2b1 a0bc
000000a0: 95ff ad3c 6737 f4b9 cad2 1c3c f935 ddbc
000000b0: be52 b5bc 4d4d 753c 0df5 26bc ce70 cbbc
000000c0: 7d9c de3b 67dd d63a c89b 603b a43d b0ba
000000d0: b5b9 98bc cd5f 39bc 79d4 63bc d2cb ffbb
000000e0: 8b09 c0bb d91d c03b 167c 86bc fe7a 61bc
000000f0: 55fa af3c 1225 8a3b 0324 363a f79b e43b
00000100: e845 4bbc bf9d c5bb 76c2 86bb a813 533c
00000110: c45e 803c 7d06 053c 80af dcbc 1f03 763c
00000120: 5663 f93b 4724 34bc 1277 e53c 0ef2 35bc
00000130: 2237 9c3b aa7e 9f39 c917 5e3b f2ad 0d3c
00000140: 9080 153c f638 56bc 2c48 79bb 18fe ae3b
00000150: f5b6 5e3c 7644 dc3b 100f 893c 4618 65bc
00000160: 21cb 403a 3600 9d3c dced d1bc c004 883c
00000170: 7071 33bc 5d7d 8f3c 9861 663c 287b b2bc
00000180: cedc fdbb 431f 0dbc 381e 573c 17ed bfbb
00000190: 831e 033c 0285 d3bb ba08 123c 3c5f 683c
000001a0: 1139 f73b fcd3 673c 2c19 fa3a be21 a7bc
000001b0: 80f2 44bc c0e2 cc3c 43f2 b5bc 046b 713c
000001c0: 7ec0 16bc 4273 1dbc 3558 b23c 1e78 013b
000001d0: c19f 913b 44d3 aebc c2c0 0ebb 6e00 b93b
000001e0: 6538 d33c 31ac bdbb d532 09bb 8d47 393a
000001f0: c203 33bc 4f93 01bb 4fd5 b2bc 3a07 c03c
00000200: 3f10 db3b f743 073b 6179 f83a eaa6 50bc
00000210: 515e 153b 3101 4eba 0507 d6bc f77c 473c
00000220: 8837 5ebb 2421 643c d681 043c f4bc ae3c
00000230: f44c d23c 3c92 f83b c0ae 1dbc 4670 00ba
00000240: 21b2 a1bc 5056 483b bcb6 2abc 91a7 99bb
00000250: d1de 553c 4886 89bc 9dcd bfba 90d9 dbbb
00000260: 598f 23bc 6216 173c ddbc 08bb bac4 83bc
00000270: d483 463c 3e8a eaba e5f8 0e3c b82b eabb
00000280: bcdf 713a 3bc1 06bb 2872 18bc 10f3 7dbb
00000290: 5ebb 97bc 1bf3 0f3c 21f6 553b fd53 40bc
000002a0: c265 d23a a169 04bc 695d 47bc a2d0 8b3c
000002b0: 0c68 de3c d43f 87bc 1220 293c e8a3 b7bb
000002c0: eba5 7e3c 64c0 18bc de4d 793a b986 bb3c
000002d0: d052 4b3c 077a a13b 18d3 b639 30e6 e33b
000002e0: 289f ae3c b8ad 613c 72de 3bbc 0d30 62bc
000002f0: 8006 183a 5fd0 3c3c 0a03 903c 940d dabb
00000300: 5fb6 37bc de7f 23bc 7052 30bc 5b86 74bb
00000310: 34e9 8f3c a732 0a3c 1f08 533c e62b 833c
00000320: 6fcc 49bc e7f8 823a 12f3 933c 88b6 86bc
00000330: 728a 8e3b c73c a0bc a0e2 4a3c 820d 48bc
00000340: 6b09 efb9 3a18 42bc b8e8 fbbb 1a89 7b3c
00000350: b073 f2bb f574 773c e3b8 093b 4d70 2bbb
00000360: 4737 d5bc a381 8c3c 0c76 a8bb 7129 c73b
00000370: d5ad 863c f5cd c03b e1a6 5fb9 8d9a 47bc
00000380: 86b1 c33c 37fc 863c 7e0c 2b3b 113e fbbb
00000390: 8516 5ebb ad18 04bc 0227 613c 700b b13b
000003a0: 5f30 b7bb 5736 443c d4cd 25bd e800 ac3c
000003b0: 91e5 41ba eded dbbb b6a2 0d3b 7e8d 843c
000003c0: 10d1 2bbc d2b4 053c fa68 62bc 54d5 bd3c
000003d0: 713d 92b9 4c09 70bc da7c e53b 3b9d 203a
000003e0: eb40 05bb 393a 98bc 2da5 873c 5348 85bc
000003f0: 3708 12bc 5688 8bbb 68a1 053c 2455 85bb

weight f4 [128, 256]
0.041222155 -0.0328909 0.06374304 0.04034481 -0.0057429234 -0.025438746 0.01175038 -0.04261056
0.020862198 -0.041273262 -0.008725132 0.02626527 -0.06826488 0.043680105 0.0037481035 0.2084691
0.046988275 0.12744607 -0.17358606 0.003701784 -0.12838253 0.016520534 0.15806353 0.063273005
-0.041580297 -0.14907438 0.045546215 0.11562548 -0.033152103 0.017522262 0.07146849 0.083276875
-0.06980433 0.020186765 -0.004336729 0.019180553 0.022521127 -0.0768894 -0.051286075 -0.066246316
0.059713766 -0.1676947 -0.016334955 0.015775468 0.012418981 0.15857205 0.090008534 0.03889444
0.020354727 -0.07668043 -0.11131616 -0.032716606 0.03330775 0.10084624 0.043929927 -0.099455364
0.089564666 0.11297067 0.0037399544 0.02473003 0.02928898 -0.0062657413 0.02346772 0.0045295567
0.006645838 0.09378115 -0.0011933558 -0.040424127 -0.17749754 -0.022485062 -0.02136044 0.0322796
0.06953541 0.026075745 0.004779703 0.08627721 0.06821923 0.06448557 0.0021187668 0.06951878
-0.016665831 -0.08591041 -0.017690934 -0.166586 0.085685 -0.048083108 -0.058573678 0.09116401
-0.010409174 0.14366566 -0.109779954 0.06325496 -0.15281051 -0.01707029 0.013369179 0.14063841
0.053711776 0.024521116 -0.100064315 -0.05956812 0.07464948 -0.02801022 0.13293236 -0.15995102
-0.038385484 -0.037726056 0.00024847576 0.05192234 0.012374814 0.02189945 0.021381136 -0.049386244
-0.07043188 0.1589098 -0.060587183 -0.05437819 -0.042615566 0.029257616 -0.01659694 0.007910388
-0.028089777 0.09553179 0.004634368 -0.041991185 -0.0027447576 0.0147113055 -0.060690228 0.0037035982
0.006239247 0.015047977 0.070686094 0.07944528 -0.10691607 0.08088327 -0.056334402 0.086963326
-0.040550638 0.09218462 0.040973462 0.04970787 -0.058187213 -0.046276458 0.035369523 -0.104069985
-0.006962704 0.12052195 -0.041548207 -0.049945712 -0.027846 0.0148250675 -0.043663252 0.13010888
0.03063474 -0.06531829 0.015716597 0.13884713 0.055197235 0.009991739 -0.076815106 -0.06333674
-0.03279219 0.1022956 0.03934106 0.03179193 -0.019418502 0.07897949 0.09190135 0.014027594
-0.030607259 0.21414647 0.010265158 -0.1287247 0.096906915 0.10683995 0.09258215 0.0010229412
-0.015492522 0.11914963 -0.013525694 -0.037524268 0.04246785 0.14619835 -0.0103656715 -0.038896818
0.066434495 -0.009426675 0.18236837 -0.010076693 -0.07783607 0.07499312 0.033131164 -0.028951695
0.06997691 0.08938785 0.0011985094 0.13860348 -0.054429073 0.159035 -0.022872463 0.09027085
-0.05162546 0.024322093 -0.028663203 -0.0011118657 0.12624668 -0.037519507 -0.034264468 0.06855292
-0.0019404319 -0.09584076 -0.10220608 -0.08398813 -0.020455603 0.033208862 -0.0075517925 0.035087597
0.059225783 0.10435391 -0.1287064 0.01829313 -0.07763808 -0.0993092 0.00037241125 -0.045670677
0.008655098 0.008005321 0.032212898 0.07021077 0.0021039161 0.05324613 0.02731906 0.121558785
-0.11886822 -0.1483443 -0.0041895625 -0.036540456 -0.009921349 -0.022521995 0.11200188 -0.024985153
-0.03873761 0.0033327122 -0.0511557 -0.09107479 -0.12037181 0.09193721 -0.14763337 -0.11070178
-0.108304106 -0.0015127249 -0.06489832 0.05606554 -0.077718325 -0.1376029 0.08035107 0.012178064
00000000: 90d8 283d 9cb8 06bd b68b 823d 9940 253d
00000010: 222f bcbb eb64 d0bc aa84 403c 6988 2ebd
00000020: 33e7 aa3c 270e 29bd dbf3 0ebc 432a d73c
00000030: 75ce 8bbd e9e9 323d bea2 753b ec78 553e
00000040: c776 403d 3981 023e 8bc0 31be a199 723b
00000050: b676 03be 1256 873c 68db 213e 4795 813d
00000060: 1a50 2abd f4a6 18be ab8e 3a3d 0dcd ec3d
00000070: 80ca 07bd d98a 8f3c 125e 923d 118d aa3d
00000080: 93f5 8ebd b75e a53c 1f1b 8ebb 8920 9d3c
00000090: 3a7e b83c 3178 9dbd 5911 52bd 26ac 87bd
000000a0: 6c96 743d 29b8 2bbe e2d0 85bc 8e3b 813c
000000b0: fb78 4b3c b660 223e 6556 b83d c74f 1f3d
000000c0: f5be a63c a10a 9dbd baf9 e3bd d901 06bd
000000d0: b56d 083d 7988 ce3d deef 333d 41af cbbd
000000e0: ae6d b73d 2b5d e73d 061a 753b a296 ca3c
000000f0: 71ef ef3c d950 cdbb 603f c03c ad6c 943b
00000100: 54c5 d93b 5510 c03d 606a 9cba c593 25bd
00000110: eac1 35be 9832 b8bc 17fc aebc 9d37 043d
00000120: 9568 8e3d cd9c d53c 0e9f 9c3b 1bb2 b03d
00000130: 86b6 8b3d 0311 843d 02db 0a3b dd5f 8e3d
00000140: c886 88bc ccf1 afbd 94ec 90bc 8595 2abe
00000150: 9e7b af3d cbf2 44bd f4ea 6fbd 32b4 ba3d
00000160: 3d8b 2abc 171d 133e 50d4 e0bd d18b 813d
00000170: 5c7a 1cbe fed6 8bbc 670a 5b3c 8403 103e
00000180: e100 5c3d 82e0 c83c 85ee ccbd b3fd 73bd
00000190: d4e1 983d b075 e5bc 6c1f 083e 33ca 23be
000001a0: 193a 1dbd a386 1abd da45 8239 85ac 543d
000001b0: bbbf 4a3c 7a66 b33c 7e27 af3c 3b49 4abd
000001c0: 973e 90bd 40b9 223e 442a 78bd aabb 5ebd
000001d0: a98d 2ebd abad ef3c 4ef6 87bc 929a 013c
000001e0: 881c e6bc 2ca6 c33d e5db 973b f3fe 2bbd
000001f0: 64e1 33bb b007 713c 5196 78bd 11b8 723b
00000200: 9972 cc3b ca8b 763c dfc3 903d 35b4 a23d
00000210: d0f6 dabd 21a6 a53d e7be 66bd d419 b23d
00000220: 6d18 26bd 4acb bc3d cad3 273d 7b9a 4b3d
00000230: b755 6ebd 628c 3dbd a2df 103d a522 d5bd
00000240: 6527 e4bb 36d4 f63d 742e 2abd e093 4cbd
00000250: 4b1d e4bc d7e4 723c 3dd8 32bd 433b 053e
00000260: b5f5 fa3c 98c5 85bd 18c0 803c f12d 0e3e
00000270: 7f16 623d 64b4 233c 3d51 9dbd b1b6 81bd
00000280: 1a51 06bd 5b80 d13d 1724 213d 4138 023d
00000290: 8d13 9fbc 00c0 a13d c636 bc3d fed3 653c
000002a0: 13bc fabc 3649 5b3e 312f 283c 68d0 03be
000002b0: 2277 c63d e7ce da3d b69b bd3d 3614 863a
000002c0: 59d4 7dbc b904 f43d df9a 5dbc 0cb3 19bd
000002d0: c5f2 2d3d 05b5 153e c7d4 29bc 4552 1fbd
000002e0: cf0e 883d 5772 1abc c6be 3a3e b718 25bc
000002f0: 8468 9fbd fe95 993d 8bb4 073d 1b2c edbc
00000300: 0e50 8f3d fa10 b73d 4d17 9d3a 12ee 0d3e
00000310: 05f1 5ebd 12da 223e 085f bbbc ecdf b83d
00000320: 3875 53bd 203f c73c 18cf eabc 06bc 91ba
00000330: cf46 013e 0eae 19bd e658 0cbd 7965 8c3d
00000340: 1756 feba 2948 c4bd 6c51 d1bd f801 acbd
00000350: 8292 a7bc 0406 083d 0775 f7bb 03b8 0f3d
00000360: bc96 723d 81b7 d53d 9ccb 03be 79db 953c
00000370: b700 9fbd 9f62 cbbd 3140 c339 2d11 3bbd
00000380: 1dce 0d3c c028 033c acf1 033d aaca 8f3d
00000390: dbe1 093b 9d18 5a3d 39cc df3c d0f3 f83d
000003a0: 2e71 f3bd 91e7 17be 9948 89bb 72ab 15bd
000003b0: 278d 22bc 0c80 b8bc 3e61 e53d aaad ccbc
000003c0: 54ab 1ebd a269 5a3b a488 51bd 6b85 babd
000003d0: 7f85 f6bd 9349 bc3d 342d 17be 9db7 e2bd
000003e0: 8bce ddbd a046 c6ba 69e9 84bd fba4 653d
000003f0: c92a 9fbd c6e7 0cbe 1a8f a43d 8186 473c

bias f4 [128]
0.006052513 0.009147 -0.0010645919 0.0029449188 -0.0033130269 0.04235736 -0.0028438796 -0.006454005
-0.00859099 0.016161747 -0.011831974 0.0061973175 -0.016980905 -0.01909048 -0.008246117 0.00037408734
-0.024776636 0.005600679 0.019678023 0.006308267 -0.006969362 0.0028027543 0.0169605 -0.0049345945
0.0050412966 0.004701043 0.032052148 -0.005057239 0.01613706 0.0014015785 -0.014749649 0.0003782773
-0.029487373 0.010709189 -0.0056680324 -0.0023010036 0.03694167 0.005212249 0.0032825936 -0.002622641
-0.016600085 0.00045492427 -0.021449264 0.0018429775 0.017643798 -0.012499079 0.00064499397 0.0047282786
-0.007150168 0.0035246497 0.0044682315 0.005079197 -0.0003720602 -0.022523424 -0.00029539692 -0.0062429616
-0.008456196 0.01016875 -0.0114844525 0.014346646 0.02911767 0.03466029 0.009181376 0.00348386
-0.011074476 -0.002610298 -0.00943254 -0.023360709 -0.00030463893 -0.0032174364 -0.0028604986 0.000121782265
0.0015329634 -0.00917783 -0.0016675127 -0.0010524291 -0.01693731 -0.012031235 -0.0024881843 -0.0078477105
0.007323348 0.016387317 -0.0006428375 0.009802793 -0.02211153 0.00083640474 0.006998566 -0.010031916
-0.004003147 0.008441312 -0.0070046093 -0.026431115 -0.035057187 -0.030509192 -0.0036104291 0.0019530669
-0.0025559573 -0.0031472037 -0.018659774 -0.015323218 0.003958315 0.030687852 -0.0020743404 -0.018195681
0.028870285 0.0185405 -0.017909436 -0.031930316 0.011757065 -0.021525325 8.6761196e-05 0.0014344095
-0.027013734 -0.0059502623 -0.0018735105 0.0034398045 0.0002988338 -0.010061312 0.013187465 -0.0016595233
-0.0026562116 -0.014463552 0.00901989 0.022295842 -0.016867701 0.020060193 -0.013934553 -0.014192935
00000000: 2954 c63b 4cdd 153c c789 8bba 8aff 403b
00000010: 5e1f 59bb e97e 2d3d 6260 3abb 1e7c d3bb
00000020: 39c1 0cbc a465 843c e5da 41bc de12 cb3b
00000030: 8a1b 8bbc a363 9cbc b91a 07bc 2721 c439
00000040: 5ff8 cabc e785 b73b ce33 a13c 94b5 ce3b
00000050: 3f5f e4bb 6aae 373b bff0 8a3c 61b2 a1bb
00000060: 7631 a53b 350b 9a3b 1d49 033d 32b7 a5bb
00000070: de31 843c 2cb5 b73a 83a8 71bc 8553 c639
00000080: 818f f1bc 9875 2f3c e7ba b9bb 6fcc 16bb
00000090: 2650 173d 83cb aa3b c820 573b 9de0 2bbb
000000a0: e7fc 87bc e782 ee39 5eb6 afbc 1090 f13a
000000b0: ba89 903c f0c8 4cbc d014 293a adef 9a3b
000000c0: f54b eabb cffd 663b 3e6a 923b 656f a63b
000000d0: 1311 c3b9 0b83 b8bc 81df 9ab9 c291 ccbb
000000e0: db8b 0abc d49a 263c 4929 3cbc 320e 6b3c
000000f0: 2e88 ee3c f3f7 0d3d 7b6d 163c 7951 643b
00000100: b871 35bc 8911 2bbb f18a 1abc f55e bfbc
00000110: f2b7 9fb9 a0db 52bb 3477 3bbb 5b65 ff38
00000120: b7ed c83a 9c5e 16bc 7190 daba a9f1 89ba
00000130: 1dc0 8abc a81e 45bc ce10 23bb af93 00bc
00000140: b2f8 ef3b b23e 863c 1884 28ba e59b 203c
00000150: 3d23 b5bc 2c42 5b3a 3a54 e53b e85c 24bc
00000160: d52c 83bb 6e4d 0a3c ec86 e5bb 1186 d8bc
00000170: 2098 0fbd 6aee f9bc f39c 6cbb 0dfe ff3a
00000180: d981 27bb 5141 4ebb 62dc 98bc 3c0e 7bbc
00000190: c1b4 813b 1765 fb3c a8f1 07bb 1c0f 95bc
000001a0: 6081 ec3c 3fe2 973c cfb6 92bc 5dc9 02bd
000001b0: b4a0 403c e155 b0bc 90f3 b538 cc02 bc3a
000001c0: e84b ddbc 6bfa c2bb 9590 f5ba 586e 613b
000001d0: cbac 9c39 33d8 24bc 3d10 583c 5d84 d9ba
000001e0: d613 2ebb 89f8 6cbc 29c8 133c c5a5 b63c
000001f0: 222e 8abc 4655 a43c c04d 64bc 7c89 68bc

weight f4 [14, 128]
-0.023387115 0.0017657224 0.022731336 0.0031760691 0.021298815 -0.019622155 -0.044779133 -0.005451328
-0.02078898 -0.04034157 0.002790155 0.009946569 -0.008505887 0.042584818 0.0005089441 -0.000977977
0.025804538 -0.011860703 0.038736414 -0.008201411 0.0077908575 -0.00024324696 0.0056558982 -0.04521899
0.017707793 -0.011230058 -0.02147721 0.0002990444 -0.036209054 0.0037069272 0.018414179 -0.0018465978
0.04552987 0.010437481 0.026221575 -0.041490573 -0.027454868 -0.0038030539 -0.0007021986 -0.020966765
0.0076551293 0.014360806 0.0038800552 -0.0025921117 -0.0049904627 -0.013381368 0.010548686 -0.009721902
0.015178844 0.018285053 0.0017784965 0.024106339 0.014317222 0.014266931 -0.003161102 0.00906015
0.002322753 0.029384537 0.0413735 -0.03082599 0.022624176 -0.04631221 -0.025713196 0.023470012
-0.0044721467 -0.0054713045 0.02266142 0.00928169 -0.019168062 -0.012655134 0.014854606 0.009010779
0.011220431 0.007980992 0.0608872 0.033501327 0.016226947 0.0011393154 -0.0077868286 0.035811514
0.024602994 0.0003845135 0.0007552145 -0.030570678 0.024558524 0.00466075 0.011102727 0.023735028
-0.015447289 0.0028882844 0.018435469 0.048592918 0.02717166 0.039986014 0.058134586 -0.0042119827
0.011045639 -0.0036466182 0.008786779 0.020166026 -0.0006159302 -0.03182964 0.00038958155 0.024443338
-0.024666693 0.019672994 -0.01978374 0.010477508 -0.008131982 0.010588285 0.018299567 -0.053333987
0.01030794 0.012530012 0.017790897 -0.0024869721 0.016202841 0.013068175 -0.020213068 -0.015322784
-0.00075037836 -0.012238085 0.020965867 0.004106227 0.013755819 -0.028427877 0.027078776 0.029735908
0.013332038 -0.020572899 -0.008858907 0.05685115 0.029579604 0.0037393637 -0.046980042 0.0072614886
-0.027847957 0.032455146 0.019453505 0.0086679915 -0.035554197 0.008816447 -0.027232684 -0.023206968
-0.032520853 -0.026850248 0.0048053693 -0.03956491 0.039012372 0.014962722 0.03273717 0.016341925
-0.025833026 -0.066103466 -0.0020281386 0.027421236 -0.0064504235 0.016187524 0.0009532137 -0.0004413616
0.024008665 0.037568547 -0.024560632 -0.0066718985 0.008416294 -0.038942106 -0.043822113 0.050339602
-0.012390357 0.0011969408 -0.038659144 -0.028188966 0.04292823 0.04938546 0.018454617 -0.0141672585
0.0106084505 0.00754335 0.012134538 0.036873218 -0.031984866 0.012069507 0.024361927 -0.047358405
-0.06061276 0.024644619 0.026076041 -0.025330612 0.014197131 0.0043351064 -0.0021427602 0.033364672
0.010946201 -0.007031263 -0.0051689832 -0.014408369 -0.037850555 -0.055366565 0.004769194 0.009043241
-0.048174515 -0.008216397 -0.00809829 0.045738533 -0.03497811 -0.016754026 -0.016976912 -0.02847303
0.034153834 0.01753082 -0.0021671269 -0.022264354 -0.008969169 -0.003933399 0.013326568 -0.0063364534
0.008365737 0.013155844 -0.00778388 -0.04502345 -0.0061676246 -0.03956947 0.01931905 0.0051176106
0.01053759 0.025139743 0.0009322665 -0.01986956 0.01818996 -0.0041525727 0.019309765 -0.02735644
0.047712415 -0.015955973 0.0024412302 -0.010059303 -0.018648151 0.01929157 -0.024962965 -0.0022529908
-0.016151113 -0.031039849 -0.03138984 0.0064558904 0.047789514 -0.054734517 -0.013146596 -0.01417056
-0.001904172 -0.033221293 0.026913028 -0.01872782 -0.0112617845 0.0020424915 -0.034800068 0.010562643
00000000: 5696 bfbc d06f e73a 1137 ba3c 9925 503b
00000010: da7a ae3c a4be a0bc 536a 37bd 0ea1 b2bb
00000020: a74d aabc 343d 25bd 08db 363b eff6 223c
00000030: 475c 0bbc 6b6d 2e3d a96a 053a 762f 80ba
00000040: 0a64 d33c 6553 42bc 13aa 1e3d 365f 06bc
00000050: 734a ff3b 1c10 7fb9 1d55 b93b 8c37 39bd
00000060: ef0f 913c 47fe 37bc f9f0 afbc 0fc9 9c39
00000070: f24f 14bd ebef 723b 55d9 963c 8a09 f2ba
00000080: 877d 3a3d f801 2b3c a1ce d63c 05f2 29bd
00000090: 08e9 e0bc a83c 79bb c013 38ba 7ec2 abbc
000000a0: e1d7 fa3b 9649 6b3c 8648 7e3b 6be0 29bb
000000b0: 0987 a3bb 863d 5bbc 65d4 2c3c 9d48 1fbc
000000c0: b0b0 783c 89ca 953c 711c e93a a87a c53c
000000d0: c892 6a3c d9bf 693c 7e2a 4fbb 0671 143c
000000e0: 5439 183b d7b7 f03c 4277 293d c986 fcbc
000000f0: 5656 b93c dfb1 3dbd 7ba4 d2bc 2f44 c03c
00000100: 168b 92bb a148 b3bb 71a4 b93c 3b12 183c
00000110: 5706 9dbc 7b57 4fbc bc60 733c f2a1 133c
00000120: e6d5 373c b5c2 023c db64 793d b038 093d
00000130: 60ee 843c 1555 953a a728 ffbb 18af 123d
00000140: 388c c93c 8798 c939 96f9 453a 5c6f fabc
00000150: f52e c93c 34b9 983b 36e8 353c f66f c23c
00000160: a016 7dbc 5f49 3d3b fb05 973c 5e09 473d
00000170: 1a97 de3c 60c8 233d 881e 6e3d ac04 8abb
00000180: c5f8 343c 1afc 6ebb 6cf6 0f3c 3933 a53c
00000190: 6076 21ba cc5f 02bd c040 cc39 653d c83c
000001a0: ce11 cabc 4229 a13c 8311 a2bc dba9 2b3c
000001b0: 013c 05bc 7c7a 2d3c f9e8 953c bd74 5abd
000001c0: a2e2 283c ae4a 4d3c 37be 913c 78fc 22bb
000001d0: d2bb 843c e61b 563c e095 a5bc 6a0c 7bbc
000001e0: 0ab5 44ba 4082 48bc 9cc0 ab3c 878d 863b
000001f0: 1660 613c 94e1 e8bc 4fd4 dd3c b898 f33c
00000200: 9f6e 5a3c 7f88 a8bc f324 11bc c0dc 683d
00000210: ed50 f23c 1d10 753b 256e 40bd c8f1 ed3b
00000220: 6621 e4bc b0ef 043d f55c 9f3c 3104 0e3c
00000230: 47a1 11bd dc72 103c 1417 dfbc 8a1c bebc
00000240: 9634 05bd 0df5 dbbc 5c76 9d3b d10e 22bd
00000250: 70cb 1f3d 3426 753c 6917 063d 80df 853c
00000260: c89f d3bc 4161 87bd 85ea 04bb 80a2 e03c
00000270: 135e d3bb b39b 843c 17e1 793a 8d66 e7b9
00000280: d2ad c43c 7ae1 193d 6133 c9bc f19f dabb
00000290: 7fe4 093c c281 1fbd d17e 33bd e630 4e3d
000002a0: ed00 4bbc abe2 9c3a 0d59 1ebd 8cec e6bc
000002b0: 83d5 2f3d 6848 4a3d 232e 973c ca1d 68bc
000002c0: 11cf 2d3c 352e f73b f1cf 463c 5f08 173d
000002d0: 9002 03bd 2ebf 453c aa92 c73c e3fa 41bd
000002e0: 1645 78bd 83e3 c93c 6c9d d53c 2582 cfbc
000002f0: 159b 683c 820d 8e3b 8d6d 0cbb 65a9 083d
00000300: b257 333c 8266 e6bb 9360 a9bb 1411 6cbc
00000310: 2f09 1bbd 0dc8 62bd e646 9c3b 1a2a 143c
00000320: a452 45bd 119e 06bc b1ae 04bc 5458 3b3d
00000330: 3545 0fbd bd3f 89bc 2a13 8bbc 4640 e9bc
00000340: e4e4 0b3d cb9c 8f3c 5b06 0ebb bc63 b6bc
00000350: 6cf3 12bc bee3 80bb ad57 5a3c 06a2 cfbb
00000360: 7210 093c 9c8b 573c eb0f ffbb 826a 38bd
00000370: c919 cabb 9913 22bd fc42 9e3c a1b1 a73b
00000380: dba5 2c3c ddf1 cd3c 5963 743a 7dc5 a2bc
00000390: 1c03 953c 4e12 88bb 832f 9e3c 9d1a e0bc
000003a0: 186e 433d 1ab6 82bc 0cfd 1f3b c6cf 24bc
000003b0: 02c4 98bc 5b09 9e3c 227f ccbc eaa6 13bb
000003c0: 574f 84bc 4847 febc a292 00bd ef8b d33b
000003d0: f0be 433d 4d31 60bd d264 57bc a32b 68bc
000003e0: 6995 f9ba 0d13 08bd b678 dc3c 166b 99bc
000003f0: 5983 38bc 52db 053b 848a 0ebd f00e 2d3c

bias f4 [14]
-0.03291867 -0.004325448 -0.025736859 0.016313894 -0.00039207842 0.018461049 -0.0061098533 -0.038378417
-0.016528765 -0.02766021 -0.015702117 0.0032717471 -0.018463137 -0.0026087249
00000000: bad5 06bd 7dbc 8dbb 1bd6 d2bc b7a4 853c
00000010: e08f cdb9 a03b 973c 2a35 c8bb b032 1dbd
00000020: 5567 87bc aa97 e2bc baa1 80bc cf6a 563b
00000030: 0140 97bc 24f7 2abb

weight f4 [64, 13]
-0.36206505 0.6593634 0.10449276 0.1770155 0.017898295 -0.2658844 0.22098835 -0.07566236
0.0054715383 -0.12994753 0.31514186 -0.38678604 0.022044387 0.7306136 -0.23241605 0.3890551
0.06395501 0.116577044 0.15704043 -0.056861207 0.20029925 -0.15070096 -0.27203965 0.07595366
0.25257438 0.094065726 0.30756283 -0.22655937 0.7450539 0.019956604 0.09876676 0.027981397
-0.29487625 0.074770756 -0.10086878 -0.3563718 -0.016701236 0.20336983 0.12914476 -0.12649867
-0.36797634 -0.07811337 -0.19136824 -0.043967232 0.08925611 -0.5167375 -0.19583078 -0.023260918
0.16814575 -0.38177723 -0.5564255 0.08014713 -0.12942705 -0.3390127 0.2824485 -0.30474445
-0.27847543 0.16902459 0.21995296 -0.020328257 0.055093896 0.18258925 0.47186756 0.092783585
-0.53108954 0.12312433 -0.17509553 0.37937132 -0.2811439 -0.07597307 -0.37200928 0.3450178
-0.47024524 0.011215305 0.12805739 0.04367014 0.13913117 0.3749238 -0.12591417 0.44632563
-0.5844364 0.119523704 -0.30808145 0.17629333 -0.118479215 0.23728198 0.119117014 0.14012128
-0.13772656 -0.44067547 0.028272027 -0.28786764 0.10679778 -0.0729304 -0.14665346 0.55525655
0.08001475 -0.009571548 0.13785464 0.24062954 -0.40927184 -0.010801301 -0.28513646 -0.511317
-0.21983133 0.24646606 -0.4285451 0.14402658 -0.02962641 0.27112907 0.28632197 0.3719121
-0.2656274 0.5690213 -0.24368195 0.16281334 0.18939695 0.06713262 -0.37519115 0.22221954
-0.37610817 0.24969101 0.07642034 0.47603306 0.18306822 -0.32411182 -0.43814877 0.4020641
-0.0835972 -0.13788204 -0.1935239 -0.35516807 0.16946542 -0.08928323 0.22786789 0.30603048
0.05854143 -0.20198882 -0.5264553 -0.02089407 -0.1633827 -0.66882527 -0.111662604 0.3952008
-0.029551927 -0.16768366 -0.3414504 0.050997343 0.18884012 0.71042347 -0.14075239 0.123473704
0.18301225 0.21117494 -0.17734021 -0.008731619 0.113920346 -0.5109596 0.13701102 -0.014331394
-0.051971864 -0.30768108 -0.3228139 0.04947198 0.31028175 0.00968968 0.5107891 -0.37602413
-0.06535786 -0.04101241 0.13696599 -0.22889224 -0.42179954 0.22830498 -0.6118613 -0.1029414
-0.1973223 0.19626465 0.033948477 -0.3447287 -0.32439467 -0.11306818 -0.28186536 0.0031618413
-0.446769 0.09388811 -0.3137099 0.06426584 0.13302721 -0.35635665 -0.37786198 0.030374208
0.065815106 -0.26356983 -0.4987996 0.39778373 -0.15289852 0.32924324 0.11991692 -0.15513016
0.1506697 -0.37864637 -0.28584066 -0.40903512 -0.42919046 -0.003916453 0.2686953 0.011369079
-0.015953101 0.23638587 -0.05095563 0.3285641 -0.25423393 -0.047075 -0.15378459 0.57529414
0.16913186 0.511894 -0.18318173 -0.15606515 0.035207074 0.007900746 0.0026318321 0.24578893
0.1556573 -0.44943476 -0.04370114 -0.52631325 -0.3440803 0.5849793 -0.11153302 -0.037293684
-0.027360125 -0.03601872 -0.018102722 0.45341444 0.005651149 -0.0981589 0.095034376 -0.03356007
-0.59651566 0.10132161 -0.019260902 0.29447228 0.35530177 0.4360757 0.08300417 0.43026382
0.27497074 -0.043160368 0.06524511 -0.44396418 0.09855968 0.0848647 0.10020032 -0.02248647
00000000: 9760 b9be 0acc 283f 4d00 d63d 8d43 353e
00000010: 729f 923c 0022 88be c54a 623e def4 9abd
00000020: 974a b33b f710 05be 465a a13e d208 c6be
00000030: 6e96 b43c 7e09 3b3f 79fe 6dbe 3b32 c73e
00000040: d8fa 823d f2bf ee3d 35cf 203e 4ce7 68bd
00000050: 3f1b 4d3e 5a51 1abe c848 8bbe 988d 9b3d
00000060: 6e51 813e 88a5 c03d e078 9d3e 2eff 67be
00000070: dabb 3e3f 087c a33c 3a46 ca3d 3e39 e53c
00000080: 05fa 96be 6921 993d 4a94 cebd 5d76 b6be
00000090: 08d1 88bc 2e40 503e 863e 043e de88 01be
000000a0: 6567 bcbe e7f9 9fbd 09f6 43be fc16 34bd
000000b0: e8cb b63d e948 04bf dd87 48be ae8d bebc
000000c0: 662e 2c3e 4e78 c3be e771 0ebf 2e24 a43d
000000d0: 8688 04be 1393 adbe 179d 903e 7707 9cbe
000000e0: 5594 8ebe c814 2d3e 593b 613e 7287 a6bc
000000f0: 23aa 613d adf8 3a3e a098 f13e 5205 be3d
00000100: 7cf5 07bf 9c28 fc3d 3e4c 33be f53c c23e
00000110: 18f2 8fbe c597 9bbd 0078 bebe 2ca6 b03e
00000120: fcc3 f0be 66c0 373c 7a21 033e 76df 323d
00000130: 6778 0e3e 03f6 bf3e a5ef 00be cb84 e43e
00000140: a09d 15bf d8c8 f43d dabc 9dbe 3d86 343e
00000150: 3ba5 f2bd 0cfa 723e 9ff3 f33d f47b 0f3e
00000160: 3108 0dbe 37a0 e1be bd9a e73c 6363 93be
00000170: cbb8 da3d 895c 95bd 532c 16be 4b25 0e3f
00000180: c6de a33d fbd1 1cbc c429 0d3e 9767 763e
00000190: 148c d1be f1f7 30bc 68fd 91be ace5 02bf
000001a0: 771b 61be 9961 7c3e 436a dbbe b47b 133e
000001b0: 16b3 f2bc 6ed1 8a3e cb98 923e 436b be3e
000001c0: 5100 88be 61ab 113f c387 79be 8ab8 263e
000001d0: 46f1 413e d47c 893d 0e19 c0be 858d 633e
000001e0: 4091 c0be 00af 7f3e 4482 9c3d 9bba f33e
000001f0: 3c76 3b3e fcf1 a5be 0955 e0be 59db cd3e
00000200: 0235 abbd f330 0dbe 212b 46be 97d8 b5be
00000210: 5888 2d3e 20da b6bd 3356 693e 07b0 9c3e
00000220: 23c9 6f3d 28d6 4ebe c6c5 06bf 0a2a abbc
00000230: cb4d 27be 2238 2bbf 5daf e4bd c257 ca3e
00000240: e216 f2bc 44b5 2bbe 96d2 aebe 97e2 503d
00000250: 4e5f 413e 50de 353f 6521 10be c8df fc3d
00000260: 9067 3b3e 3e3e 583e ac98 35be 110f 0fbc
00000270: 124f e93d 40ce 02bf 9e4c 0c3e 39ce 6abc
00000280: 73e0 54bd 6088 9dbe dd47 a5be 22a3 4a3d
00000290: 40dd 9e3e 77c1 1e3c 13c3 023f 3c86 c0be
000002a0: 57da 85bd a1fc 27bd d040 0c3e ba62 6abe
000002b0: 1cf6 d7be c8c8 693e f1a2 1cbf f1d2 d2bd
000002c0: db0e 4abe 9af9 483e 8f0d 0b3d 4880 b0be
000002d0: 0f17 a6be 4a90 e7bd a850 90be e536 4f3b
000002e0: e8be e4be 6948 c03d 969e a0be cf9d 833d
000002f0: 4938 083e 6174 b6be 2077 c1be 55d3 f83c
00000300: 12ca 863d a0f2 86be a962 ffbe 4faa cb3e
00000310: 6e91 1cbe 9292 a83e 0197 f53d 71da 1ebe
00000320: 2849 1a3e f0dd c1be b559 92be 0d6d d1be
00000330: dabe dbbe 9755 80bb 6e92 893e 6045 3a3c
00000340: 14b0 82bc 230f 723e dab6 50bd 8e39 a83e
00000350: f32a 82be b7d1 40bd b579 1dbe 7a46 133f
00000360: e730 2d3e 7c0b 033f fe93 3bbe 8bcf 1fbe
00000370: 4b35 103d 2172 013c d17a 2c3b 18b0 7b3e
00000380: a164 1f3e 501c e6be f7ff 32bd 77bc 06bf
00000390: 4b2b b0be 34c1 153f 6d6b e4bd 43c1 18bd
000003a0: 5722 e0bc 5e88 13bd 294c 94bc f025 e83e
000003b0: 462d b93b 8907 c9bd 62a1 c23d 4976 09bd
000003c0: 40b5 18bf b481 cf3d 0ac9 9dbc 12c5 963e
000003d0: 1dea b53e 5045 df3e 17fe a93d 8a4b dc3e
000003e0: f7c8 8c3e edc8 30bd 3a9f 853d 464f e3be
000003f0: a8d9 c93d 8bcd ad3d d335 cd3d 8c35 b8bc

bias f4 [64]
0.0 0.0 0.0 0.0 -0.023586046 -0.007586147 -0.0056094443 0.08100783
-0.061969016 0.080121264 0.03503554 -0.008378897 0.0 -0.0044773244 -0.012049406 5.1828033e-06
-0.008699767 -0.042769622 0.00019895539 0.031502172 -0.015250149 -0.007048774 -0.007084668 -0.006507473
-0.00134368 -0.0003080036 -0.00514093 0.0 0.0035251328 0.0009301205 0.08121632 -0.008064266
6.21976e-05 -0.0025908074 0.05437596 -0.015067533 0.0 -0.0070783175 0.0026337174 0.0
0.030864524 -0.023717988 -0.00082554744 0.012094501 6.284442e-06 -0.050729383 -0.03269049 0.0061652362
-0.005290978 0.0034857893 0.08005369 0.0 0.02220771 0.0 0.0 0.0043086293
0.0 0.0 0.021180583 0.025630137 0.05672778 0.04006188 0.0 -1.4904562e-07
00000000: 0000 0000 0000 0000 0000 0000 0000 0000
00000010: 8637 c1bc 3795 f8bb 6ecf b7bb 6fe7 a53d
00000020: 39d3 7dbd 9e16 a43d 6d81 0f3d a447 09bc
00000030: 0000 0000 85b6 92bb df6a 45bc f1e7 ad36
00000040: 7889 0ebc 332f 2fbd ae9e 5039 6c08 013d
00000050: c3db 79bc 67f9 e6bb 8126 e8bb a43c d5bb
00000060: 6b1e b0ba 8b7b a1b9 3f75 a8bb 0000 0000
00000070: ea05 673b 55d3 733a be54 a63d fc1f 04bc
00000080: 1570 8238 89ca 29bb 54b9 5e3d d0dd 76bc
00000090: 0000 0000 3bf1 e7bb 729a 2c3b 0000 0000
000000a0: 99d7 fc3c 3a4c c2bc 8d69 58ba 0428 463c
000000b0: f2de d236 9dc9 4fbd 77e6 05bd c005 ca3b
000000c0: f15f adbb d771 643b 30f3 a33d 0000 0000
000000d0: f2ec b53c 0000 0000 0000 0000 672f 8d3b
000000e0: 0000 0000 0000 0000 e782 ad3c 4bf6 d13c
000000f0: 635b 683d ed17 243d 0000 0000 5909 20b4
