src/GraspNode/models/model_button_0119.pt (torch, 456482 bytes, 15 tensors)

weight f4 [64, 13]
00000000: c424 343d 831c c43e 05a8 c83c ab13 cfbd
00000010: 6d5c d0be 7e19 bd3e aeaf d1be 1d66 f53c
00000020: 1da3 af3e 9146 55be 86c2 be3c 1ca1 b6be
00000030: 432b c4be a85b 01bf 8f4b a83c 6f45 a2be
00000040: c545 833e 9d85 153e 96a0 933e 989d 5c3d
00000050: 9a33 f6bc c351 f03e 38fe 803e 4ea4 5d3a
00000060: 614e 263d 2e54 93be 4dc5 1fbd 0234 a03c
00000070: 4f7e e23d db42 503e b6cb f1be d9ed 9fbe
00000080: 29df cb3c 2abb 0bbe 6e44 493e af31 3abe
00000090: 837a 3e3e 14f9 d93e 3228 223f dde8 fc3d
000000a0: 727a f6be c83f b93e e012 d13e 5bad 2e3e
000000b0: 3574 033d 44fc 26be d322 9abe 1067 8d3d
000000c0: b4ca 713e 5614 2a3e a974 e0be 6555 3c3e
000000d0: a0b4 df3e a8db babc a4bc 8b3e d7ff b7be
000000e0: 10a2 8c3c f887 81be e83e 11bd 7d79 c13d
000000f0: 397c 23be e080 b4be fe4d 38be 2103 133f
00000100: 60da e43e 40ad 813e cded d43e 5d38 86be
00000110: fdf9 e0bd 66c9 44be b27d 1cbf 9b86 913d
00000120: bda4 2abd b816 1fbe 8337 6cbe c438 5abe
00000130: 3d82 2c3e 248b ac3e a218 993e 7e01 093e
00000140: ad9b a93e f479 633e 15c1 913e 8120 6e3e
00000150: ed8d dbbe adf0 b43e 7af1 aabe 8b75 743d
00000160: 1068 973e 8721 d33e c250 833d 9eb2 e33e
00000170: dfc1 82bd 37bc 13bf 221a d43e 7b22 47be
00000180: 906d e03d 1c22 383c 520a f5bc d427 8abd
00000190: bd97 27be 1732 163e 168f 323e a169 ccbe
000001a0: 82d2 86bd 506d d5be 8931 fe3e 38e9 923d
000001b0: c62e a0bd fc5b d0bc cb1b 1f3e 0a86 173f
000001c0: 6e73 ec3d 4fb7 963c d4ae a83e 7789 7c3e
000001d0: 2aa7 9e3d d9a0 8e3e 47ce 5b3d 37de eb3e
000001e0: 23c8 5b3d 704d 1e3f 955b f4bb e3b5 153d
000001f0: 1174 853d 67a7 7c3e 1a2d 0f3e caae c4be
00000200: 9b3f b13e a480 953d 640e a43e b4d8 db3e
00000210: 229b 233e a5c5 7cbd ccc5 9b3e 4b8f c83e
00000220: 791d 9cbd 9a9d ecbd a077 873e 23cd b93e
00000230: d5a6 b43e 38c3 8b3e 58d9 e8bd bfc0 b43b
00000240: 002e 753e c626 333f d510 edbe 4371 243d
00000250: edc3 63bc 5cdd fb3d 25ba df3c a08d 0abe
00000260: 7e7d 8a3e 5ba9 8ebd 533a 7b3e 0fdc 813e
00000270: bca1 e23e a3a6 3b3d 6d4b 753e 732a 03bd
00000280: d8e2 7f3e 28f3 87be 2de7 87be 62b2 25bf
00000290: 1662 fdbd 7124 9d3e 9d5c e43a 0ca6 5fbd
000002a0: adbc 733e 49c2 553e 97d6 89be 278c 703e
000002b0: bfc2 25be dbef 163e 478c 25bf 95fb 683e
000002c0: c2c0 c63d 5a45 d8bd 2809 babc 937f 163e
000002d0: 7dc6 e2be 7bb2 9dbd 4894 a53e 948c daba
000002e0: 2370 24be 9a64 4c3e d03d 223f 3522 b13e
000002f0: 24de b83c 950b 523e 4eb2 82be 7f36 813e
00000300: c2de 6c3c ecdf 113e ed7f 193f 62f3 113e
00000310: c716 43be 7656 dd3d af73 b93d b31b 893c
00000320: 487c 263f 1cfb 923d 1101 24be 03e0 bbbe
00000330: 09f9 1fbe 31bf d8be b36c 213d 25c2 e33e
00000340: e2e8 34be 19fb 18bb 1693 b53c 8fb3 1c3f
00000350: 21d7 c4bd 90e2 9e3e c28b 2b3e 919c 0e3e
00000360: c791 83be af07 b03d b6f0 06bf 879b fdbd
00000370: 7996 4dbe 4d8b 803e 2b8e 933e 83a1 bfbd
00000380: 0704 5fbe 0706 083f acee 82bd 651b 543b
00000390: aaf7 2fbf 982a 8abd 8508 bcbd 0ada e03d
000003a0: c048 a83d 8e33 923e 4b2f 41be 7540 5fbe
000003b0: 7b96 f2bc 199e 663e 4b73 883e 580f d8be
000003c0: 8356 a13e 7b5a 02bf 826d acbe 8c0e d7bc
000003d0: e62b a0be 4a8e 3f3d b15a 033e ec6d e6bd
000003e0: 8fae 42be 07b3 e83e aa10 db3c 7434 9ebe
000003f0: f0ff debe 021b d53e 920d cbbe c3f5 813d
0.043980375 0.38303003 0.02449418 -0.10111173 -0.40695515 0.36933511 -0.40954345 0.029955918
0.34304133 -0.208277 0.023286115 -0.35669792 -0.38314256 -0.5053048 0.020543842 -0.316936
0.25639167 0.1460175 0.28833455 0.05386123 -0.030053902 0.4693738 0.25193954 0.0008454964
0.04060209 -0.28775162 -0.03900652 0.01955605 0.11059248 0.20338003 -0.47225732 -0.3123615
0.024886684 -0.13645616 0.1965501 -0.18183015 0.18601422 0.42572844 0.63342583 0.12349103
-0.48140293 0.36181474 0.40834713 0.17058317 0.032093246 -0.16307169 -0.30104694 0.06904423
0.23612481 0.1660932 -0.43839005 0.1839195 0.43692493 -0.022809818 0.2729236 -0.35937378
0.017167121 -0.25299048 -0.035460383 0.09447 -0.15965356 -0.35254574 -0.17998502 0.5742665
0.44697857 0.25327492 0.41587678 -0.26214877 -0.109851815 -0.19217452 -0.61129296 0.07105752
-0.041661013 -0.1553601 -0.23068051 -0.21310717 0.16846557 0.33699906 0.29901606 0.13379475
0.33126584 0.2221449 0.28467622 0.23254587 -0.42881718 0.3533987 -0.33387357 0.05968241
0.2957158 0.41236517 0.06411888 0.44472212 -0.06384634 -0.5770907 0.41426188 -0.19446747
0.109583974 0.011238601 -0.029912148 -0.06745878 -0.16366477 0.14667545 0.17437395 -0.39924338
-0.0658312 -0.4168496 0.49647167 0.07173389 -0.07821421 -0.025434487 0.15537946 0.591889
0.11545454 0.018397955 0.32945883 0.24661814 0.07746728 0.27857092 0.05366352 0.46067974
0.053657662 0.6183691 -0.0074572065 0.036550414 0.065162785 0.24673234 0.13982049 -0.38414603
0.3461884 0.07299927 0.3204223 0.4293877 0.15977147 -0.061711926 0.30424345 0.39171824
-0.07622809 -0.115534976 0.26458454 0.3628932 0.35283533 0.27297378 -0.1136958 0.005516141
0.23943329 0.6998104 -0.46301904 0.040147077 -0.013901693 0.1229808 0.02731044 -0.13530588
0.27048868 -0.06965896 0.24533968 0.25363204 0.4426402 0.045813214 0.23954554 -0.032022905
0.24988878 -0.265527 -0.2654356 -0.64725316 -0.12372224 0.30691865 0.001742262 -0.054601714
0.23802443 0.20874895 -0.26921532 0.23490964 -0.16187571 0.14739935 -0.6466717 0.22752221
0.097047344 -0.10560103 -0.022709444 0.14697103 -0.4429206 -0.07700058 0.32339692 -0.0016673976
-0.16058402 0.19960251 0.6337557 0.3459641 0.022566862 0.2051223 -0.2552666 0.2523689
0.0144574065 0.14245576 0.59960824 0.14253 -0.19051658 0.10807507 0.09055268 0.01673684
0.6503339 0.071768016 -0.16016032 -0.36694345 -0.15622343 -0.42333367 0.039410304 0.44484058
-0.17666963 -0.0023343025 0.022164863 0.61211485 -0.09611345 0.31032228 0.16752532 0.13926913
-0.25697157 0.085952155 -0.52711046 -0.1238318 -0.20076932 0.25106278 0.28819403 -0.09356978
-0.2177888 0.53134197 -0.06393179 0.0032364961 -0.6873728 -0.06746405 -0.091813125 0.10979088
0.08217001 0.28554958 -0.18865697 -0.21801932 -0.02961277 0.22521247 0.26650462 -0.42199206
0.31511316 -0.5091931 -0.33677298 -0.026252054 -0.31283492 0.046766557 0.12827565 -0.11251435
-0.19011901 0.45449087 0.026741344 -0.30899394 -0.4355464 0.41622168 -0.3965879 0.063457035

bias f4 [64]
00000000: 13ed aebb 635e 133c d691 353c 7662 023d
00000010: 73fb 933d 0000 0000 2dd4 eeba 0000 0000
00000020: 0000 0000 90cd d7bb c468 c93a 0000 0000
00000030: 20c9 dd3a 4f96 c23c a353 8b3b 334e 54bc
00000040: 355b bd3d 30de e83b 2021 db3c f185 2cbd
00000050: 68d4 853c 59e9 6ebc 0000 0000 3e67 c4bb
00000060: 9be7 afbb 11a2 1bbd 5d66 b2bc 8fe4 29bd
00000070: 351c f5bb 547a 0c3c 0000 0000 5768 b6bc
00000080: 6fc8 b23d a990 76bc e1b9 2c3a b867 e73b
00000090: b242 473c 0000 0000 4782 72bd 3866 04bc
000000a0: 8cf3 35bd dd01 e63c 58cc b03c 8284 9f3c
000000b0: 0000 0000 cefc a9bc f654 b63b 8aae 36bd
000000c0: 7f65 45bd 0000 0000 0000 0000 4b62 92bb
000000d0: 0000 0000 91de 6c3c 429e 32bb dcdc 8bbc
000000e0: 0000 0000 0000 0000 20df 2a3b 0000 0000
000000f0: 0000 0000 0000 0000 fef4 a8bc f798 fcbc
-0.00533832 0.0089946715 0.011082133 0.03183218 0.072256945 0.0 -0.0018221192 0.0
0.0 -0.0065857843 0.0015366306 0.0 0.0016920902 0.023753313 0.0042519136 -0.012958097
0.09245912 0.007106565 0.026749194 -0.042119924 0.016336635 -0.014582002 0.0 -0.0059937527
-0.0053681857 -0.037996355 -0.021777326 -0.041477736 -0.007480169 0.008574087 0.0 -0.02226655
0.08729636 -0.015049138 0.00065889774 0.007061925 0.0121618975 0.0 -0.059206273 -0.0080810115
-0.044421718 0.02807706 0.021581814 0.019472364 0.0 -0.02075043 0.0055643274 -0.044600047
-0.048192497 0.0 0.0 -0.004467284 0.0 0.014457361 -0.0027254974 -0.017073087
0.0 0.0 0.0026072934 0.0 0.0 0.0 -0.020624634 -0.030834658

weight f4 [256, 64]
00000000: 2c95 de3d 6476 b7bd 640d 383c f6a1 2d3e
00000010: 9861 0ebc f4c0 c53d 33d8 1b3d 1092 143d
00000020: 8434 1a3e 79d6 2d3d e0ad aa3c 37ea 773e
00000030: fa06 92bc 73b1 823d 3f04 3c3e def6 9bbd
00000040: 6d93 4b3e 3529 1dbe f239 4ebd aef9 f6bc
00000050: 5114 cebd 8963 813d 29a9 983d ca53 bcbb
00000060: 5c6d f2bd ddbe ba3e 1110 1bbe 06d3 223e
00000070: a167 873d c90b 05be 8dcd 2ebd e6df 04bc
00000080: fb66 a53e 7cb6 6dbd e441 113d f067 b33d
00000090: 9ccb 20bd 9d41 ebbd 754e a23d 01d4 3e3e
000000a0: cdb0 483d 309b 163e ee4e 1fbe 02d2 9b3e
000000b0: 9d49 8abd 1e0a e7bd f8c2 75bc 9462 a03d
000000c0: 4968 483e f01f 40be cbf4 7bbd fec5 52be
000000d0: da6b 743c 9104 a0bd adf1 d4bd bc30 c33d
000000e0: 2c9b 143e 0244 26be 9794 5e3e 7c41 03be
000000f0: ec8e 053d a48b 2bbe a95c d33d baef 07be
00000100: d6d7 133d b737 60bd 9234 2bbd 19d2 103e
00000110: 60a4 4b3d 9eb8 acbd df9c fe3d 4f18 073e
00000120: 784a f0bd 7138 423c 97d4 173c 05af 00be
00000130: a5c4 903c 4587 16be 70b7 76be bec6 523e
00000140: a3a0 0ebe 5eb7 82bc e71a 17be f841 963d
00000150: b27b ecbc 5ea2 f83d 26c9 1c3e 5524 243e
00000160: a6fb 223e 3320 0cbd eb96 bcbd ad29 2dbe
00000170: 8a5f 693d 98aa d2bb b433 523c 1138 1f3e
00000180: e897 7b3e 87eb a63d 68be debd 1f7d 033f
00000190: d4df babd 6d21 81bd 9860 59be 1345 a8bc
000001a0: 0384 453d 2801 833d 51fb 6f3d ec56 b9bc
000001b0: a144 7e3d 5f53 0fbe 83f0 16be b339 473d
000001c0: fa07 9fbe fb2e ecbd b615 543d 8dcc 2e3c
000001d0: 5650 c73d 9527 17ba 4a9b 2c3c bf89 0b3e
000001e0: 460d 80be 4260 393e 3c61 453e 02f2 37bd
000001f0: c323 bebb 88f7 37be 5326 d0bd f61b 3bbe
00000200: b073 fc3d a41d e3bc 47fa 32be 1ca1 fa3c
00000210: f558 12be 4e4a 8e3d 7bca b33d 87bf 94be
00000220: 6119 aebc 14cb 45be bb4f 49be 9482 943d
00000230: 3998 d2bc cbd9 e0bd 2eef 6f3d eea2 3f3e
00000240: 0713 b3bb 3f06 5a3e ef69 3bbe 33eb 283e
00000250: eec2 6b3e 4ff4 d73d 3b10 133a b5b9 4e3e
00000260: 778a b33d 91f1 103e ce1b 98be 68aa 4dbe
00000270: 2918 c4bb 9699 9cbd 70ce 0b3e 8b88 403d
00000280: af86 b13d eb57 1dbe 11e9 2e3c f186 19be
00000290: 0fc7 fe3c 9346 1fbe 61a5 973e d0fc 23bd
000002a0: b2c9 953d cd78 b9bd 514d ae3d 398c 37be
000002b0: 4401 cfbd 3521 f7bd 65f2 113d 0214 ed3b
000002c0: 1180 49bc be3a 04be 4c5c e63a e38d c53d
000002d0: 5ba9 c2bb 9c58 d2bd aef8 59be 26dd e4bd
000002e0: f3db 123d 74b0 16bc 77d9 173e e30b a83b
000002f0: e2b8 edbd ad56 9b3d b310 ac3c 5cc3 04be
00000300: a763 e9bd 2f78 46bd 2e8c 70bd 6b11 b23c
00000310: bba9 a4bb 9daf 473e a695 433e 08b8 a73d
00000320: a56e 093e 7aff c7bd 31f5 eebb dc7f 0e3d
00000330: e719 743d ac80 d8bd ff5f e03d e5c4 193d
00000340: 0748 86bd aeb1 193d 4947 883c e138 9dbd
00000350: 2dab 86bd e376 f53d 218e 9abc 465a 4d3e
00000360: 6683 153d 4105 2e3d d1fa b43d a843 b63d
00000370: 28d8 c8be 3369 aabd 97f8 723c 07b5 edbc
00000380: b0f9 19bd d065 623d f31b 813c 515d 81bd
00000390: 16d2 d7bd a166 473d e25f e1bc bc32 41be
000003a0: 641d 423e a302 25bd d2c9 04be fb4c 30be
000003b0: e87b 0bbe f166 dabd 4a38 d63d f312 303e
000003c0: 7a9d 113e ff5f 1e3e 4460 353c 04d3 153d
000003d0: 7857 6a3e 7733 13bd fec4 2abd 9852 abbe
000003e0: 8ee8 903e cba0 823d a692 e3bb 8ea1 2d3c
000003f0: ebbf 2a3e ae53 493e 6b68 203e a106 0e3e
0.10868296 -0.08958128 0.011233661 0.16956314 -0.00869026 0.096559435 0.03804798 0.03627211
0.15059096 0.042440865 0.020834863 0.2421044 -0.017825592 0.06381502 0.18360995 -0.076154456
0.19880457 -0.1534775 -0.05034823 -0.030148353 -0.10062469 0.06317813 0.0745414 -0.005747293
-0.11837265 0.36473742 -0.15142848 0.15900812 0.066115625 -0.12992777 -0.042676497 -0.008110022
0.3230513 -0.05803536 0.03546323 0.08760059 -0.039256677 -0.11487124 0.07925121 0.1863556
0.048996735 0.14707637 -0.15557453 0.3043366 -0.06752322 -0.112812266 -0.015000097 0.07831302
0.19571032 -0.18762183 -0.06151275 -0.2058334 0.014918292 -0.07813371 -0.103976585 0.0953078
0.14512318 -0.1623688 0.2173637 -0.12817949 0.032607004 -0.16752487 0.10320408 -0.13275042
0.03609451 -0.054740634 -0.04179818 0.14142646 0.049717307 -0.084336504 0.124322645 0.13192867
-0.11732954 0.011854277 0.009266994 -0.12566765 0.017671892 -0.14700039 -0.24093413 0.20583627
-0.13928466 -0.015956577 -0.14756356 0.07336801 -0.028867576 0.12140344 0.15311107 0.16029485
0.15916309 -0.034210395 -0.09208473 -0.1691043 0.05697588 -0.0064290278 0.01282971 0.15548731
0.24569666 0.08150392 -0.10876161 0.51362795 -0.09124723 -0.063052036 -0.21228254 -0.02054075
0.0482216 0.06396705 0.058589283 -0.022624455 0.06207717 -0.13996647 -0.14740185 0.04863901
-0.31060773 -0.11532398 0.051778518 0.010668886 0.0973212 -0.0005766091 0.010535071 0.13626765
-0.25010127 0.18103126 0.19275373 -0.04490853 -0.005802603 -0.1796552 -0.1016356 -0.18272385
0.12326753 -0.027724095 -0.17478286 0.030594401 -0.14291747 0.06947766 0.087788545 -0.29052374
-0.021252336 -0.1931575 -0.19659321 0.07251468 -0.025707351 -0.10979041 0.05857771 0.18714496
-0.0054649147 0.21291445 -0.18302129 0.16495971 0.23023579 0.10544645 0.00056100235 0.20188029
0.087666444 0.1415465 -0.29708713 -0.20084536 -0.0059843254 -0.07646482 0.13652968 0.047005218
0.08668267 -0.1536557 0.010675685 -0.14992882 0.031100778 -0.15554266 0.29618362 -0.040036023
0.07313861 -0.09056244 0.08510841 -0.17924584 -0.10107663 -0.120668806 0.035631556 0.007235051
-0.0122986 -0.12913033 0.0017575114 0.09646203 -0.005940599 -0.10270807 -0.2128627 -0.11174993
0.03585429 -0.009197343 0.1482905 0.00512837 -0.11607529 0.075848915 0.021004057 -0.12965149
-0.1139596 -0.04845446 -0.058727436 0.021736821 -0.0050251163 0.19500585 0.19100055 0.08189398
0.13421114 -0.09765525 -0.0072924127 0.034789905 0.059595015 -0.10571417 0.1095581 0.03754129
-0.06556707 0.037522964 0.016635554 -0.076768644 -0.06575618 0.119855665 -0.0188666 0.20053968
0.036502264 0.04248548 0.08836902 0.08899623 -0.39227414 -0.083208464 0.014829776 -0.029016985
-0.037591636 0.055272877 0.015760398 -0.06316627 -0.105381176 0.04868186 -0.02751154 -0.1886701
0.18956524 -0.040285718 -0.12967613 -0.17216866 -0.13621485 -0.10664166 0.10459955 0.17194729
0.14220229 0.15466307 0.011070315 0.036578193 0.22884929 -0.035937753 -0.041691773 -0.33461452
0.28302425 0.06378325 -0.006944972 0.0105976 0.16674773 0.19660828 0.15664832 0.13869716

bias f4 [256]
00000000: 3d85 73bb 8b66 42bc c908 c83b d923 603c
00000010: 41ac d9bb 62cf 6d3b efe9 65bc e037 083d
00000020: 89c9 053c aeed 9d3b 3ce9 7abc 1246 b03c
00000030: 61e0 713c 1c41 8ebc 2357 dbbc 054c 32bb
00000040: 7d48 8f3b 50e8 4bbc 13ea fb3c d2d7 bbbc
00000050: 1850 883c 0b5e ddbb 8f6e 94bc 471f 1cbc
00000060: 1143 9b39 2ebd 12bc 3568 2f3c 18ed 1f3b
00000070: 163a 393c 7744 bc3c 7ebc 633c 4fc4 2f3a
00000080: a571 bcbc 4ca7 1a3b 6640 2e3c 1665 073b
00000090: b9c7 0b3a 2351 2bbc de4d 913c a615 6cbb
000000a0: 1758 8e3b a3d8 7c3a 7fef 66bb 5436 333c
000000b0: 9a13 99bc 36d5 843b a21f 3cbc 84bb a8bc
000000c0: 40ca 43bc 5cce 013c e39c 83bc 55ed b7bb
000000d0: 3d2c 3fbc 8026 713c 9c81 a03b 13ae d3bc
000000e0: 20c5 23bc 12f0 923c fc38 87ba 4956 27bc
000000f0: c4f6 31bb d64a e0bc e7ec 3dbc 1b96 bbbc
00000100: 21ad 38bc 6246 a23a a806 a63c 06a5 85bb
00000110: cab2 0b3c b9d9 8e3c 8b79 8ebb 17a2 393c
00000120: 22fb a5bc 9718 093d 6c10 c93c 96d7 c3bb
00000130: 21a1 393b 7e77 943b 983e d83b 424e aebb
00000140: d860 8bbc a2f7 5ebc 56f3 8a3c 7776 35ba
00000150: 2134 59bc 2110 2cba 22d1 9bbb 2de7 133a
00000160: caa7 3e3c c3a4 ee3b 3944 423c a058 803b
00000170: b1a6 863b 6693 663c 2652 673a c91e 0a3d
00000180: 0b3f f0bb 5cd4 87bc d43b 68bc 0e8e 04bc
00000190: a33c a1bb 19b7 5c3b 7f78 003c 4d88 4d3c
000001a0: aef3 173c 132d 823b 5d6a ff3b d4ab efbc
000001b0: a3d6 b5bb 0809 983c 250f 48bc bc99 fe3c
000001c0: ab39 b43c ecd3 2bbc 4418 c5bc b190 d9bb
000001d0: c4c6 97bc 5478 b0bc b47e 43bc e019 a53b
000001e0: 4145 f63c b685 c13c 50f7 10bd 9850 be3c
000001f0: f83a 57bb e76b 633b cdd0 06bd a22d e73b
00000200: 6343 6dbc d248 1ebc 3fe8 eb3b 89a6 073c
00000210: 725b f2bc 4fa4 7c3c f0df 32bb a72e abbb
00000220: 3a14 6c3c 0c4d 8939 c295 88bc 32cf fc3c
00000230: 0969 dabb b631 a0bc 56ff 64bc e75c 26bc
00000240: 1fae 9c3c 5fdf 88bc dcf6 5abc dd97 aebc
00000250: e9bd 5c3d 476c 3abc da3b 2d3b c8f4 383c
00000260: b920 4bbc 6bf5 48bc 53d0 41bb e19c ddbc
00000270: b276 043c e794 563c f3da bfba aa39 32bc
00000280: cee8 ae3c 29c2 48bc 1f29 f2bc 0d96 273c
00000290: 269e f43b 2e75 d53c 0f7e 2a3c 2609 4ebc
000002a0: 5621 843c 4ee3 d83c 58b2 14bc a7da 1abc
000002b0: 0ad6 d83c 33d4 063c fd92 20ba a6fd 6b3c
000002c0: e5d9 52ba dc43 aabb b52a 153a 84fe c53c
000002d0: 7fd4 89bc e18d 923c 1a04 c4bc 23cd ba3c
000002e0: 3c2b c03c b8f5 df3c ac16 ebbc 1476 00bc
000002f0: 789a ab3a cdf3 2abc 3a94 50bc 6753 ba3c
00000300: 0d4a c1bc 29b8 87bb 05cb 6bbc ec34 b1bc
00000310: 8368 00bc aca2 87ba a05a 793c e129 7839
00000320: 4384 d63c 6d8c 373c 8493 03bb 2457 9cbc
00000330: cfde 57bc a028 bcbc eded 603b c466 c43a
00000340: 0f06 b93b 9170 fdbc a810 8fbc ce98 93bb
00000350: bc9c 02bc 29e1 bc3b d61d e2bb 4315 ecbb
00000360: 4fb4 b0bc 6e5c c63c cf1e 95bc 4ab1 fdbb
00000370: d91a da39 686a f93c b182 bc3b 3d49 9abb
00000380: 1ad1 0cbc 0246 47bc 8d69 1e3c 5220 03bd
00000390: ed31 aabb 5b67 b2bb 42c2 553c d36f b13b
000003a0: 8523 e23b 9082 823c aaf5 d43a 0d18 8dbc
000003b0: 8039 93bc 9a9b b23c a4eb 7f3c 6b6a 413c
000003c0: 2d61 bdbc bff6 cc3c 116e 8e3b a550 a53c
000003d0: 1d88 4dbb 7f75 b5bc 5f11 d5bb cb6c 7839
000003e0: 54cb 563c 1bc2 03bc 9f95 ae3c 4b20 57bc
000003f0: b3a6 4a3b 15c0 2b3b f1f1 22bc e2a7 96bc
-0.0037158274 -0.011865268 0.006104563 0.013680422 -0.0066428487 0.003628694 -0.014032825 0.03325641
0.0081657255 0.0048195934 -0.0153143965 0.021517787 0.014762969 -0.017365031 -0.026774948 -0.0027205956
0.004372655 -0.012445524 0.030751264 -0.02293006 0.016639754 -0.0067555956 -0.018119125 -0.0095289415
0.00029613872 -0.008956237 0.010705997 0.0024402793 0.011305353 0.022981865 0.0138999205 0.00067049725
-0.023003409 0.0023598252 0.010635471 0.0020659617 0.000533219 -0.010456356 0.017737325 -0.0036023646
0.004343997 0.00096453185 -0.0035237966 0.010938246 -0.018686105 0.004053737 -0.011482151 -0.020597227
-0.011950076 0.007922735 -0.01606602 -0.005613009 -0.011668262 0.014718652 0.004898263 -0.025839841
-0.009995729 0.01793674 -0.0010316665 -0.010213443 -0.002715514 -0.027379435 -0.011592126 -0.022898724
-0.011271746 0.0012380595 0.020266846 -0.00407851 0.008526513 0.017437803 -0.004347985 0.011330149
-0.020261351 0.033470716 0.024543963 -0.0059766276 0.00283248 0.004530846 0.0065992586 -0.0053193877
-0.017013952 -0.013608845 0.016961735 -0.00069222547 -0.013257057 -0.00065636827 -0.004755155 0.0005642053
0.011636684 0.0072828247 0.011857086 0.003916815 0.0041092266 0.014073228 0.0008824192 0.033720765
-0.007331734 -0.016580753 -0.01417442 -0.008090509 -0.0049205585 0.003367847 0.0078412285 0.012544704
0.009274406 0.0039726584 0.007794662 -0.029256739 -0.0055492683 0.018558994 -0.012210642 0.031079166
0.022000154 -0.010487538 -0.024059422 -0.006639563 -0.018527396 -0.021541752 -0.011932064 0.005038485
0.03006232 0.023623329 -0.035392106 0.02323179 -0.0032841545 0.0034701766 -0.03291397 0.0070550004
-0.014481398 -0.009660916 0.0071993168 0.008279451 -0.02958462 0.015420034 -0.0027294122 -0.0052240673
0.014409119 0.0002618808 -0.016672973 0.030860517 -0.006665353 -0.019554954 -0.013976892 -0.010153986
0.019125996 -0.016708074 -0.01336452 -0.021312648 0.05389205 -0.011378354 0.002643338 0.011288829
-0.012397938 -0.012265543 -0.0029573634 -0.027052345 0.00808494 0.0130970245 -0.0014637396 -0.010878006
0.021351244 -0.012253323 -0.029560624 0.010228646 0.007465142 0.026056852 0.010406031 -0.012575423
0.016129177 0.026475575 -0.009075724 -0.009451545 0.02646925 0.008229303 -0.00061254186 0.014403736
-0.0008043333 -0.0051960777 0.0005690263 0.024169214 -0.016824959 0.017889919 -0.023927737 0.022802895
0.023458116 0.027338848 -0.028697334 -0.007840652 0.00130923 -0.010434103 -0.0127306525 0.022744847
-0.02359488 -0.0041418266 -0.014391665 -0.02163168 -0.007837418 -0.0010348163 0.015219361 0.00023666724
0.026186114 0.011202914 -0.002007694 -0.01908452 -0.01317568 -0.02296859 0.0034321502 0.001498424
0.005646474 -0.030937465 -0.017463997 -0.0045042997 -0.007971939 0.005764146 -0.0069005294 -0.007204683
-0.021570353 0.024213996 -0.018203167 -0.007742082 0.00041600203 0.030446246 0.0057528843 -0.0047084377
-0.008594776 -0.012162687 0.00966872 -0.032013245 -0.00519394 -0.00544445 0.013046803 0.005414942
0.006901207 0.015931398 0.001624753 -0.017223382 -0.017971754 0.021802712 0.015620146 0.011805157
-0.023117626 0.025020001 0.004346617 0.020180056 -0.0031361647 -0.022150753 -0.006502315 0.00023691652
0.013110001 -0.008041884 0.02131158 -0.013130258 0.0030922114 0.002620702 -0.009945379 -0.0183906

weight f4 [128, 256]
00000000: ccb3 a03d fd65 aebd 9080 0a3d ed59 753c
00000010: 7049 7d3c 7e9c f8bc bd05 9c3d 2ff7 acbb
00000020: 9403 633d 123e f9bd 6ad3 533d a14b 3a3c
00000030: be74 e3bd b96f 2e3d 09ff a4bc 43dc 463e
00000040: 7d0d 443d 3cb4 0f3e 7250 1ebe a14a ee3a
00000050: e34d fbbd e398 21bd d16d 773e 6e46 dcbb
00000060: 5a31 b6bd d77c 11be af3e 783d 0497 953d
00000070: 8093 14bd e834 ddbb 4ae6 0b3d 8828 503d
00000080: 6fa3 c9bc 247a 37bd a2e1 9dbd a506 7e3c
00000090: 67a3 683c aa5e cfbd 4b41 443d c49b 86bd
000000a0: cfeb 013e de18 8dbd 732e 42bd 9c38 bf3c
000000b0: e2a7 bb3c 178c 1f3e 6f3e 963d 3350 8a3c
000000c0: af6b 88bc 2911 42bd 2a96 febc 8b09 b3bc
000000d0: 8e12 40bc 3057 283d 155c 763c ba46 0dbe
000000e0: 2c96 fe3d 18a9 393e ebb3 923d db29 623d
000000f0: 64c3 863c 2602 52bc 5b37 73b9 e681 163d
00000100: d74c 8ebd 7a91 8a3d 81aa d73d 13f6 56bd
00000110: 0fef e7bd 62dc 9b3d 1a63 41ba de38 5a3d
00000120: c4f3 433c 5ea1 833c 9d24 e1bb f4e5 0b3e
00000130: 996c 27bb 5585 b03d 37d0 df3c 2e04 c13d
00000140: b75e 8d3b 3ea8 8fbd 88dc 8bbd e8fb 05be
00000150: 34cf 163e 186c a33d 9ac3 f53c 1b85 64bc
00000160: 095c ef3b 12d6 0c3e e9d8 afbd acb6 e03c
00000170: 3340 55be e579 253d 37c7 1a3d 30eb cc3d
00000180: 4525 253e 329b b33d e58d 33bd 5294 bbbd
00000190: cf01 d23c df43 44bd 5963 15bd af6f 4dbe
000001a0: 71e7 ffbc 2077 5fbd 2aca b8bd c818 fa3d
000001b0: e8d3 31bd 0de2 aebd 2895 6a3d ad0a 8cbb
000001c0: 52ff 87bd 582f 9d3d 842b b93c 751e 09bd
000001d0: ae72 69bc 2032 16bc 156f 863c d5db 4fbc
000001e0: 4145 81bd a6bb 953d 3233 5c3d 9bdf 413d
000001f0: 7baa 4d3c 1a2c d53c 9623 22bd afb4 e2bc
00000200: a69c aabc e6d6 f9bc e117 993c c460 ca3c
00000210: de18 ddbd c194 c73c 60df 87bd 66c9 b93d
00000220: 31f0 0a3d 95ea 203e ed9a 71bc 0ec2 dc3d
00000230: 0c99 b5ba 557f f7bd 3ebf 36bd d9e8 1fbe
00000240: b50a 05bd 3e0c 003d 5c2f 0fbe 6843 3fbc
00000250: 67a7 14bc 37c7 b0bc e229 07bd 8bfd a53d
00000260: 3571 463d b367 84bd 61d0 3e3c cea8 f13d
00000270: 9a56 873d fdff 6cbd 4b19 63bc dbba f93b
00000280: cb3f 403d 2be9 5b3d 62ea b3bc 7708 033d
00000290: 73fa ad39 e702 d23d 4516 5c3d 2c73 4cbb
000002a0: f511 533b 7db3 953d d934 10bd 1763 e8bd
000002b0: 9dbf 8ebc 70f0 843d acf3 393d e20d ccbd
000002c0: 3929 903d 0fe3 693d f941 c73c 96e8 a4bd
000002d0: 3df3 c2bb 7cc1 ff3d ff65 bebd 6266 22bd
000002e0: ef9f d13d 2ca4 9a3d 845d 3b3e 87f2 d6bc
000002f0: 2829 3fbd a020 d1bc 7cb0 323d 04f2 5abc
00000300: ba04 103c eb59 9e3c 93a8 d13c 502e eb3d
00000310: 0d51 153d b930 f33d 3941 cbbd 5a2c ce3d
00000320: 7f03 e5bd f433 3b3d 30c0 59bd 833d b6bc
00000330: e073 873c 675d 5bbd c2f0 183d e259 aebc
00000340: a5a6 8fbc fecf aebb be68 09be dc7a 4fbd
00000350: a821 d83b 6a68 5cba b4d0 d5bc f526 1e3e
00000360: ff26 7e3d 6f43 2a3e dd02 f2bd 4914 af3c
00000370: d8b9 f4bd d192 cabc b179 a7bd 7641 95bd
00000380: 1f1c 3dbc 2169 323c f120 133e 80c2 f73d
00000390: a889 1f3c f4a5 1b3d 10a5 0f3d 850a 1c3e
000003a0: 6f40 64bd 4824 22be f33c e4bc 2879 21bc
000003b0: 51c4 8c3d ff3b 5a3d f86b 063e f04b 83bd
000003c0: 29e6 a83c 1489 463b 7017 a2bd 91c5 0dbd
000003d0: 0d7d 04be 322a 96bc eebe 92bc bc50 c53c
000003e0: b827 91bd 3f5c 4abd 6244 c8bd b45c b13d
000003f0: a04f a3bd 6a9d 70bd 095c cf3d 4bf1 983c
0.078467935 -0.085155465 0.033814013 0.014975053 0.015459403 -0.030348059 0.07618282 -0.00527849
0.055423334 -0.12170042 0.051715292 0.01137057 -0.11106251 0.042587016 -0.020141141 0.1941996
0.047864426 0.14033598 -0.15460375 0.00181802 -0.12270715 -0.039452445 0.24162985 -0.006722263
-0.08896132 -0.14207779 0.060606655 0.073041946 -0.03627348 -0.0067506917 0.034155168 0.050819904
-0.024614064 -0.044794217 -0.07709052 0.015504514 0.014199114 -0.101254776 0.04791383 -0.06572679
0.1268761 -0.06889509 -0.04740758 0.023342423 0.022907201 0.15580784 0.07336127 0.016883945
-0.01665291 -0.047379646 -0.031077463 -0.021855136 -0.011723174 0.041098773 0.0150366025 -0.13796511
0.12430987 0.1813091 0.07163223 0.055215698 0.016450591 -0.012817895 -0.00023194907 0.036744975
-0.0694825 0.06766029 0.10530568 -0.05248077 -0.11324894 0.07610394 -0.0007377133 0.05327689
0.011959974 0.016068157 -0.0068708197 0.13661939 -0.0025546907 0.08619181 0.027320964 0.09424625
0.0043142694 -0.070145115 -0.068291724 -0.13084376 0.14727479 0.079796016 0.030000497 -0.01394775
0.0073046726 0.13753536 -0.08586294 0.027430855 -0.20825271 0.04039945 0.037787642 0.10005796
0.16127498 0.087698355 -0.043836493 -0.09159149 0.025635628 -0.04791629 -0.0364717 -0.20062135
-0.03123829 -0.054556966 -0.09022935 0.12211758 -0.04341498 -0.085392095 0.057271153 -0.0042737336
-0.06640495 0.07675046 0.022603758 -0.03347631 -0.014248533 -0.009167224 0.01641039 -0.012686689
-0.06312037 0.07311182 0.05375976 0.047332387 0.012552853 0.026022006 -0.03958472 -0.027674047
-0.020826649 -0.03049798 0.018688144 0.024704345 -0.10795759 0.024362924 -0.06634402 0.09071617
0.03392047 0.15714486 -0.01474641 0.107792005 -0.0013854816 -0.120848335 -0.044615977 -0.15616168
-0.032480914 0.031261675 -0.1398291 -0.011673786 -0.009073115 -0.021579368 -0.032998927 0.08105
0.048447806 -0.064650916 0.011646361 0.11799775 0.06608315 -0.057861317 -0.013861011 0.007621152
0.046935838 0.053689163 -0.021962348 0.031990495 0.0003318373 0.1025446 0.053732175 -0.0031196577
0.0032206748 0.07309625 -0.03520665 -0.11347025 -0.017425353 0.06491172 0.0453984 -0.099635854
0.070391126 0.057101306 0.02432345 -0.08052175 -0.0059494064 0.12488076 -0.09296798 -0.03964842
0.10235583 0.075508446 0.18297392 -0.026238693 -0.04667011 -0.025528252 0.04362534 -0.013363365
0.008790189 0.019329986 0.025593078 0.11483443 0.03645425 0.118745275 -0.099245496 0.10067053
-0.111823075 0.045703843 -0.0531618 -0.022246128 0.016534746 -0.053555872 0.03733898 -0.021283094
-0.017535517 -0.005334853 -0.13418862 -0.050654277 0.006595809 -0.0008407893 -0.026100494 0.15444548
0.06204891 0.16627286 -0.118169524 0.021371977 -0.119495094 -0.02472821 -0.08177508 -0.07287876
-0.011542349 0.0108893225 0.14368035 0.12097645 0.00973741 0.038000062 0.035069525 0.15238388
-0.05572551 -0.15834153 -0.027861094 -0.009855546 0.06873382 0.053279873 0.13127124 -0.06410968
0.020617561 0.0030294107 -0.079146266 -0.034612242 -0.12938328 -0.018330667 -0.017913308 0.024086349
-0.07087654 -0.04940438 -0.09778668 0.0866026 -0.07974172 -0.05874387 0.10124976 0.018669745

bias f4 [128]
00000000: 56c0 4fbd d3fe e83a 9abe bc3b ae38 38bb
00000010: e290 f7bb 745b 153c 6842 a73c 8498 f43b
00000020: 4260 14bd b3ea 283b 213f 003d c5fb 0a3b
00000030: 5f9b f8bb 6bbd aebb 4985 b339 3319 4ebd
00000040: 16fc 00bd 4a16 c23c d352 cdbc 05e7 033d
00000050: 7095 c2b8 bc23 95bc d790 32bc a54c 4c3a
00000060: 9373 10bd 4c2d 3d3a 7641 b13c 8d34 053c
00000070: 9fe9 ef3c 1d8c e03c 01ba 583c 0b8a 00bd
00000080: 9351 a1bc 99c1 f33c e576 a2bc 32f2 2e3c
00000090: 522a 1e3c dfcb 9bba 18c6 9bbc 5a65 13bc
000000a0: 7942 ddbb 5165 2a3d 840c b63c dfb8 61ba
000000b0: 018d 843c af94 a7bc 3113 e8bc c8c3 d33b
000000c0: c1b9 cfbc 27e1 fb3c 7528 253c 70a6 2d3c
000000d0: d0ff d33c 2e39 a2bc 10f7 8ebc a201 84bc
000000e0: dd5f d0bc 7fd2 ea3c 10b6 bf3b 1c04 87bc
000000f0: 56a9 2e3c 434f 9fbc 77eb 153c f891 ab3c
00000100: 4025 173d 0bf7 ff3c b7d1 72bc db7f 7abc
00000110: 3c07 f43c 4b5f 6bbc 0905 de3c 1761 c5ba
00000120: 7e8b 9fbb 7612 343c d7b6 6cbb 4fce dfbb
00000130: 48fd 7a3c f850 a03b eb1b 543b 0802 373c
00000140: 2be4 1e3d 2c3e c7bb cfba 28bb b40e 2bbc
00000150: 9d83 3bbd 3ca9 7b3b f25b 263c db98 f73c
00000160: 5d27 06bd 7508 20bd ba78 96bc 62eb 64bc
00000170: 4ec0 04bc eacf 053d 3848 383d ad1c f4bb
00000180: f4ad f6bc b87a d73b 572b 883c 0abe 77bb
00000190: 566f c3bc 52b6 293c f53d 34bd 0c45 fbbc
000001a0: f97b 39bd 168d b43c 97a0 74bc a2a9 c93b
000001b0: b015 18bb 2378 d2bb 4b12 27bd 73d6 67bc
000001c0: 0b53 54ba ad02 b33c 8854 8a3b 6583 2fbb
000001d0: ec19 f4bb 43d5 67ba 62a1 8fbc 404c 093c
000001e0: 7889 013d a8ae c0bc a331 9ebc 8d84 66bc
000001f0: b7eb 02bc 2da4 443c b42d f33c 4e7e 5bbb
-0.050720535 0.0017776139 0.005760026 -0.0028109956 -0.007555113 0.009116042 0.020417407 0.0074644703
-0.03622461 0.0025774657 0.031310204 0.0021207195 -0.007586881 -0.005332639 0.00034240846 -0.050317
-0.031490408 0.023692269 -0.025063908 0.03220274 -9.278476e-05 -0.018205516 -0.01089879 0.00077934033
-0.03526647 0.00072165276 0.02163766 0.008130205 0.029286204 0.027410561 0.013227941 -0.031381648
-0.019692218 0.0297554 -0.019832084 0.010677861 0.009653645 -0.001188632 -0.019015357 -0.008996332
-0.006752309 0.04160053 0.022222765 -0.0008610617 0.016180517 -0.02045664 -0.028329464 0.006462548
-0.025357129 0.03074701 0.0100804465 0.010598764 0.025878817 -0.019802656 -0.017451793 -0.01611406
-0.025436336 0.028664825 0.005850561 -0.016481452 0.01066049 -0.019446975 0.0091503775 0.020943627
0.03690076 0.031245729 -0.014820508 -0.015289272 0.029788606 -0.014365981 0.02710201 -0.0015058842
-0.0048689237 0.01099073 -0.0036119723 -0.006830014 0.015319176 0.0048924647 0.0032365273 0.011169918
0.038791817 -0.0060804095 -0.0025746112 -0.010440517 -0.045779813 0.0038400432 0.010153757 0.030224254
-0.032752384 -0.039070565 -0.018368114 -0.013972135 -0.00810249 0.032668985 0.04499075 -0.0074497075
-0.030112244 0.0065759085 0.016622229 -0.003780248 -0.0238568 0.01035841 -0.0440044 -0.030672573
-0.045284245 0.022039931 -0.014930866 0.006154255 -0.0023206286 -0.006423013 -0.04078893 -0.01415025
-0.00080995326 0.021851862 0.0042215027 -0.0026781198 -0.007449379 -0.0008843729 -0.017533008 0.008379996
0.03162524 -0.023520783 -0.019310778 -0.0140696885 -0.007990769 0.012002033 0.029684879 -0.0033492032

weight f4 [14, 128]
00000000: 74e0 4f3d 5dea 12bd bc87 2e3c 280e afbc
00000010: b345 8d3c 29d9 16bc 3ce3 e4bc 5048 4e3d
00000020: 6649 5d3d 6ddc a53d fcfa 15bb f64f f93c
00000030: 8caa d4bb dfb6 92ba c623 b93c 6b0e e03c
00000040: 860e 2ebc 52ac 1d3d 0621 c13c d4d5 60bd
00000050: 7d44 7dbc 6870 c13c 3208 c139 eaae 65bd
00000060: af70 4abc ea92 8fbb d578 73bd 5c35 503d
00000070: 64f5 d0bc 3b17 f23c 171d 00bc e790 eebb
00000080: 3b07 a73c 813c db3c dfce 283d 48f7 e1bc
00000090: dde3 96bd dd37 f6bb a657 14bc 9646 263c
000000a0: 1e07 153d 98ff 69bd 5984 813a 2818 93bc
000000b0: 4168 e83b 3ed1 d9bc 64f5 90bb 7f27 c93c
000000c0: 856d 90bc 637b f1bb 5407 f53b c7ea 433b
000000d0: 196a 15bc fbfb cb3d 8466 13bd 8e5b ba3c
000000e0: 55b3 a23d 4f65 d2bc 6422 3c3d d60b 1b3d
000000f0: a9f8 73bc ce4d 1abd 0c39 503d 7061 adbc
00000100: 457c b5bd e978 29bd 117b 5a3c 63c4 c33c
00000110: 3752 1ebd 035c 233d 9258 813c c35e 18bb
00000120: 01a9 ac3c f3b8 f2bb 0877 093d 0cf5 273c
00000130: b2d7 09bc 4080 cf3c e41a 31bd 0441 543d
00000140: 3387 5abd ed2f 75bc ac80 cf3a c7b4 af3b
00000150: 0fe8 ce3c 460d 3bbd 0056 40bd 6268 ec3c
00000160: f730 73bc 0378 f0bb a3fc 893b 24e6 323c
00000170: 2755 4c3c 6fe4 0d3c e98a abbd 0eb9 ac3c
00000180: 3250 4c3d 7c4e 023d 563e db3c e523 053d
00000190: 72a5 6abc faa4 48bc 2c35 4b3c 3547 073c
000001a0: 96f4 143d 4751 1cbc 8c30 91bc 5ad0 ecbb
000001b0: 2fac 603c cf59 8ebb a242 363c fd70 9a3c
000001c0: 6483 26bc 1e30 93bc 9dd9 81bc 1b24 bbbc
000001d0: b17e 29bd af11 a1bd 89ed 87bc a717 843d
000001e0: 7864 3ebc b322 28bd a395 1e3d 256e a13d
000001f0: d3cc b03c 0a42 85bc d6d7 c13c 933d c4bc
00000200: 7bfa 82bc c8fd 9bbc 15e7 b1bd 7c37 a03c
00000210: 34d2 92bc 9f27 8d3d 82e5 19bd d6d0 153d
00000220: dd58 b3bb 7005 36bd e8ac 943d 533c 873d
00000230: 378f f63b 238e a2bc 34da 91bd b4aa 2b3d
00000240: e013 7ebc 5c6c b53c e3e7 eabc bcf2 8ebc
00000250: 256d 48bc b9b8 ecba 37bc b4bb 588f 44bb
00000260: f1a6 dbbc 394e 12bc 56b8 37bd 2238 173d
00000270: e5a0 5a3c bb68 1f3d 3bb4 b23c d3c6 d9bc
00000280: eba9 cc3c ca74 1e3d 9b84 8d3c bca0 033d
00000290: b30e e1bb 0b42 9ebd 84db 81bd 0774 f33c
000002a0: 7b6a 863d 0983 1b3c cb27 fa3a 70f4 95bd
000002b0: 870b 363c d5df ecbb 009c b33c e331 3a3d
000002c0: 03e9 afbc 2d76 0d3d 02fd e23b bb63 2e3d
000002d0: 1d51 98bc 1989 873b 2afd c1bc d87b 523d
000002e0: 7df6 34ba 7ca2 70bb 655c 453d a58a 78bd
000002f0: 2470 6b3c 6bbd 59bc bda3 25bc 6332 203d
00000300: f537 4fbd fe05 2b3c 18af 1ebd 7133 42bc
00000310: 238d a43b eafb 32bc 6546 263d 1bbe 9dbc
00000320: 3443 bdbb 60c7 84bc 64af fcbc e845 03bd
00000330: 280a 743d 5efb 913c 012e a8bc 7580 213d
00000340: da0e db3b d189 283c 6504 61bd 98ee 83bc
00000350: c153 91bc 7e21 9ebb c05e debc d066 9f3d
00000360: 43a0 beba 4170 11bd 5517 36bb 86a7 02bb
00000370: bcc4 37bc c855 fa3a 959b 5fbb b857 05bd
00000380: fec9 d13b d288 8dbc 5bd2 533d 2181 27bd
00000390: 8207 b2ba 3178 12bd 8ca5 eabc c189 673c
000003a0: a7db 82ba 1261 3c3c d083 43bc acdd 5d3c
000003b0: 4ecd 343b 42e6 77ba e789 713c 30a5 a9bc
000003c0: c4ad 0a3d bf8a 073c 0cdb fcbb 8c61 c1bc
000003d0: 8041 acbd d365 b43c e71d b23b 2fbf a03c
000003e0: e9c0 373d ae69 093c 4187 883d 1520 c93c
000003f0: d78e a8bc 0ef6 a53b 95ff 5c3d e27e 873c
0.050751165 -0.035868037 0.010652479 -0.021369055 0.01724515 -0.009207048 -0.027940385 0.05036193
0.054025076 0.080986835 -0.0022885194 0.030433636 -0.0064900573 -0.0011193416 0.022600066 0.027350625
-0.01062358 0.038494416 0.023575317 -0.054891422 -0.015458223 0.02361317 0.00036817935 -0.056075014
-0.012355967 -0.004381527 -0.059441406 0.050832137 -0.025507636 0.029552093 -0.007819436 -0.0072804573
0.02038919 0.026762249 0.041212913 -0.027583733 -0.0736768 -0.0075139836 -0.0090541 0.010148665
0.03638374 -0.05712852 0.0009881362 -0.017955855 0.007092506 -0.026589032 -0.004423784 0.024554966
-0.017630348 -0.007369445 0.00747768 0.0029894577 -0.009119534 0.09960171 -0.03598644 0.022748735
0.07944361 -0.025683073 0.045931235 0.037853085 -0.014890828 -0.037671857 0.050835654 -0.021164626
-0.08861593 -0.041375075 0.013335005 0.023897355 -0.038652625 0.03988267 0.015789304 -0.0023249842
0.021076681 -0.0074073016 0.033560783 0.010251295 -0.008413242 0.025329709 -0.043238536 0.051819816
-0.053351592 -0.01496504 0.0015831194 0.0053621265 0.025257139 -0.045666955 -0.046957016 0.028858367
-0.014843217 -0.0073385253 0.004211025 0.010919128 0.012471474 0.00866042 -0.083761044 0.021084335
0.049881168 0.03181313 0.026763123 0.032504935 -0.014321672 -0.012246365 0.012402814 0.008256723
0.036366068 -0.009540862 -0.017723344 -0.007226986 0.013712927 -0.004344202 0.011124285 0.018852705
-0.010163162 -0.01796728 -0.015850836 -0.022844365 -0.041380588 -0.07864701 -0.016592758 0.06449824
-0.011620633 -0.041048717 0.038716923 0.078823365 0.021582043 -0.016266841 0.023662489 -0.023955142
-0.015988579 -0.01904191 -0.086866535 0.019557707 -0.017922498 0.06892323 -0.03757239 0.036576115
-0.00547324 -0.04443878 0.07259542 0.06603303 0.0075243968 -0.019843167 -0.07121697 0.041910842
-0.015507668 0.022146396 -0.028675025 -0.01744973 -0.012233053 -0.0018060423 -0.005515601 -0.0029992666
-0.026813002 -0.008929783 -0.04485353 0.036918767 0.013344024 0.038918238 0.021814456 -0.026584065
0.024983367 0.038685597 0.017275145 0.03213571 -0.0068682074 -0.077274404 -0.063406974 0.029718412
0.06563278 0.00949169 0.0019085346 -0.073220134 0.011111147 -0.0072288313 0.021924973 0.045457732
-0.021473413 0.03453653 0.0069271335 0.04257558 -0.018593365 0.0041362164 -0.023680288 0.051387638
-0.00069031847 -0.0036717942 0.048183817 -0.060679097 0.014369998 -0.01328979 -0.010109839 0.039110553
-0.050590474 0.01043844 -0.0387412 -0.011853085 0.0050217076 -0.010924319 0.040594477 -0.019255688
-0.0057758335 -0.01620835 -0.030845352 -0.03204909 0.05958 0.017820057 -0.020529749 0.039429147
0.00668512 0.010286764 -0.05493583 -0.016104981 -0.017740132 -0.00482577 -0.02714479 0.07783282
-0.0014543611 -0.035507444 -0.0027784903 -0.0019936278 -0.011216339 0.0019099051 -0.0034119834 -0.03255436
0.006402253 -0.017277155 0.051714282 -0.04089463 -0.001358256 -0.035759155 -0.028643392 0.014131964
-0.0009983674 0.011497753 -0.011933282 0.01354162 0.0027588191 -0.00094566133 0.014742351 -0.02070865
0.033857122 0.008272826 -0.007716542 -0.023606084 -0.08410931 0.02202121 0.0054356935 0.019622413
0.044861708 0.008387012 0.06666423 0.02455143 -0.020575924 0.0050647324 0.05395468 0.016539995

bias f4 [14]
00000000: e7c6 3ebd 8cdf 2b3c b9fc 29bd 0905 aa3c
00000010: 1751 0e3c fe5a 913b 8690 95bb 3ef5 50bd
00000020: 9a15 4ebc d98c cdbc 4cb6 eebc 1a4e 84bb
00000030: c12d 213c d075 eebb
-0.046576407 0.010490309 -0.04150078 0.020754354 0.0086863255 0.004435896 -0.0045643477 -0.05101513
-0.012578392 -0.025091575 -0.02913966 -0.0040376307 0.009837569 -0.007277228

weight f4 [64, 13]
00000000: 84b6 b6be 158e 2f3f 4ed1 9e3d e44c 3e3e
00000010: 5495 ffbd 643c 81be 0aa8 f73d 6d40 0cbd
00000020: 7240 9bbe 0987 ccbd c36e dd3e c070 97be
00000030: c15d be3c 247d 423f c2ca 86be 336c b83e
00000040: cd8f 9f3d 04b0 a93d 7fc4 073e 35e0 b0bd
00000050: 7303 6a3e 55e0 38be 1ff5 7abe 4ddf ab3d
00000060: 4c02 703e d26f c23d e078 9d3e 2eff 67be
00000070: dabb 3e3f 087c a33c 3a46 ca3d 3e39 e53c
00000080: 05fa 96be 6921 993d 4a94 cebd 5d76 b6be
00000090: 08d1 88bc 2e40 503e 863e 043e b042 dfbd
000000a0: e965 bfbe 2f7f d2bd 626f 30be ce4c 7ebd
000000b0: bafb a73d de85 05bf 111f 3abe 67b9 18bd
000000c0: 6769 353e 1f3e d5be e2ec 2cbf 6033 8ebd
000000d0: cfb0 ebbd 0271 9fbe aeda 9d3e 72c9 98be
000000e0: f0fc 91be 8eb2 423e 521b 773e 5bc8 55bd
000000f0: bc7f 4c3d b541 1a3e 3ca3 f13e 5cdf dd3d
00000100: b487 03bf b7a1 2c3e 6495 99be a462 bf3e
00000110: 1914 41be 1434 e7bb aa42 d0be c9ee fd3e
00000120: 1d01 c9be 56ee ab3e c17e 1d3e 246c d0bb
00000130: aedf 563e 6be6 123f cce3 f8bd 9b8f e73e
00000140: d831 14bf 06dc 033e 4230 96be de47 363e
00000150: c3f1 f9bd 468e 6e3e 30cb 003e 858a 0c3e
00000160: a3ea f7bd 032b e0be 61a9 063d 1474 06bf
00000170: ab21 b63c 8fb9 20be b536 57be 3422 f53e
00000180: c65d 8c3c 1aa6 09be 7641 7f3e 00f2 363e
00000190: b8c5 a2be 2d1d 25bc 3939 58be a083 d1be
000001a0: b1b9 4cbe 4439 bf3e 35e1 b1be da7d 093e
000001b0: 2f49 11bc 0b8d b73e a9e9 7d3e 4f1c 7d3e
000001c0: fe4c bcbe ee07 e83e ecea 65bd fc2a 0abd
000001d0: 379b 313d 6728 91bd 99ff d9be 00e1 353e
000001e0: 4996 f0be 3044 4a3e ebef 163d 5097 e93e
000001f0: ec9a 853e 1f70 41be 1a45 acbe 4323 903e
00000200: b43f e3bd 951a 0abd 3d2f 6fbe c823 c1be
00000210: 2198 023e b555 d8bd a86d 3a3e 1b34 a03e
00000220: ec4b 173b 7bba 4abe 352b 04bf 7007 d13c
00000230: adb0 15be 791c 10bf a95a e73a 6d23 b33e
00000240: d57f 2d3e 7615 96bd b5a1 acbe b448 9a3d
00000250: 50da 633e 911a 533f 5343 8cbe dcb9 243e
00000260: b837 5c3d 68e9 8e3e 89b1 c4be 96a3 f3bd
00000270: e29d a23d 990f f9be 7de3 373e 6ac2 ecbc
00000280: 13c9 353c c804 83be c5ff 97be a266 ce3c
00000290: 415d cc3e a810 f43b cc8b e83e e01c 38be
000002a0: 2726 aabc bc7e d03c 9675 aa3d a3d1 92be
000002b0: 8106 b3be 5604 313e 19e8 2dbf 0705 14be
000002c0: a2e2 10be 98dc 0c3e ca96 b93d d810 b8be
000002d0: c369 bfbe 7369 d1bd 1e80 b3be ec8f d73d
000002e0: fdca b4be cbc8 193d 69c7 a4be 5978 2a3e
000002f0: f0d3 8c3d a6c7 eabe 3281 ebbe d6ef 64bd
00000300: d723 043e c233 9ebe d11f 0dbf 0495 da3e
00000310: cc32 b9bd 08b4 993e 68e2 d83d 666d 8cbe
00000320: baaf f83d bce8 d9be 737a 81be 67da 0dbf
00000330: a9c9 c5be 79af 233e 9433 b13e cf16 ae3d
00000340: 62cd ca3d fe30 673e f3a9 88bd 3346 b63e
00000350: 9fd5 82be 3163 62bd f207 1bbe 024a 163f
00000360: 9de6 393e 9c9a 013f 24bb 1abe 35b1 83be
00000370: d105 28bb 2dad 573d 044b 2d3e 354b 9b3e
00000380: 3ff5 b63d 0c2a cfbe 0fc5 473d 3680 15bf
00000390: e168 0cbf 7b21 683e 8f3e 80be ba39 4e3e
000003a0: 0469 13be bd8f 0cbe 9854 88bb 480e f33e
000003b0: eab7 59bc 765e 81bd 7e43 433e 8e51 22bd
000003c0: b98d 0fbf 2a2e 043e 4992 ea3d 7874 9b3e
000003d0: 399d 343e ea06 c93e 52f0 943e 7dba a03e
000003e0: cb82 703e 85ed 82bd 3b5c e33d 9b4f f5be
000003f0: 4ab6 933d 7ade 163e 3591 223e 1db3 033e
-0.35686123 0.68576175 0.077547655 0.18584019 -0.12479654 -0.25241387 0.12092598 -0.03424113
-0.30322605 -0.099866934 0.43248567 -0.2957821 0.023238065 0.759722 -0.26326567 0.3602005
0.077911 0.082855254 0.13258551 -0.08636514 0.22852878 -0.18054326 -0.24507569 0.083922006
0.23438376 0.09493984 0.30756283 -0.22655937 0.7450539 0.019956604 0.09876676 0.027981397
-0.29487625 0.074770756 -0.10086878 -0.3563718 -0.016701236 0.20336983 0.12914476 -0.109013915
-0.3738244 -0.102781646 -0.17229989 -0.062084965 0.0820231 -0.5215739 -0.18175913 -0.03728619
0.17715989 -0.41648957 -0.67548954 -0.06943393 -0.11508333 -0.31140906 0.30830902 -0.2984119
-0.28513288 0.19013426 0.24131516 -0.052193027 0.049926504 0.15064128 0.4719485 0.10833618
-0.5137894 0.16858564 -0.29996789 0.37379944 -0.18855323 -0.0070557687 -0.4067586 0.4959624
-0.39258662 0.33580273 0.15380384 -0.0063605476 0.20983765 0.5738284 -0.12152824 0.4522675
-0.57888556 0.12876901 -0.29333693 0.17800853 -0.122043155 0.2329646 0.1257751 0.13724716
-0.121053 -0.43782815 0.032876376 -0.5252087 0.022232851 -0.15695785 -0.21016963 0.47877657
0.017134558 -0.13442269 0.24927315 0.17865753 -0.31791472 -0.010077757 -0.21115579 -0.40920734
-0.1999271 0.37348378 -0.34742132 0.13426915 -0.008867546 0.35849795 0.24796166 0.2471783
-0.3677749 0.4531855 -0.056132242 -0.0337324 0.043360915 -0.07087784 -0.42577818 0.17761612
-0.46989658 0.19752574 0.036849897 0.45623255 0.2609476 -0.18890427 -0.3364647 0.28151903
-0.11096135 -0.033716757 -0.23357864 -0.3772261 0.12753345 -0.10563222 0.18205893 0.31289753
0.0023086024 -0.19797699 -0.5162843 0.025516242 -0.14618178 -0.56293446 0.001765092 0.34987965
0.16943295 -0.07328312 -0.33717123 0.07533398 0.22251248 0.8246241 -0.27395114 0.16086525
0.053764075 0.2791245 -0.384167 -0.11896436 0.0794027 -0.48644713 0.17957874 -0.028901298
0.011095303 -0.25589585 -0.29687324 0.025195424 0.39914897 0.0074482746 0.45419157 -0.17979765
-0.020770146 0.025451057 0.08323209 -0.28675565 -0.349659 0.1728681 -0.6793228 -0.14455043
-0.14148954 0.13756025 0.09061964 -0.3595035 -0.37385377 -0.10225191 -0.35058683 0.10525498
-0.35311118 0.037545007 -0.32183388 0.16647471 0.06876361 -0.45855445 -0.45997006 -0.055892788
0.12904297 -0.30898863 -0.55126673 0.42691815 -0.09042892 0.30020165 0.105900586 -0.27427214
0.12142892 -0.42560375 -0.25288734 -0.5541138 -0.38630417 0.15984906 0.34609663 0.08500444
0.09902455 0.22577283 -0.0667304 0.35600433 -0.25553605 -0.055270378 -0.1513975 0.58706677
0.18154378 0.5062654 -0.15110451 -0.25721136 -0.0025638232 0.052655388 0.16923147 0.30330816
0.08933496 -0.40461767 0.048771914 -0.5839876 -0.5484753 0.22669022 -0.25047728 0.20139208
-0.14395529 -0.13726707 -0.004160475 0.47471833 -0.013288477 -0.06316845 0.19068715 -0.039628558
-0.56075627 0.12908235 0.11453683 0.30362296 0.176381 0.39263088 0.290896 0.3139228
0.23487394 -0.063929595 0.11101576 -0.47912297 0.07212503 0.14733306 0.15875705 0.12861295

bias f4 [64]
00000000: 58c5 3cbc 2a17 eebc 0000 0000 8746 65bc
00000010: e49c 233b f0c1 21bd f91f 2535 0000 0000
00000020: 8e4d dd3c f347 213c 0000 0000 81d5 903d
00000030: 8a6f ac3c 3a98 7ebd 173c a03d cc46 aabc
00000040: f751 b6bb 406e a43d 81b2 99bc bac4 2d38
00000050: 0000 0000 fb1b f5bc 8dea 2dbd b939 96bb
00000060: 0000 0000 2fab b0bb 8b41 f5bb c613 823b
00000070: 0d6c 973c 0000 0000 898c 403b 0000 0000
00000080: 9611 023d b73e 323c dbbf 043c cb7f f538
00000090: b211 7abd 0bd3 bdbb f51b dc3c 943b b13b
000000a0: 4412 4b3d fa21 debc 0d3f 123c 73d9 323d
000000b0: 0000 0000 e1d6 19bd 53ec 26bc 4e79 593d
000000c0: 0000 0000 2b2a c9bc 0000 0000 72f2 21b9
000000d0: 717a e2bc dcd2 adb6 c499 1bbd b5c9 a0bc
000000e0: 6202 e135 1d46 0dbc 0000 0000 ab87 7bbd
000000f0: 3765 cd3a 7648 17b9 769e 7a3c d1bd e4bb
-0.01152166 -0.02906378 0.0 -0.013993866 0.002496534 -0.039491594 6.1513816e-07 0.0
0.02701452 0.009843814 0.0 0.07071973 0.02104928 -0.062156893 0.07823961 -0.020785712
-0.00556397 0.08028841 -0.018761875 4.142963e-05 0.0 -0.029920569 -0.042460013 -0.004584518
0.0 -0.0053915004 -0.00748462 0.0039696423 0.01848414 0.0 0.002938064 0.0
0.031755053 0.01087921 0.0081023825 0.00011706314 -0.06105203 -0.0057929805 0.0268688 0.0054087136
0.049577966 -0.02711581 0.008926165 0.043664407 0.0 -0.03755844 -0.01018818 0.0530942
0.0 -0.02455624 0.0 -0.00015444474 -0.027646275 -5.180349e-06 -0.03798844 -0.019627431
1.67645e-06 -0.008622673 0.0 -0.06140868 0.0015670423 -0.00014427476 0.015296569 -0.0069806357
