src/GraspNode/models/model.pt (torch, 694664 bytes, 27 tensors)

weight f4 [16, 1, 1, 1]
00000000: 6293 6e3d 1c89 28bf baba a03e f271 953e
00000010: 24c9 1fbf 135b 6abe 45fa 2cbf c7be 803e
00000020: 91f7 d8be bec6 3a3f 4e49 3b3f 0a73 733d
00000030: ccda e8be b849 38bf 0c2a 0fbe 7353 b1be
0.058246024 -0.6583421 0.3139246 0.29188496 -0.6241629 -0.22886305 -0.6756938 0.25145552
-0.42376378 0.72959507 0.7315873 0.05943588 -0.4547943 -0.71987486 -0.13980883 -0.3463398

bias f4 [16]
00000000: e12a 883e be44 48bf f4ee 633f dfe1 6fbf
00000010: 006a 423f 11d0 a3bd 4664 063f 244e c23e
00000020: 1013 193d ff09 983d f3a3 313f 9c19 193e
00000030: f28a 093f 8652 23bf 5732 373f 2a2b b13e
0.26595214 -0.7822989 0.8903649 -0.93704027 0.75942993 -0.0799867 0.52496755 0.37950242
0.037371695 0.074237816 0.6939079 0.14951175 0.5372764 -0.63797796 0.7156119 0.34603244

weight f4 [32, 16, 3, 3]
00000000: 4541 203d 25d8 083d 14ca 403d afa4 c13d
00000010: 37d1 5b3b 12c2 23bd 90c1 abbc 8009 50bd
00000020: 9e32 243d de72 65bd e917 5fbd d6c8 dc3d
00000030: 0c99 7b3d f93d d5b9 eae6 af3c 6b3e 30bc
00000040: b6b2 213d 6e5d 9fbd baf3 4bbd 5055 b53d
00000050: affd ae3d 30de 5a3c c9b2 33bd eca3 b23b
00000060: 80cb 1ebd 56fd 27b9 0012 273d cb92 4b3d
00000070: ceba 15bc 1016 acbb ed5c 113d be79 84bd
00000080: c9d0 2ebd abd4 553b 98c4 42bd 6e12 15bd
00000090: d1fb 8d3c 8131 2d3d f180 133d 8d6d 30bd
000000a0: 61a2 233d 7a8d 31bc db3c a0bc 7b00 a13d
000000b0: f674 7b3c 8ad4 06bc a43c 993c d6c9 a13c
000000c0: 8f47 6a3d 6c6c 9ebd 2379 8c3c 8b05 6cbc
000000d0: 0e73 0cbd fbf5 a8bc 8c25 253d 80d0 213d
000000e0: f56c 273d 3af8 7a3d 633c 85bd a15c 5cbc
000000f0: 5038 1a3d ebc5 92bb cf86 9bbd 3648 22bd
00000100: 5961 febc 187e 803d b08d 643d a754 ac3d
00000110: a75b 82bd e764 a6bd 26d6 5fbd c010 123c
00000120: 8220 ecbc 458a 74bd 3709 cc3d 06b9 20bd
00000130: 3ddc 62bd 1ea1 9e3d abef b7bc cb9a 593d
00000140: f0b1 a23c e1a0 9f3c d25d a93c afc1 a2bd
00000150: 757a debc 7e65 13bd d415 83bd 401b 723c
00000160: 9662 883c 76d2 0dbd 2bc9 943d b4a2 13bd
00000170: c48a af3b b141 b3bb 05cd 7dbd 239d 86bd
00000180: 606d 0b3d 1e13 073d 9610 53bd 8cde 07bc
00000190: c73f 6abd d0ed 3b3d 39cf b73d 1f78 443d
000001a0: 84c0 4ebd 230a 343d 43a2 8d3d dba9 8bbc
000001b0: 7b23 c9bc 5b23 bc3c 07bf 3c3d 4f6e 1dbd
000001c0: 3f7a aabd 4b04 bdbc abe0 933b 807b 92bb
000001d0: 33ee 8c3d 98c0 3ebc fa01 ffbc 0039 3cbd
000001e0: cb99 babd 2259 cc3c bda8 e03d 56ba a5ba
000001f0: c88a 98bd a65f f23c 5c52 953d cf15 69bd
00000200: d298 ac3b 9d5e 453c 17d5 49bd 7f0e 4dbd
00000210: 9b6d 153d ab0b 8cbd c05a abbc 7ec7 61bd
00000220: 9a92 683d 2a08 533d 9f82 e33c 8f43 7fbd
00000230: c062 d83d 804d f33b b850 3dbd d6a1 b2bb
00000240: dbae 71bd 5617 7cbb 839a 3e3d e2d6 0abd
00000250: 8bda a03d 0bf6 fb3b ef7d 34bc 81d0 0b3d
00000260: bb9a 07bd a6a9 9ebc c6f0 5fbd 76e3 463d
00000270: 465d b73d 3e9a 713d ce9b 803d 0a6b fb3d
00000280: 8210 df3d 1007 89bd 86a9 9b3c 16ce e9bb
00000290: c6cd e73c d28e 3dbc cd2f 0e3d a1db bdbd
000002a0: 16d1 2e3d 776c bb3d 7715 febc b6c0 87bd
000002b0: d4de 8dbd 3bf6 82bc 7dca 253c eb7e 093d
000002c0: 44ab 5b3b 12db 973d 2602 163c 039f 883c
000002d0: 1868 35bd 9fdb a73d eefb 023d aafe 7cbc
000002e0: 3834 743d 6414 233d 2c82 2a3c 40df a1bc
000002f0: c557 aa3c 2b3a c33b e86c 47bd ab4c 9c3a
00000300: 1955 783d a35d a7bc d457 453d 48fc 713c
00000310: 267c 25bd 6719 88bc 4073 87bd 70fd 9d3c
00000320: 08cb 503d 877d 9f3d 5882 ca3d 9847 733d
00000330: 5d9c 2f3d 9b13 423b 2981 c33d 887f 02bd
00000340: d681 b9bc eb32 e3bc 3f12 50bd dee9 4cbd
00000350: 380e febc 8c4e 943d 6dc5 dfbc 0eaa b7bd
00000360: f6f9 9bbc d4a5 9a3d aba7 a43c 8416 d53b
00000370: af13 233c d2ff ff3d 6de3 8bbd cae0 a53d
00000380: 5f7c 983d e3f8 553d 38d6 45bd 50d5 dfbc
00000390: 4153 ebbc ab4c c93d 85bd bcbc c6d8 95bd
000003a0: d88b 723d 1846 783b 96d4 3a3c 539e 63bd
000003b0: 3ae0 9fbd ff12 a73d fea0 40bd 9ca5 f0bc
000003c0: dbce 16bc 9cb0 813d 309c abbd 3b5d 43bd
000003d0: b0ea 36bd 761b 2cbd eeb5 693d 9324 823d
000003e0: 7ce8 b03c 52c3 973d e8a9 2fbd 547b 87bc
000003f0: d01c 8abd ab12 2bb9 c6dd 91bd 01ec a9bd
0.039124746 0.033409256 0.047067717 0.09455239 0.003354145 -0.03998 -0.020966321 -0.05079031
0.040087335 -0.05601775 -0.054466162 0.10780494 0.061425254 -0.000406727 0.021472413 -0.010757069
0.039477073 -0.07781492 -0.049792983 0.08854163 0.0854448 0.013358638 -0.043871675 0.00545167
-0.03876829 -0.00016020736 0.04078865 0.04970054 -0.009138776 -0.0052516535 0.03548901 -0.06468533
-0.04267958 0.003262798 -0.047550768 -0.03639453 0.01733199 0.04228354 0.03601164 -0.043073226
0.03994978 -0.010836953 -0.019560268 0.0786142 0.01534771 -0.008229384 0.018705674 0.019749563
0.05719715 -0.077355236 0.017147606 -0.014405618 -0.034289412 -0.020625105 0.04031901 0.03950548
0.040875394 0.061271884 -0.065056585 -0.013449819 0.03765136 -0.00447916 -0.07594072 -0.039619647
-0.031052278 0.062740505 0.055799186 0.08414584 -0.063651375 -0.08124714 -0.054647587 0.008915126
-0.028824095 -0.059702177 0.09962695 -0.039238952 -0.055385817 0.077455744 -0.02245315 0.053126138
0.019860238 0.019485893 0.02067462 -0.079470985 -0.027158001 -0.035985462 -0.06400648 0.014777005
0.016648572 -0.03462454 0.07264932 -0.036043838 0.0053571183 -0.0054704775 -0.0619631 -0.0657294
0.034039855 0.032977216 -0.05152949 -0.008292805 -0.05718973 0.045881093 0.089750715 0.04796612
-0.050476566 0.04395498 0.069157146 -0.017048767 -0.024553051 0.022966078 0.046080615 -0.038435277
-0.08324098 -0.023073336 0.0045128665 -0.0044702888 0.068813704 -0.011642598 -0.031128872 -0.045952797
-0.09111365 0.024944846 0.10969684 -0.0012644033 -0.074483454 0.029586624 0.072910994 -0.056905564
0.005267241 0.012046483 -0.049275484 -0.050062653 0.03648148 -0.06838163 -0.020917296 -0.05512189
0.056780435 0.051521458 0.027772246 -0.06232029 0.1056571 0.00742501 -0.046219558 -0.0054514213
-0.059004646 -0.0038466058 0.046534073 -0.033896334 0.07854184 0.0076892427 -0.011016353 0.03413439
-0.033106547 -0.019368004 -0.05467298 0.048556767 0.08953337 0.058984987 0.062797174 0.122762755
0.108918205 -0.066908 0.019001734 -0.007135163 0.028296363 -0.011569696 0.034713555 -0.092704065
0.04267987 0.091515474 -0.031016095 -0.066285536 -0.06927267 -0.015986552 0.010119078 0.033568304
0.003351883 0.07414831 0.009155786 0.016677385 -0.044288725 0.08196186 0.03197854 -0.015441576
0.059620112 0.039814368 0.010407012 -0.019759774 0.020793805 0.005957862 -0.048687845 0.0011924704
0.06062803 -0.020430392 0.048179463 0.014769621 -0.0404016 -0.016613675 -0.06613779 0.019285887
0.050974876 0.07787614 0.09888142 0.05939445 0.04287373 0.0029613737 0.0954612 -0.031859905
-0.022644918 -0.02773424 -0.05079865 -0.05002772 -0.03101264 0.07241544 -0.02731582 -0.08967982
-0.01904009 0.075511605 0.020099482 0.006502928 0.009953423 0.12499966 -0.068304874 0.08099516
0.07445597 0.05223931 -0.048299998 -0.027323395 -0.028726222 0.098290764 -0.023039589 -0.07316737
0.059215397 0.0037883576 0.0114032235 -0.05557091 -0.0780644 0.0815792 -0.047028534 -0.029375844
-0.009204592 0.06332514 -0.083794 -0.047696333 -0.04465741 -0.042018376 0.057058267 0.06354632
0.021595232 0.07410301 -0.042886645 -0.0165383 -0.06743777 -0.00016314785 -0.07122378 -0.08296967

bias f4 [32]
00000000: 1df6 8a3d 0391 2abc cec9 8c3c 69db 02bd
00000010: b6ee 6e3c 798b 333c e01e 50be 9f4e 8bbd
00000020: 000a f0b8 7132 f0bc 9514 783d 24bb 773d
00000030: 72f1 863d 6d37 6d3d 04cc 1d3d 7ced 8c3d
00000040: 7a38 3ebc dd0d 21bd 8b5f d63c ab9d 973c
00000050: 8938 8ebd a011 733c 7364 2a3d 9d86 563d
00000060: 7e77 3cbd 9748 c9bd f3e5 a93c c825 54bc
00000070: 33e3 5b3c baa2 3fbd b8cb 15be 4b28 7d3d
0.06785224 -0.01041055 0.017186072 -0.031947527 0.01458328 0.010958546 -0.20324278 -0.06802105
-0.000114459544 -0.029320927 0.060566504 0.060481206 0.06589021 0.057914186 0.038524643 0.06881234
-0.011610145 -0.03931986 0.026168605 0.0185078 -0.06944377 0.014835745 0.041599702 0.05237447
-0.046012394 -0.098282985 0.020739531 -0.012948461 0.013420868 -0.046786048 -0.14628494 0.061806004

weight f4 [64, 96]
00000000: a447 e7bb 7e72 cc3a fd6d c03b e745 ac3d
00000010: 6540 99bc 27f1 d4bc fd9f 8bbd cd07 0f3d
00000020: b7a8 2bbe e297 493d be22 8bbd 34d8 ed3c
00000030: 7a4d 3abd 16ab f2bd 23ae bbbd 468f 70bc
00000040: 2131 52bc ec9d 463d a71e 9ebc a73a 723d
00000050: 51e2 4fbc 91e3 6fbc 76b0 c73d 30e3 eabd
00000060: c406 94bd 38b8 843b 0f61 923a 8b94 08bd
00000070: 855f 9cbd e250 e7bc 1c83 173d a4d9 3e3d
00000080: 00ed a03c c20d 01b9 6aaa ca3c b106 93bc
00000090: 60ac 1ebd f571 21bd 49a7 c8bd a33a d9ba
000000a0: 1f07 8f3d 15f7 aabd f3c6 c3bd 7110 20bd
000000b0: a3fd f3bd 38c3 a1bd 7d63 893b cd42 8dbe
000000c0: b52e 08bd b284 8abd fc0d 8b3d 24b3 5f3b
000000d0: 2676 c03d f2ca bbbd 689d b5bc abec 843d
000000e0: 11fb c73d ddda a83d aa8b 8b3d da3a ddbd
000000f0: 931a a0bc 97fa 143c 2338 ad3c dfba 60bd
00000100: e600 a1bc ee67 85bd 025f 243e b0e7 593d
00000110: 6378 15be 750f 2b3d baeb 96bd 1a2a 103e
00000120: a521 4d3c fec9 cfbd e5f3 95bc 3578 893d
00000130: 4f92 2b3d b7a0 58bd eee9 14bc b2be a53d
00000140: 8795 3bbd 7841 bfbd edaf e63c a048 fb3d
00000150: d5c2 28bd e3fb 87bc b282 dd3c 3878 88bd
00000160: 764b 2dbc 6d2c 5d3d 6331 aebd 340e fc3c
00000170: ae22 063d 4dbc 8f3c 7271 68bd bb7d 5d3d
00000180: 7f85 8ebd a8fc bd3d 858f 183d fffa a4bc
00000190: a189 aebc b590 1c3d ebbb 1c3c 367c 8b3d
000001a0: bd96 b03c a209 513d 9e68 babd b2dd c3bc
000001b0: 0226 96bc 88ac 8abd e569 b4bc f05d 16bb
000001c0: ba61 88bc 8098 e63b 5116 71bd 2bf5 bcbd
000001d0: 2c58 b13d 7c27 bcbc 3315 3c3d ad41 4e3d
000001e0: 6c75 c4bd ee4e 83bd 1819 40bd 8d23 26bd
000001f0: f607 b7bd 79a1 20bd 8e2f d43c 7d37 62bd
00000200: 4178 0d3d c4f1 b43c 6316 453b 7777 a4bb
00000210: cbd9 4c3d 4da9 b0bd 292b 87bd d51a 3e3d
00000220: 263f 40ba 9f86 92bd dd6b 0f3c 4fa5 c23c
00000230: 456e 9a3d b5be 70bd 5243 98bd a078 c63d
00000240: 1f3d 77bd 3563 633c e7fc c4bd 3bf1 2f3d
00000250: 869b ab3d 04e9 943d 5648 76bc b98e ba3d
00000260: b05c 5f3b 69f9 013c 448d bbb9 30b0 6c3d
00000270: 0185 c33c acd5 433d ad4c 683d bb3e f13c
00000280: d6b6 9cbd f918 e6bc ad60 4ebd 80dc 6fbd
00000290: 093e ebbb f18b abbd dd44 653d 0496 3cbd
000002a0: 73f5 0d3b b3b2 c43c fb51 76bd 475f a8bd
000002b0: 7b11 cebd 1426 38bd fead 9a3c e440 35bd
000002c0: 4f45 21bd 2776 dfbc db92 8d3c 25a3 80bb
000002d0: e507 8cbd dc78 debc 7716 bcbd 7ed5 633d
000002e0: b40b 99bd 6f0b b6bd b5ff 4c3d a1eb 8cbc
000002f0: c6bd bd3d 5479 44bd 2e97 bbbd 6c1d 5fbd
00000300: fd5d 9bbd 4c70 7fbc bb26 6e3c 2f19 4e3d
00000310: 818b fdbc 5ca5 733d 198d b8bc 127b a0bd
00000320: 1715 a13d 74c6 8c3c 7dd2 6cbc f783 c03d
00000330: 02a8 8b3d d647 7bbd b78b 863d 8150 173d
00000340: 49c0 c33d 5aed b7bd e5fc 88bd e5fc 7d3d
00000350: 679a 9cbd 138d 2e3c 3a5a d9bc 5d9a 7e3d
00000360: ae22 05bd 88d2 e93c ed8e 8e3d b418 22bd
00000370: c5f6 0f3d a88d 843d 846b 67bd da5f 86bd
00000380: 17a9 b53d db8f 423d 58e7 293c 4972 af3d
00000390: de20 a0bd 32f8 8fbc 1a8b 743d 7dd7 173d
000003a0: 597a 29bc 5029 b6bd 27fd 963b 6d0d 97bd
000003b0: df79 d1bc 95a9 9e3c dd01 62bd f0f5 31bd
000003c0: ed56 b4bd 99a9 48bd 63eb 86bd 4b64 113d
000003d0: 3eeb 29bd 0566 86bd d538 013d b8f0 bbbd
000003e0: 9a54 a43d 543b d1bc b48f 37bc 94f2 713d
000003f0: 9f75 413d 3f55 fe3c 2568 bdbb 0cc0 bcbd
-0.007058101 0.0015598086 0.0058724866 0.0841177 -0.018707464 -0.025993897 -0.06817625 0.03491955
-0.16763578 0.049217112 -0.06793736 0.029033758 -0.045484044 -0.11849038 -0.09164073 -0.014682597
-0.012829096 0.04849045 -0.019301726 0.059137966 -0.012688235 -0.014641658 0.09750454 -0.11469114
-0.07227853 0.004050281 0.0011167842 -0.033344787 -0.076354064 -0.02823681 0.03699027 0.046594277
0.01964426 -0.00012307524 0.024739463 -0.017947527 -0.03873861 -0.03941532 -0.09797532 -0.0016573261
0.0698378 -0.083479084 -0.09559431 -0.03907818 -0.11913612 -0.07898563 0.004192768 -0.27590027
-0.03324767 -0.06763591 0.06789777 0.0034133876 0.09397535 -0.09169568 -0.022169784 0.06490453
0.09764684 0.0824487 0.06813748 -0.10802241 -0.019543922 0.009092948 0.021144932 -0.054865714
-0.019653749 -0.06513964 0.16051868 0.05319947 -0.14596705 0.041762788 -0.0736918 0.1407856
0.0125202285 -0.10145949 -0.018304775 0.06712381 0.041887578 -0.052887645 -0.009088976 0.08093013
-0.045796897 -0.09338659 0.02816006 0.122697115 -0.04120143 -0.016599601 0.02703986 -0.06663555
-0.010577073 0.053997446 -0.085055135 0.030768491 0.032747917 0.017545843 -0.056748815 0.054074984
-0.06959056 0.09276706 0.037246246 -0.020139216 -0.021305861 0.03822394 0.0095662875 0.06810801
0.021556253 0.051034577 -0.091019854 -0.023909424 -0.01832867 -0.06771189 -0.02202315 -0.0022944175
-0.016648162 0.0070372224 -0.058859173 -0.092264496 0.086593956 -0.022968046 0.045918655 0.050355602
-0.09592709 -0.06411539 -0.04689893 -0.040561248 -0.08937065 -0.039216492 0.025901582 -0.0552287
0.03453851 0.02208794 0.0030073158 -0.005019124 0.05001239 -0.086260416 -0.06600029 0.046412308
-0.00073336286 -0.07154583 0.008753744 0.023760466 0.075405635 -0.058775622 -0.07434715 0.09690976
-0.060361024 0.013878633 -0.0961855 0.042954665 0.08379273 0.07271007 -0.015031895 0.091092534
0.0034082346 0.007932999 -0.0003577267 0.057785213 0.023867132 0.047811195 0.05671375 0.029448858
-0.07652061 -0.02808808 -0.050385166 -0.058559895 -0.007179026 -0.08376301 0.055973876 -0.046041504
0.0021661192 0.024010992 -0.060136776 -0.08221298 -0.10061928 -0.04495819 0.018881794 -0.044251338
-0.03937274 -0.02727802 0.01728194 -0.0039256983 -0.06837443 -0.02715724 -0.09183972 0.055623524
-0.07472935 -0.088888995 0.05004855 -0.0172022 0.09264712 -0.04796727 -0.091596946 -0.05447142
-0.07586286 -0.0155907385 0.014535601 0.050316986 -0.03095031 0.05948387 -0.022528218 -0.07835974
0.07865351 0.017184474 -0.014454481 0.0940017 0.06819154 -0.061347805 0.06569617 0.03694201
0.0955816 -0.08980818 -0.06688861 0.062008757 -0.076466374 0.010653752 -0.026532281 0.06215893
-0.032503776 0.028542772 0.06960855 -0.03957434 0.035147447 0.06472331 -0.05649902 -0.06561251
0.08870142 0.047500473 0.010370098 0.0856672 -0.07818769 -0.017574403 0.05970297 0.03707074
-0.010344111 -0.088945985 0.004607815 -0.07375608 -0.025570808 0.019367972 -0.05517756 -0.043447435
-0.08805642 -0.048989866 -0.06587865 0.035496037 -0.04148411 -0.065624274 0.03154834 -0.09176773
0.08023949 -0.025540985 -0.011203695 0.05906923 0.047231313 0.031046508 -0.0057802373 -0.092163175

bias f4 [64]
00000000: 754e 00be 1096 fe3c 2534 d8bd 1d37 adbd
00000010: f9db 6d3d 2685 eebd 37d1 d8bd 69f7 4b3c
00000020: 293c d0bd 5ad5 21bd 3f14 b2bd 0331 a03d
00000030: f818 833d e97e 4c3d 55f4 89bd 50e3 823c
00000040: a209 743d ef8e d13d 1e89 183c 17a4 57bd
00000050: e0dd a53c 2c9d f83c 778a aebd a270 9bbd
00000060: 6bfb ebbb fc0d f63c 6ab1 25bc 0f13 79bc
00000070: c78d bb3c a231 a63d 8102 7ebd cfd7 4e3d
00000080: 361a 72bd 5d1a b03b ab2e 48bd 0ae0 f5bd
00000090: 1803 a53b 0042 98bc 33a2 e53b 9720 3d3d
000000a0: 1df7 4f3d baee 193d eac0 a33d 12c9 9a3b
000000b0: 90cd f03c 6fef f8bd 819e d4bd ba70 443d
000000c0: 340b 273c 9ab4 31bd af6e e5bb b912 993c
000000d0: 6e0a 94bd e99a a53d b54a 2d3c f4bc 09bd
000000e0: 6705 e4bd 1971 843c 819f af3d 6485 90bd
000000f0: c0c2 7e3d e294 313d b7ec b4bd f176 edbb
-0.12529929 0.031077415 -0.10556821 -0.08457778 0.05807111 -0.1164649 -0.105867796 0.012449124
-0.10167725 -0.03951011 -0.08695268 0.07821848 0.06401247 0.04992572 -0.06736056 0.015977532
0.0595795 0.102323405 0.009310035 -0.052646723 0.0202474 0.030348383 -0.08522504 -0.075898424
-0.007201602 0.030035965 -0.0101131 -0.015202298 0.022894753 0.081149355 -0.062014107 0.05049878
-0.059107028 0.0053742365 -0.04887263 -0.12005623 0.005035769 -0.018586159 0.007007861 0.04617366
0.050772775 0.037581183 0.0799578 0.0047236765 0.029394895 -0.12155043 -0.10381795 0.047959067
0.010195542 -0.043385126 -0.00700172 0.018685685 -0.07228552 0.080861874 0.010576894 -0.033627465
-0.11133843 0.01616721 0.08575345 -0.07056692 0.062197447 0.043354876 -0.08834212 -0.007246845

weight f4 [64, 7]
00000000: abde 4bbf e105 193e 7da2 863d b349 d03e
00000010: a13b 1abf 62e3 bdbd 5152 b0be 8a48 d33c
00000020: 05a1 5abf 4975 a0be d0c9 a63e 3e20 5abe
00000030: b895 bcbc 9a91 b43e 4831 8a3e 5b48 543f
00000040: 3527 253f da0e a7ba f078 033e 1f2e dd3d
00000050: 06fc 0c3e 71e6 2f3e f62c ad3e ff93 883e
00000060: 0c92 1e3f b633 2f3f 3000 d63e 99a5 37be
00000070: 7712 383f 543f 363c 4022 273f 2508 c7be
00000080: 6ed6 67be f54e e3be 5d84 543e 9fee a0bc
00000090: 5ec4 183f e034 58bf 93d4 ebbe 5c0c 0fbf
000000a0: 4599 07bf b398 e53d 913e 1dbf 6825 bb3e
000000b0: 7220 aabe f85b 14bf 7df3 793d ba42 c13e
000000c0: 1c30 463e 8e89 1fbf 1cd7 d9be 25a9 9c3e
000000d0: c391 763e 950f 473e 8589 053f bdf8 8fbe
000000e0: 2e66 c13e 9e1f b93d bee2 abbb 853f aabe
000000f0: f00e 83be e56b c53e 4828 2cbf d24a 093d
00000100: 8530 c4bd 5c2e 703d e024 e73e a1be d53d
00000110: a66f 17bf 21e2 203f c8c8 6dbf 3f1e 5a3e
00000120: b576 87be fe81 a53e 1672 523e 1dce 68bd
00000130: 3214 b13e cfb4 1bbe d429 063f 397a 26bc
00000140: 5fd0 f5be c3a9 a93e dace 513e 7f5a 283f
00000150: 2969 493f be37 db3e 3d8c 9bbe 4f22 e9bd
00000160: 5282 293f 7d65 c5bd c972 6dbe 5b3e 333f
00000170: 913f 0abf 2c34 263e 3de9 71be c6c3 d8be
00000180: 1ef7 0ebe f92e c3be ff22 393f fa88 233d
00000190: 6822 853d 7dd5 1e3f d7df f93e c335 2cbd
000001a0: 6431 b93d e3ef 79bd 1c87 0a3f 62c7 03be
000001b0: 2ced 013f 5228 1dbf a1db 0f3f e441 14be
000001c0: d02a d8bd d559 853e 30a4 2abf c6d7 a3bd
000001d0: 7721 b7be 6760 5abf e24e 95be b0d1 bbbe
000001e0: ae7b f2bc ae7c eb3d 5b5a 44bf aa16 de3d
000001f0: 48f9 02be 2123 c03e 26da 39bf 7079 f2be
00000200: 422b d5bd c042 babc c9d5 73be 06f8 a2bd
00000210: e064 21bf 7230 01bf cbc0 eabe 9d1a 4f3f
00000220: 9901 763c cc19 f6bd 9aeb 963e 9e8a d23e
00000230: 75c4 01bf bdfa cb3c a6f1 0c3f 4c63 18bf
00000240: 70a8 653e 842a debe 0d9d 023e 869d 173f
00000250: 77be 83be f707 c03e caa2 0d3f 4234 213e
00000260: b1b0 b93e c58f 04bf 8a68 1f3e 3d87 113e
00000270: 7423 de3e 5f82 1cbe eaa9 2a3f f831 d9be
00000280: 8ff8 32bf 7526 eebd 100d 17bd 1cfb b63e
00000290: 9470 b73e f13a 6cbf ada3 87be e192 c73e
000002a0: 976e d1be 9fe0 4d3d 56e4 863c 022b 21bf
000002b0: c1a1 32bf 367c c0bd b47a 54be e1b3 1f3f
000002c0: b8f1 c23c 9de7 2ebf 0133 3d3e 4a2e 6bbe
000002d0: c1d8 b9be 16bd ef3d f06e c03e a97f 603f
000002e0: 3a48 9cbd 381e dbbe b69a 1f3f f492 83bd
000002f0: 5bbd 0cbe 083d 223e fe21 33bf 91e8 873e
00000300: 9e7c 733c 2732 7f3f 30db 1c3e 4b6c edbd
00000310: 58ac 3abe e43f c3be ce86 20bf bee8 efbd
00000320: dc87 22bf 9bc0 2cbe 37ef 14bf 7c40 393e
00000330: 8b78 bcbe 3584 fb3e 7823 b5be 029a 613f
00000340: 3645 8fbe ba57 fd3e 8062 cebd 669c 823e
00000350: 08a0 22bf 60b4 c9be 64d2 96bd c45f e33e
00000360: 18ed b8be 2232 363e c937 353e cef3 e63e
00000370: 41a2 b23e f4c7 823f 735d 9a3e 0881 ac3d
00000380: 321d 533f 745b 6e3e 944a 153e 2905 fbbe
00000390: c9db bb3e aa5b b63e cb60 61bd 5e15 a53d
000003a0: daa3 24bf 3baa 803f 6d0f 573e 0171 ba3e
000003b0: 8c42 5a3e ff8d c73e 0e0d d5be 6504 373f
000003c0: d66b b3be 298b 1a3f 7f10 ae3e ed45 41be
000003d0: 07de 0cbe b67f c33e 56b6 f23e 5959 a1be
000003e0: f178 eebe 03c9 f2be ce19 fb3d a5aa babe
000003f0: 44b0 063e af2f a03c 6ee4 52be b686 3cbf
-0.7963664 0.14943649 0.06573961 0.40681228 -0.60247236 -0.092718855 -0.34437802 0.025791425
-0.85401946 -0.3133948 0.32575846 -0.21301362 -0.02302061 0.35267335 0.26990724 0.82922906
0.6451295 -0.0012745515 0.12839103 0.107998125 0.13768014 0.1717775 0.33823365 0.26675412
0.619416 0.6843828 0.41797018 -0.17934264 0.71903175 0.011123497 0.65286636 -0.388734
-0.22640392 -0.44396177 0.20753618 -0.019645033 0.5967463 -0.8445568 -0.4606062 -0.55878234
-0.52968246 0.11210766 -0.61423594 0.36551976 -0.3322788 -0.57952833 0.061023224 0.3774622
0.1935429 -0.62319267 -0.42546928 0.30597797 0.24079041 0.19439538 0.52162963 -0.2811946
0.3777327 0.090392336 -0.0052455356 -0.33251587 -0.25597334 0.3855888 -0.67248964 0.03351862
-0.09579567 0.05863796 0.4514532 0.1043675 -0.59154737 0.62845045 -0.9288449 0.213006
-0.26457754 0.3232574 0.20551333 -0.05683719 0.3458572 -0.15205692 0.52407575 -0.010160976
-0.48010537 0.3313733 0.20489064 0.65763086 0.78676087 0.42815965 -0.3038043 -0.11383497
0.6621448 -0.09638498 -0.23188318 0.7001702 -0.54003245 0.1623084 -0.2362413 -0.42336863
-0.13961455 -0.38121775 0.72319025 0.039925553 0.06500703 0.6204451 0.4880359 -0.04204346
0.09042624 -0.06101979 0.5411241 -0.12869027 0.5075252 -0.6138965 0.561945 -0.1447826
-0.10555041 0.260451 -0.6665678 -0.0800014 -0.3576772 -0.8530335 -0.29161745 -0.36683416
-0.02959999 0.1149839 -0.7670037 0.108441666 -0.12790406 0.375268 -0.72598493 -0.47358274
-0.104086414 -0.022736907 -0.23812021 -0.07957463 -0.6304455 -0.50464547 -0.45850214 0.80899984
0.015015029 -0.12016639 0.29476625 0.41121382 -0.50690395 0.024899835 0.55056226 -0.59526515
0.22427535 -0.43391812 0.12755223 0.59224737 -0.2573125 0.37506077 0.5532652 0.15742591
0.36267617 -0.51781875 0.15567222 0.14211746 0.43386424 -0.15284108 0.6666552 -0.42420936
-0.6991052 -0.11628429 -0.03687769 0.35738456 0.35828078 -0.9227744 -0.26492062 0.38979247
-0.40904686 0.050263043 0.016466301 -0.6295625 -0.69778067 -0.09398691 -0.20749933 0.6238385
0.023796901 -0.68322164 0.18476488 -0.22966877 -0.36298183 0.11705987 0.3758464 0.87694794
-0.076309636 -0.42796493 0.62345445 -0.064245135 -0.13744108 0.15843594 -0.6997374 0.26544622
0.014861254 0.996859 0.15317988 -0.11592921 -0.18229806 -0.38134682 -0.62705696 -0.11714314
-0.63488555 -0.16870348 -0.5817751 0.18091005 -0.36810717 0.49124303 -0.35378623 0.8812562
-0.2798249 0.49480993 -0.10077381 0.25509948 -0.6352544 -0.39395428 -0.073643476 0.44409
-0.36118388 0.17792562 0.17697062 0.45107883 0.34889415 1.0217271 0.3014942 0.08423048
0.82466424 0.23277074 0.1457923 -0.49027374 0.3669112 0.3561681 -0.05502395 0.08060716
-0.6431252 1.005195 0.21001978 0.3641434 0.21314448 0.38975522 -0.41611522 0.7149108
-0.3504321 0.6036859 0.3399696 -0.18874331 -0.13756572 0.38183373 0.47404736 -0.3151348
-0.46576646 -0.47418985 0.12260781 -0.36458316 0.13153177 0.019553987 -0.20594952 -0.7364305

bias f4 [64]
00000000: f32a 953c e512 e83c 2042 0a3c 3f4c 763c
00000010: 38e6 22bc 94a3 bfbb c584 7fbc 3d30 e6bc
00000020: 410c 0abd d3df 273c cfee d53c 58d5 b2bc
00000030: 4a50 34bb 4d2c 32bd 66c1 0d3d bb94 5c3c
00000040: d6e7 983c a908 4cbd 368a 22bc eedc a6bc
00000050: bf0b c2bc bb92 043c a4dc 36bc 0fa5 b53c
00000060: f575 48bd d7bf a33c 22d4 4abd 088c 22bc
00000070: 5e32 83bc 88f7 bcbc 597b 033b 6809 153c
00000080: ee75 f7bc 38e5 133b b53f 523d 6765 80bd
00000090: 660c 57bd 7489 28bd 8604 15bd ea88 1ebc
000000a0: 76a8 d83c 4455 593a 1f87 603c 5e8b 5e3d
000000b0: c708 07bb edd4 173d b516 a0bc 2e5a 853c
000000c0: 97c1 563c c2c5 103c f430 adbc fe0f ba3c
000000d0: b061 203d e2b2 593c 920e b5bb be7a 83bc
000000e0: a94f 023d 92cd ac3c b2fb bd3b b493 bdbc
000000f0: 1b30 e8bb af5b b4bc a167 f3bc ba91 8bba
0.018208956 0.028329322 0.008438617 0.015032827 -0.009942584 -0.0058483575 -0.01559562 -0.028099174
-0.033703092 0.010246235 0.02611485 -0.021830246 -0.0027513676 -0.04349928 0.034608267 0.0134631945
0.018665235 -0.049812946 -0.009920647 -0.02036902 -0.023687242 0.008091624 -0.011161003 0.022173433
-0.048940618 0.019988937 -0.049518712 -0.009921081 -0.016015228 -0.02306725 0.0020062535 0.009096481
-0.0302076 0.0022567045 0.051330287 -0.06269341 -0.05250206 -0.04114671 -0.036381267 -0.009676198
0.026447516 0.00082905986 0.01370409 0.05433213 -0.0020604597 0.037068296 -0.019542078 0.016278353
0.013107679 0.008836212 -0.021141507 0.022712704 0.039155662 0.013287278 -0.0055254186 -0.016049739
0.03181425 0.021094117 0.0057978267 -0.02314172 -0.0070858127 -0.022016374 -0.0297125 -0.0010648288

weight f4 [256, 128]
00000000: 3f5c 4d3d 2a03 6d3c 3f78 22bc 33ab b7ba
00000010: 5c36 be3c f366 bcbd a934 26bd 4fdd 8ebd
00000020: df92 98bd ad62 3cbd 79e2 af3d 0eca d93d
00000030: 1d81 323d c43e 25bc b010 033e 50be 9fbd
00000040: bc0f 213e a4c5 f03c c06d debc f8e8 bbbd
00000050: d8d5 acbd ae78 5f3d b161 88bd 13cb 25be
00000060: 6ff4 1abe 3ac8 7e3e 6124 46bd fb83 01be
00000070: f247 75bd 62de cfbd b7ef 1fbe c6e0 333c
00000080: c514 fc3c 95b3 c6ba 1bd5 b1bd e9a9 be3c
00000090: 2c4d c8bc 6e5d 27bd 94be ccbc e12f 08bd
000000a0: 3cc1 9d3b 707e 01bd 3c74 7bbb 4ade 3c3e
000000b0: 0bd6 b83d 653c cdbd c963 1abe f56c b43c
000000c0: d939 2f3e 3565 a73d 4934 773d a856 c9bd
000000d0: f53d 2e3c 2a52 97bd 12a8 f2bd 0299 19be
000000e0: 77f6 3a3d 68f8 463d 1783 0ebc 02de 12bd
000000f0: 5935 213d 6e57 023e cf9d 02bd c9e3 96bd
00000100: 1694 aebd 2cca 11bd a110 5bbe 2d61 393c
00000110: bf39 acbe 4b4f ca3d 7c5e 123e ea64 73bd
00000120: d07e 8dbe a087 8ebb 812b b43c c24d 433d
00000130: 1ddd 22be 62b8 d83c 16dc c73b 55ef 083c
00000140: 34b1 623d 5ff3 223d 1104 acbd fe6c 1b3e
00000150: ffc0 083e a139 6ebe b4ae 81bd 26c1 dfbd
00000160: 119c a1bc a696 3f3d faf0 cd3c 1aba 7fbe
00000170: 87b7 a3bc 75f0 cabc d650 283d 898f bbbd
00000180: 9dae 6bbd 6011 5fbe 45dd d73b b3e2 d83d
00000190: 211a 093c 7200 b63d 3c1f dd3c 65ed 043e
000001a0: 40f3 7e3d bb0b 643e 3c26 263c 4dcb ed3c
000001b0: 24ff f73d 8c54 1a3e ba31 273c 6c78 c8bd
000001c0: 8af7 8a3e 0d8d dd3d 3d0b c9bd 1eb1 8fbb
000001d0: 7da7 973c 707d 2dbe c9a5 d23d 1861 063e
000001e0: 0115 863e 2e63 c9bd 105f 2a3d 2716 9fbe
000001f0: 6023 b2bd b946 183d dad8 46bd e6e5 153e
00000200: 23c3 1cbc 562f 7c3e 3c70 6b3d 8c29 11bc
00000210: a8b1 6ebc 31b9 f3bd 1c26 933d 48ea 8dbd
00000220: 1818 afbc 75b5 0c3d 2fcd eebd 4807 203d
00000230: 3e94 edbd 7833 4dbd fd66 91bd ac31 a73c
00000240: e43d 093d 1eed f43d 6b1f 173d 58c5 003e
00000250: f996 1cbe 94f3 c03c 3369 4fbd 81a6 30bd
00000260: 3ba9 c9bc e680 c13d dfb3 cebd 7a73 813d
00000270: a94f f13d 6068 043e 525e b3bc 66e7 b33d
00000280: b6aa 09bd 894d 613d de43 c4bd ce4b af3d
00000290: c668 083e 7b32 b13c b3c1 b2bd c2d9 263e
000002a0: 6a0d 7dbb ed4c e0bd e0b4 30bd c9d6 ba3d
000002b0: 5f2b a23d e263 78bd f6a2 b53d 1c54 2bbb
000002c0: c79b 9ebc 29fb 633d 76bb 163d f5bf ef3d
000002d0: 4f89 8bbe 96e9 c1bd d5db 103e 21c5 213e
000002e0: ad8e 073e 808b f43c bb1e 90bd bb5f afbd
000002f0: 63f4 9f3c 6851 86bd dda4 6fbd 2a8e bcbd
00000300: f648 0fbd d0a3 e8bd 96ce eb3d 9dfb 8c3d
00000310: 7cf4 663e dec2 2ebe c657 85bd 29f1 563e
00000320: 6320 4c3d 2c61 9d3c 6844 bdbd eb8c bdbd
00000330: b422 063d 92dc b93d 047c c53c 2b45 20be
00000340: 2928 193e 51cd 5ebd 38cf a83d 148a 253c
00000350: bd5e e1bd 50d5 b5bb 3be2 4d3e 12d8 753d
00000360: 2e85 19be a860 7aba 974a cb3d 26b2 013e
00000370: 2414 3e3d 2129 b13e 10f8 ac3d ceb7 3439
00000380: 3fd0 fdbd 866e 363e 07cb a7bd c303 763c
00000390: c440 53bd 00d8 d23c b8cc b13d fc63 0a3e
000003a0: e60a 58bd 74df 9cbe bf3c aabd 29f4 18bd
000003b0: 0e4e 5ebd f847 47be 864a e23c 6197 9bbc
000003c0: acc1 c1be 7b0d 1abe 1aef 833e c2a0 a3bd
000003d0: 9c5d 823c 5d79 4a3e c3f7 f8bd f17a 483c
000003e0: 60e9 35be 5a62 b53c 52d8 9dbd a5ad 533e
000003f0: c7bb b23e 275a cd3d 640f a73d 8beb 67be
0.0501368 0.014466086 -0.009916364 -0.0014012813 0.02321928 -0.091993235 -0.040577564 -0.06975805
-0.074498884 -0.045992542 0.08588118 0.10634242 0.043580163 -0.010085765 0.12799335 -0.07799971
0.15728658 0.029391117 -0.027151942 -0.09175295 -0.08439225 0.05455845 -0.06659258 -0.16190748
-0.15132307 0.24881068 -0.048374537 -0.12648003 -0.059883066 -0.10149838 -0.15618788 0.010978883
0.030771622 -0.0015159721 -0.08683225 0.023274379 -0.02445086 -0.040860586 -0.024993218 -0.033248786
0.004814295 -0.03161472 -0.0038368842 0.18444172 0.090252005 -0.10021285 -0.15077128 0.022024611
0.17111911 0.081736006 0.060352597 -0.098309815 0.010634889 -0.073887184 -0.11848463 -0.14999774
0.045645203 0.048576742 -0.008698246 -0.035856254 0.039357517 0.12728664 -0.03188878 -0.07367665
-0.08524339 -0.035593197 -0.21393062 0.011314672 -0.33637807 0.09878405 0.14293855 -0.05942241
-0.27635813 -0.004349664 0.0219934 0.047681578 -0.1590466 0.026455108 0.0060992343 0.008357842
0.055344775 0.039782878 -0.08399213 0.15178296 0.13354872 -0.23264171 -0.0633215 -0.10925512
-0.019727739 0.04677453 0.02513932 -0.24973336 -0.019984974 -0.024772862 0.041092716 -0.091582365
-0.05753957 -0.21783972 0.0065876567 0.105901144 0.008368046 0.08886804 0.026992433 0.12981184
0.0622437 0.222701 0.010140952 0.029027605 0.12109211 0.15071315 0.010204727 -0.09788594
0.27141982 0.10817919 -0.09816597 -0.0043851277 0.018512482 -0.16942382 0.10285527 0.13122976
0.261879 -0.0983337 0.041594565 -0.31071588 -0.086981535 0.03717682 -0.04854665 0.1463848
-0.009568009 0.24627432 0.057480082 -0.008860003 -0.014568724 -0.11900557 0.07185003 -0.06929451
-0.021373793 0.03435274 -0.116602294 0.039069444 -0.116005406 -0.050097913 -0.070997216 0.020409428
0.03350629 0.11959289 0.036895197 0.1257528 -0.15291966 0.023553647 -0.050637435 -0.04312754
-0.024616828 0.094484136 -0.100929014 0.063208535 0.11782772 0.12930441 -0.021895561 0.0878437
-0.03361007 0.055005584 -0.09583257 0.085593805 0.13321218 0.021630516 -0.087283514 0.16294006
-0.0038612732 -0.109521724 -0.043141246 0.09122998 0.07918429 -0.06064213 0.08868973 -0.0026142662
-0.01936139 0.055659447 0.03679987 0.11706535 -0.27253196 -0.09468381 0.1414636 0.15797855
0.1323802 0.029851675 -0.07037111 -0.08563181 0.019525712 -0.06558496 -0.058506835 -0.09206803
-0.03498169 -0.1135937 0.115140125 0.06883929 0.22554201 -0.17066523 -0.06510882 0.20990433
0.049835574 0.019211374 -0.09241563 -0.092553936 0.03274794 0.090752736 0.024106987 -0.15651385
0.14956726 -0.054395024 0.08242649 0.010103721 -0.11004398 -0.0055491105 0.20105831 0.060020514
-0.1499221 -0.0009551146 0.09926336 0.12665614 0.046405926 0.3460169 0.08445752 0.0001723461
-0.123932354 0.17815599 -0.08193021 0.015015545 -0.051575437 0.025737762 0.08681625 0.13514704
-0.05274477 -0.3063923 -0.08312368 -0.037342224 -0.054273658 -0.19461048 0.027623426 -0.018993082
-0.37843072 -0.15044205 0.25768358 -0.079896465 0.015913777 0.19772859 -0.12156632 0.012236343
-0.17764807 0.022141624 -0.077072755 0.20671709 0.34908888 0.10026961 0.081572324 -0.22648446

bias f4 [256]
00000000: 19e3 583c b482 fd3a 8300 4f3c 6322 843c
00000010: 3886 1a3c 1899 813b 4fff 843a 2d3a 41bc
00000020: fdc9 adbb 798d 613a ddf6 8d39 fbbc ecba
00000030: 2dad 18bc d0ba bcbc 269f 4a3c 5fde 3dbc
00000040: 8025 b6bc fe48 92ba 8c01 963c da6f 123b
00000050: 30a5 b6bb 312b 5dbc ecf3 113a 653a 69bb
00000060: 6cbf a1bb 271f bf3b 0e59 10bc faef 123c
00000070: fa94 783b 36f9 0cbb dc79 56bc 6791 d4bb
00000080: 2f43 643c 05ce 1bbc f693 1bbc 0a67 003c
00000090: 805f 86bc 0268 b23c 6fcf e9bb 8a8d 51bb
000000a0: 335f 863b 3c9a 403c 6c96 d13c 6219 18bc
000000b0: 1a46 b8bc 9ddf 6bbc b1c5 8a3a cea3 303b
000000c0: 958b dcbb 0b3e 263c db61 cc3b e30e 29bb
000000d0: b28e e3ba f1b8 0cbc 52c8 fb3a 9c17 c63c
000000e0: bda4 513c 8ee1 713c 13a2 54bb 4990 b73b
000000f0: 21af 3abb 4a6d bc3c 6f9f 703b c6ee 053c
00000100: 1da6 993b bba3 61bb 793d fdbb 8bc6 843c
00000110: 42f5 603c 5328 113c 06ea 913a 5157 69bb
00000120: 95da f6bb 323b 9e3b 376d c4bb 82f3 23bc
00000130: 0366 39bc c310 d13b f6a5 75bc 4f82 0ebc
00000140: 3486 37bc 212c eabb 681c b63b 8411 87bb
00000150: b550 573a 84c0 5fbc d3af 113c bb12 31bb
00000160: f0c8 b5bc c34c ef3b caf9 3c3c e726 763b
00000170: bb38 f63b 8ae7 1d3c 9172 b2bc 331e 37bc
00000180: e996 8c3a 24b6 863c 7c60 38bc 8921 353b
00000190: 285d 773c ff55 453c 03f4 43bc 7603 233b
000001a0: 2213 1e3b 5994 3dbc 31b6 eb3b defb 41ba
000001b0: 51c7 4a3c b26a 2dbb 2586 8d3c a943 75bc
000001c0: 1b78 41bc c2da de39 9f34 553a c03c ee3b
000001d0: 66e7 103c 8374 9f3b a3d2 bb3b 080f 3abc
000001e0: 04e7 2bbc 0a0d 913c 9e06 553c 1bf1 ad3c
000001f0: 6400 143a b276 d9ba 21d4 b23c 50c3 ae3c
00000200: 69ac 8bbb 0edf 24bb e568 613c 0695 0fbc
00000210: 7379 703b ecf8 e0bb b5cc 533c 688b da3c
00000220: 6bb0 663b b366 8bbb 04a3 6dbc 1105 453a
00000230: 4c8e a8ba 4e3f 513c 8ba4 c93b cd90 dcbb
00000240: 2ba7 90bc c0fc b53a 78ff 983b 40aa 0d3c
00000250: 3392 663c 920c 91bb 9d43 76b9 1a49 fe39
00000260: 9018 af3b c1ee 46bc fd19 d9bc b3ad 12ba
00000270: 33b7 5939 fa33 52bc f8a4 983b e188 80bc
00000280: ab3a c7bb 3d75 5fbc fe1e 85bc f58c 1cbb
00000290: 2023 46bc de3f 803c 2569 2abc e455 2abc
000002a0: 9518 0e3b b755 7fbb 2b04 8abb aa9a 873a
000002b0: 5e4a 74bc 68f7 633c 466a 883b 452b 013c
000002c0: 23b3 bcba 4d10 60bc 1d71 183b 2d0e cc3b
000002d0: 6fb8 24bc 2866 8e3a ef72 573c 83ef d43b
000002e0: a12e 343c e0bd 6d3a a876 5bbc 48fb 843c
000002f0: 65f3 aebb ad2d 89bb 3464 39bb 89ba 80bc
00000300: 0949 d93a 4d39 05bc a0d2 8c3b 224c 5c3c
00000310: 7093 68bc 1ae6 b43b e679 5739 771d 29bc
00000320: 69ac 243c 8783 293c cd53 a6bb 4e12 80bc
00000330: 335e 53bc 2b54 2cbc 2bdd a3bb 9d9c b5bb
00000340: bf87 86bb b3d2 8b3c cdbd c4bb 358d 443c
00000350: 5560 84bc a409 283c 7fd5 8dba 945a b0bb
00000360: c410 a93c d08e 853c 454d c6bb e367 d53a
00000370: 7def e3ba 54f8 c3bb 1ff6 823b 8498 7f3b
00000380: e7c9 5cbb ed4c 483c 4e39 2b3c 0a2b 833c
00000390: 3dfc 733c 5e90 47bc c521 313c 2967 b6ba
000003a0: 3293 62bc a861 ebbb fc2a 4abc d114 d5bb
000003b0: d377 143c 3be7 1ebc 57b9 793b 6d8f 153b
000003c0: d9a0 68bb 3754 ec3a d808 223c e7e4 e53b
000003d0: 3e53 933b 8f0d 93bc 8747 8b3b f832 4bbb
000003e0: 8c08 9abc 0fa5 923b dfc0 063c 80c9 52ba
000003f0: 0f46 a8bc 1208 1abc 0070 8fbc 5313 343c
0.013237738 0.0019341321 0.012634399 0.016129678 0.009431414 0.003955018 0.0010146889 -0.011793655
-0.00530362 0.000860415 0.00027077543 -0.0018061692 -0.009318632 -0.023038298 0.0123670455 -0.011588662
-0.022234678 -0.0011160669 0.018311284 0.00223445 -0.005573891 -0.013499067 0.0005567658 -0.0035587784
-0.0049361493 0.005832571 -0.008810295 0.008968348 0.0037930594 -0.0021510846 -0.013090577 -0.00648706
0.013932033 -0.009509568 -0.009495726 0.007837066 -0.01640296 0.02177811 -0.0071353237 -0.0031975233
0.004100704 0.011755522 0.025584422 -0.0092833955 -0.022494365 -0.014396575 0.0010587481 0.0026953104
-0.0067305067 0.010146628 0.006237251 -0.0025796227 -0.0017361252 -0.008589015 0.001920948 0.02418118
0.012795624 0.014763249 -0.0032445237 0.005601917 -0.0028485733 0.023001332 0.0036716124 0.008174604
0.0046889917 -0.0034429866 -0.0077282754 0.016207954 0.013730349 0.008859712 0.0011132366 -0.0035605023
-0.007533381 0.004828834 -0.0059944647 -0.010006787 -0.011315825 0.006380172 -0.014993181 -0.00869806
-0.01120143 -0.007146374 0.0055575855 -0.004121961 0.00082136254 -0.013656739 0.008892017 -0.002701922
-0.022190541 0.007302852 0.011534164 0.0037559809 0.007514087 0.009637723 -0.021783145 -0.011176634
0.0010726127 0.016444273 -0.011253472 0.0027638397 0.015097894 0.012044429 -0.011960032 0.002487389
0.002412029 -0.011571013 0.00719335 -0.0007399897 0.012376622 -0.00264613 0.01727588 -0.014969745
-0.0118084205 0.00042506127 0.00081331463 0.0072704256 0.008844232 0.004866184 0.005731897 -0.011356123
-0.01049209 0.017706413 0.013002066 0.021233132 0.000564581 -0.001659116 0.021829667 0.021333367
-0.0042624963 -0.0025157365 0.013757919 -0.008763557 0.0036693483 -0.0068656113 0.012927224 0.026677802
0.0035200368 -0.004254186 -0.014504198 0.00075157086 -0.0012859791 0.012771441 0.0061536483 -0.006731129
-0.017657837 0.001388453 0.004669126 0.008646548 0.014072943 -0.0044265473 -0.00023485576 0.0004850112
0.0053435043 -0.012141884 -0.02650165 -0.0005595341 0.0002076298 -0.012829775 0.0046583377 -0.015690269
-0.006079992 -0.013638792 -0.01625013 -0.0023887728 -0.012093335 0.015655454 -0.010401045 -0.0103964545
0.0021682133 -0.0038961002 -0.0042119226 0.0010345776 -0.014910309 0.013913967 0.0041630594 0.007883851
-0.0014396649 -0.013675761 0.002326078 0.006227276 -0.010053738 0.0010864185 0.013149961 0.0064982786
0.010997445 0.0009069126 -0.013394989 0.016233101 -0.0053390735 -0.004186353 -0.0028288485 -0.015713947
0.0016577552 -0.008131337 0.0042975694 0.013445886 -0.014195308 0.0055205943 0.00020549409 -0.010321966
0.010050871 0.0103463 -0.005075908 -0.015633728 -0.012900877 -0.010518114 -0.0050007305 -0.0055423514
-0.0041055377 0.017068243 -0.0060040713 0.011996557 -0.016159216 0.010256205 -0.0010821073 -0.0053818915
0.020637877 0.01630345 -0.0060516917 0.0016281571 -0.0017390099 -0.0059805308 0.003996625 0.0039000819
-0.003368968 0.012225372 0.010450674 0.016011734 0.014891681 -0.012180416 0.010811274 -0.0013916242
-0.013829039 -0.0071832724 -0.01233935 -0.0065027256 0.009061771 -0.009698684 0.0038104856 0.0022821084
-0.0035496263 0.0018030469 0.009889804 0.0070158127 0.004496007 -0.017950801 0.00425047 -0.0031005722
-0.018802904 0.004475243 0.008224695 -0.000804089 -0.020541219 -0.009401338 -0.01750946 0.010990935

weight f4 [128, 256]
00000000: 7274 d33c 47a4 903d f31a c23d 4687 c63d
00000010: ebad 8a3c 05eb fe3d cb53 00be 97f3 693d
00000020: f348 4fbd 52fa 8fbc 167d 34bd 1547 b7bd
00000030: 6903 663d 4279 7abd b564 1e3e 9f9f 2e3d
00000040: 6249 073d f69f 023d f742 003e 6ad7 d83d
00000050: 36ab 93bd 06b2 97bd 63ff c13a 4f75 f4bc
00000060: fe37 c73d 4ece 0d3e d6b3 d5bc 28c7 6c3d
00000070: 1b93 cfbd 31a0 39bd 3221 87bd 2695 d0bc
00000080: c7ae c6bc 6016 a13c b9fe d33c 284e e2bd
00000090: a2df ffbd 6bc4 b1bd 1876 2b3d c225 21bc
000000a0: ce44 b5ba 59d9 85bb 863b 67bd 031f 97bd
000000b0: 334b 4abd ef48 8b3c 9764 4e3d 31fa 8dbc
000000c0: eb66 cfbd f104 c13d 59f5 d23c 8646 34bc
000000d0: 0bd6 1f3d 27a3 8bbd 34da 103d 925b 0bbd
000000e0: 2e62 8ebd 64bf 023e 2241 913d 5b5e 853d
000000f0: 9eae cdbc 4683 9ebc 67ef 0dbe a487 90bd
00000100: d230 603d 9270 53bd f8ee 9bbc 157f 7abd
00000110: f252 fe3c edc9 5b3d ca85 4fbd 1437 dfbb
00000120: bf19 c9bc dede 263d 1017 b7bd d930 ac3d
00000130: 8f2f a9bd 0fcc 403d 0991 54bb d711 8e3d
00000140: fa45 94bc c62b c5bc 7054 c53c f5e9 ae3d
00000150: 1f69 47ba 72c3 843c 5ff9 123d 46d3 e0bb
00000160: 29af fabd 46ef 8fbd 2ed7 2abc a4c0 a83d
00000170: c6e4 703d 2641 dd3d 6f8d c43d 6f47 62bd
00000180: b8bd cb3d 237c 0d3d 083a 0bbd 5213 29bd
00000190: d8ab 6a3c 0489 1139 3393 83bd fae2 543c
000001a0: d75c 8d3c 8fb0 8a3c 8f22 5bbd 25f1 0fbd
000001b0: 8a32 82bd fe53 06bd 7cb7 babc 6720 20bd
000001c0: 6eba 8cbd d516 0bbd cee3 8abc 1017 b0bd
000001d0: 1633 0ebe 1288 2cbd 27f0 64bd 098c 06be
000001e0: e1ad f6bd b650 8b3d 5db6 cfbc 5bb6 a43d
000001f0: ced1 293c ce57 e3bc 1d23 b4bb d0f4 26bd
00000200: 359a 95bc 6278 c5bd f01a 893d 20d9 9cbc
00000210: f0d6 013c 5f5a 233d 58fc 443d 9f27 ad3d
00000220: 06d5 ed3d 366a ad3d 72d4 0f3d d36b 993d
00000230: 95cb 81bd 5fbc 9f3d b705 9e3c 9b70 cf3d
00000240: d793 f23d fb7e 94bd a73e 0ebd dc79 ca3d
00000250: c058 113b 3e01 0bbd dd8d 103e 1f77 4b3c
00000260: b943 0cbd 10d3 3b3d ba44 5d3d 68ab 0f3d
00000270: ee79 923d 8415 57bc bfd7 bdbc 22f8 73bd
00000280: 23e2 7e3d 226a 55ba ebce 5dbc 5f0f 2abe
00000290: 914a 14bd 3875 a4bb 2d9a 06bd 7acf 273e
000002a0: ea08 b53c 7c16 b13c 06a0 d0bd 3d9f d43c
000002b0: c5ae b13d 7836 bf3d 1971 693c 668c ddbd
000002c0: 6ab1 113d 2043 a33d 7cd0 fd3d 6511 4bbd
000002d0: 98ff e5bc 83d8 1b3d b02d f23d dece 9cbd
000002e0: b3a1 58bd 6f35 f8bc cfa0 1abe bbbf d1bd
000002f0: c91a a63d 45a4 303d b9b6 11bb 26b9 20bd
00000300: ff2c 8d3c c772 b33c 6623 953c a7a4 d1bc
00000310: f850 11be 2c3b 9bbd fdcc 68bd 822d 48bd
00000320: 139b 393c 4d95 72bd 9802 d0bd 6b20 a6bc
00000330: 0960 39bd f7eb 91bc 88f6 213d cfe5 1abd
00000340: 5816 cabd 5747 5abd a99c 433d 09df 0ebe
00000350: c4d6 1e3c 3fd8 ec3d 830e b53d 5cc5 1b3c
00000360: 284a 123c 48a6 633a eb04 2dbc 6366 9bbc
00000370: bdbc c03d 6485 8ebd 39c9 21be ead8 af3b
00000380: fa8a 0d3e 83fc 923d 22b9 193e d647 e43c
00000390: 3f3e d4bc 44b5 92bc eeaf 35bc 408b 04bd
000003a0: a372 233d 7d6c bb3d 2071 72bb e0d5 d0bc
000003b0: 91be c23d 51b2 3fbc cb8e 6b3d 1ea7 ca3b
000003c0: 2f4f 563d 7efa 45bb 3a1c fe3c 9a06 f0bd
000003d0: 6438 e23a 6aa9 503d 8fc2 71bd 1a3e 8d3d
000003e0: e0e5 be3d d861 803c ca92 4e3c 1735 c3bc
000003f0: 5ebb 2a3e a8c9 253d a79f 293b 76c2 c3bd
0.025812361 0.070625834 0.094777964 0.0969377 0.016928634 0.1244717 -0.12531964 0.05711707
-0.05060668 -0.017575417 -0.044064604 -0.08949105 0.056155596 -0.061150797 0.15468104 0.042632695
0.033028968 0.031890832 0.12525545 0.10587962 -0.0721039 -0.07407002 0.0014800843 -0.029841093
0.097274765 0.1384823 -0.026086729 0.057807118 -0.1013548 -0.045318786 -0.065981284 -0.025461745
-0.024253262 0.01966399 0.025878297 -0.11050063 -0.124938264 -0.08680042 0.04186067 -0.009835662
-0.001382971 -0.0040847478 -0.05645325 -0.07378962 -0.04938812 0.01700255 0.0503889 -0.017331215
-0.10127052 0.094247706 0.025751757 -0.011003142 0.039022487 -0.06818228 0.035364345 -0.034022875
-0.0695232 0.12768322 0.07092501 0.065121375 -0.025107678 -0.019349705 -0.13860856 -0.070571214
0.05473406 -0.051621027 -0.019034848 -0.06115635 0.03104541 0.05365937 -0.0506647 -0.0068119857
-0.02454841 0.040739886 -0.08939946 0.084077545 -0.08261024 0.047069605 -0.003243508 0.069369964
-0.018099774 -0.024068724 0.024088115 0.085407175 -0.0007606912 0.016206477 0.03588235 -0.0068611233
-0.122404404 -0.0702806 -0.010427279 0.08239868 0.058811925 0.10803442 0.09597289 -0.055243906
0.09948295 0.034542214 -0.03399089 -0.04127819 0.014323197 0.0001387932 -0.064245604 0.012993569
0.017256184 0.016929893 -0.053499755 -0.035142083 -0.06357296 -0.032794945 -0.02279257 -0.0390934
-0.06871496 -0.03395732 -0.016954329 -0.08598149 -0.13886675 -0.042121954 -0.05589309 -0.13139357
-0.120448835 0.06802504 -0.025355512 0.08042594 0.010364963 -0.02775183 -0.00549735 -0.040760815
-0.018262008 -0.09642102 0.06694591 -0.019146502 0.00792478 0.039881106 0.048092216 0.08454823
0.116128966 0.08467524 0.035114713 0.07491269 -0.06337658 0.07799601 0.019289834 0.101289
0.118446045 -0.07250782 -0.03472772 0.09886524 0.0022178143 -0.03393673 0.14116617 0.012418537
-0.034244273 0.04585558 0.05402062 0.035075575 0.071521625 -0.013127688 -0.023174165 -0.05956281
0.06222738 -0.000814112 -0.013538103 -0.16607426 -0.036203925 -0.0050188564 -0.032861877 0.1638774
0.022098977 0.021617167 -0.10186772 0.025954837 0.08675913 0.09336561 0.014248156 -0.108177945
0.035569586 0.079717875 0.12393281 -0.049577136 -0.028075978 0.03804828 0.118251204 -0.07656644
-0.052888583 -0.030298917 -0.15100406 -0.10241648 0.081105776 0.04312541 -0.0022234155 -0.03923907
0.01723337 0.021905316 0.018205356 -0.025591208 -0.14191043 -0.075796455 -0.056836117 -0.048871525
0.0113284765 -0.059224416 -0.10156745 -0.02027913 -0.045257602 -0.017812712 0.03954175 -0.03781682
-0.09867543 -0.05329069 0.047756825 -0.13952269 0.009694759 0.11564683 0.088406585 0.009507503
0.008928813 0.00086841406 -0.010560255 -0.01896972 0.09410999 -0.06959036 -0.15799417 0.0053664343
0.13822547 0.07177069 0.15012029 0.027866285 -0.025908588 -0.0179087 -0.011089308 -0.03235936
0.039904248 0.09151552 -0.0036993697 -0.025492609 0.09509004 -0.011700229 0.057509225 0.0061844727
0.05232161 -0.003020912 0.031019319 -0.11720009 0.0017259237 0.050942816 -0.059023436 0.068966106
0.09321189 0.015671656 0.012608239 -0.023829026 0.16673037 0.040475518 0.0025882514 -0.09558575

bias f4 [128]
00000000: dce8 95bc f7da 18bc 09e1 daba 3639 74bc
00000010: 80dd 84bc a837 7cbd d1d5 5a3c fc3b e03b
00000020: b768 cdba be86 8fbd c4c8 583c 9ff0 83bb
00000030: 9720 e5bc e026 85bc 84d4 1c38 3826 8abd
00000040: 12e4 0c3d 6462 1c3b ace8 a33d 33a6 9ebb
00000050: c0f8 693c 304e 1e3c f9d0 0dbc 2d88 633b
00000060: 2d3d f7bc e9fc 35bd 9e52 983c a3a9 f4ba
00000070: e14a 423d 0c14 8e3c 3ea8 82bd e6a9 babd
00000080: 9cfc 9e3d d60a 853d d611 46bc 365e 18bd
00000090: a230 ac3b fbd7 d03b 1e3a d93c 570f 413d
000000a0: 2d2e a5bd 35ed f7bb 4b8c d53b 8a11 67bc
000000b0: 26d1 573c f716 2abd 19ac f03b edd9 813c
000000c0: 62a7 023b a72d 5ebc 2db3 9a3c 565c a5bc
000000d0: 2572 663d 45a8 b93c 592b afbc 6823 93bb
000000e0: 035e be3c 16bd 823c 2fe5 74ba e01b 323c
000000f0: 12e8 8d3a 1716 acbc c11a 093c 056a 12bc
00000100: e52d aa3c b959 80ba 3bb1 d9bb 87c1 cfbb
00000110: 6b5d 2cbc 32af 763b ede9 0b3b c229 ed3b
00000120: bcf7 a2ba ac11 49bd 6ef8 0ebc d930 8ebc
00000130: b4f7 133c 4ec3 213c c056 9b3b 5819 a33b
00000140: 667b c9bc 2dcd 56bc eda6 6f3c 079b a43c
00000150: 343f 643d da14 933c 7035 a73b f1fd 2fbd
00000160: 6e79 013c 7400 3e3c 9cd0 1dbd 82ac 24bc
00000170: b8a6 cabc fe9f 243d 2889 8a38 81ce e73b
00000180: f0cc d9ba b9af 353c fe64 43ba fbb3 333c
00000190: 61c3 9c3b 9779 453c befe 46bc 8726 b9bc
000001a0: b271 d73c ff4e 993d 6e7d 1b3c bc9e 9abb
000001b0: 33d8 dcbb 5f05 2dbc d0d2 ec39 4151 153d
000001c0: d54b 413b 7a6d 923b 245c eebb e018 23bc
000001d0: 8cf1 57bc 7797 86bd cced 3a3c 6907 84bc
000001e0: 62a0 f53c 4581 bcba cdf1 343c 4206 183c
000001f0: 490d 3dbd 74be 19bd 403b 3abb 4e1c 923b
-0.018299513 -0.009329549 -0.0016699146 -0.014906218 -0.0162189 -0.061576515 0.013356642 0.006843088
-0.0015671466 -0.07008122 0.01323146 -0.004026487 -0.027969642 -0.016253889 3.739122e-05 -0.06745571
0.034397192 0.0023862356 0.08003363 -0.00484159 0.014280498 0.009662196 -0.00865578 0.0034718618
-0.030180538 -0.044430647 0.018594082 -0.0018666278 0.04743469 0.017343543 -0.06379746 -0.09114437
0.07763025 0.064962074 -0.012089213 -0.03719922 0.005254821 0.006373403 0.02651697 0.04713377
-0.08065448 -0.007566119 0.0065169684 -0.014103303 0.0131724235 -0.041525807 0.0073447344 0.015850985
0.0019936194 -0.013560689 0.018884266 -0.02018563 0.0562612 0.022663245 -0.021382974 -0.0044903047
0.023238188 0.015959304 -0.00093420123 0.010870904 0.0010826609 -0.021006627 0.008368195 -0.00893641
0.020773837 -0.0009792364 -0.006643442 -0.006340209 -0.010520319 0.0037641046 0.0021349147 0.007237644
-0.001243345 -0.04908912 -0.008726222 -0.017357277 0.009031225 0.009873224 0.004740566 0.0049773864
-0.024594974 -0.013110441 0.014627201 0.020093454 0.055724338 0.017954279 0.005102806 -0.042966787
0.007902486 0.011596788 -0.038529024 -0.010050895 -0.0247377 0.040191643 6.6059e-05 0.0070741777
-0.0016616862 0.011089259 -0.00074537087 0.010968204 0.004784033 0.012052915 -0.012145696 -0.02260138
0.026299331 0.074857704 0.009490354 -0.0047186296 -0.00673964 -0.010560363 0.00045170495 0.036454443
0.0029494662 0.004468617 -0.0072741676 -0.009954661 -0.013180148 -0.065718584 0.011409234 -0.016116815
0.029983703 -0.0014381787 0.011043978 0.009278836 -0.046155248 -0.037535146 -0.0028416663 0.0044589406
